results/checkpoints/model_epoch_10_step_1.pt (torch, 208379 bytes, 37 tensors)

embedding.metric f4 [5, 5]
0	0xbf800000	-1.0
1	0x00000000	0.0
2	0x00000000	0.0
3	0x00000000	0.0
4	0x00000000	0.0
5	0x00000000	0.0
6	0x3f800000	1.0
7	0x00000000	0.0
8	0x00000000	0.0
9	0x00000000	0.0
10	0x00000000	0.0
11	0x00000000	0.0
12	0x3f800000	1.0
13	0x00000000	0.0
14	0x00000000	0.0
15	0x00000000	0.0
16	0x00000000	0.0
17	0x00000000	0.0
18	0x3f800000	1.0
19	0x00000000	0.0
20	0x00000000	0.0
21	0x00000000	0.0
22	0x00000000	0.0
23	0x00000000	0.0
24	0x3f800000	1.0

embedding.embedding_network.0.weight f4 [128, 55]
0	0x3dd82750	0.10554373
1	0x3d040034	0.032226756
2	0x3c3223e6	0.010872817
3	0xbd1933be	-0.03740286
4	0xbd0560ad	-0.0325629
5	0x3db916e1	0.09037567
6	0x3db985f7	0.09058755
7	0xbd8ae3dd	-0.06781743
8	0xbdc69407	-0.09696203
9	0xbde0e097	-0.10980337
10	0x3da1b29d	0.07895396
11	0xbde42510	-0.111398816
12	0xbdc91f48	-0.098204195
13	0x3d561953	0.052270245
14	0xbd3e3477	-0.046436753
15	0x3dc96011	0.09832776
16	0xbd10dbff	-0.035366055
17	0x3d36dc91	0.044643942
18	0x3c7f95a0	0.015599638
19	0xbd8e6890	-0.069535375
20	0x3a429179	0.000742219
21	0xbd241b49	-0.040065084
22	0xbde6e4e4	-0.11274126
23	0xbd11c9e2	-0.03559292
24	0xbd606707	-0.054785755
25	0xbd7a7a21	-0.061151627
26	0xbd8ab08e	-0.067719564
27	0x3dc38387	0.09546571
28	0x3c39527c	0.01131117
29	0x3d9dd079	0.07705779
30	0x3d765cef	0.060147222
31	0x3ddba3d6	0.107246086
32	0x3d48beb1	0.049009982
33	0x3db85bb5	0.09001867
34	0x3d007ddb	0.031370025
35	0x3d75363e	0.059866183
36	0x3ba1c6c2	0.004937024
37	0xbd1ea7bb	-0.03873418
38	0x3d9f4db5	0.07778493
39	0xbd8aff6a	-0.067869976
40	0xbd8652df	-0.06558775
41	0xbd87a912	-0.066240445
42	0x3d6cb2c0	0.057787657
43	0x3bbc7a46	0.005751881
44	0xbd8f900d	-0.070098974
45	0xbc13a13d	-0.00901061
46	0x3dfa4836	0.122208044
47	0x3db2304b	0.087006174
48	0xbd831eb9	-0.06402344
49	0x3dfa064e	0.12208234
50	0xbcf5208f	-0.029922752
51	0x3df410f5	0.11917297
52	0xbd0ae1fa	-0.033906914
53	0xbe108245	-0.14112194
54	0xbd46434b	-0.04840402
55	0x3e09587c	0.1341266
56	0x3dc0125e	0.09378503
57	0xbdd58339	-0.10425419
58	0xbd97d5a8	-0.074137986
59	0xbdd44f56	-0.10366695
60	0xbd773ed9	-0.06036267
61	0x3b2af0c0	0.002608344
62	0x3de1128d	0.109898664
63	0x3cf777f4	0.030208565
64	0xbdaf14d3	-0.08548894
65	0x3d9147a5	0.07093743
66	0x3cbd45ff	0.023104666
67	0x3c757356	0.0149811115
68	0x3cd61c90	0.026136667
69	0xbd989c5c	-0.07451698
70	0x3dd89efd	0.105771996
71	0x3d53d47a	0.051716305
72	0xbda79edc	-0.08184597
73	0xbb3fae33	-0.0029248118
74	0x3d1e2186	0.03860619
75	0x3cb9b274	0.0226681
76	0x3d8d4b45	0.06899122
77	0x3d69b56e	0.05705779
78	0x3dffbb5e	0.12486909
79	0x3d923d6d	0.07140622
80	0xbd91e3cb	-0.07123526
81	0x3e17bba2	0.1481767
82	0xbc971518	-0.018442675
83	0x3d9728f5	0.07380859
84	0xbdd5d64d	-0.10441265
85	0xbddaf956	-0.10692088
86	0xbba676b7	-0.00508007
87	0xbd8516af	-0.06498467
88	0xbdb31831	-0.087448485
89	0xbdd30850	-0.1030432
90	0x3d1bdcc4	0.038052335
91	0xbd34fb9f	-0.044185277
92	0xbd2defe4	-0.042465106
93	0xbd90d52b	-0.070719086
94	0xbdde77e8	-0.10862714
95	0xbc46435f	-0.012101023
96	0xbd8f2245	-0.06988958
97	0x3d9518f5	0.07280151
98	0x3db9e550	0.09076941
99	0x3dc407f3	0.09571829
100	0x3c46ef66	0.012142038
101	0xbdc8afbd	-0.097991444
102	0x3ceca729	0.028888302
103	0xbd8e7a6f	-0.06956946
104	0xbe1405b0	-0.14455295
105	0xbe04d16a	-0.1297051
106	0x3d4ee2d8	0.050509304
107	0x3ca57aba	0.020200122
108	0x3d2430fc	0.040085778
109	0x3db8dbeb	0.09026321
110	0x3dfe43cd	0.12415276
111	0x3d64ae2f	0.055830177
112	0x3e06883c	0.13137907
113	0xbdb69c81	-0.089165695
114	0xbda2f348	-0.079565585
115	0xbd96e3c3	-0.07367661
116	0x3db35da9	0.08758099
117	0x3c7897a3	0.015172872
118	0x3d5f9962	0.054589637
119	0x3d6fb80f	0.05852514
120	0xbd3f746d	-0.04674189
121	0x3d8d3ede	0.068967566
122	0xbd1faf9e	-0.03898584
123	0xbd9d3932	-0.07676925
124	0x3c89586d	0.016765798
125	0xbcb24901	-0.021763327
126	0x3c134f27	0.008991039
127	0x3d207eb5	0.039183337
128	0x3d93bbb7	0.07213538
129	0xbd0704cb	-0.032963555
130	0x3dc02530	0.09382093
131	0xbb815d4e	-0.0039478904
132	0xbce26175	-0.027634362
133	0xbdb3f864	-0.08787611
134	0x3d6d24e0	0.057896495
135	0x3d8eb67c	0.069684
136	0x3c3764e1	0.011193485
137	0x3d1e6b89	0.038676772
138	0x3db5e726	0.08881979
139	0xbba46577	-0.0050169784
140	0xbd159062	-0.036514647
141	0x3b58850a	0.0033038282
142	0x3e0c76ae	0.13717148
143	0x3d859823	0.065231584
144	0x3e0707c3	0.13186555
145	0x3dc6b31b	0.097021304
146	0x3da08ad4	0.07838979
147	0xbce533e5	-0.027978847
148	0x3d7f7618	0.062368482
149	0x3d91f066	0.071259305
150	0xbd3122c5	-0.04324605
151	0x3dd7da2f	0.10539662
152	0xbd9f05d2	-0.07764782
153	0xbc2632ea	-0.010143975
154	0x3d60052f	0.054692443
155	0x3d378533	0.044804763
156	0xbdaa0f40	-0.0830369
157	0xbd02d3f9	-0.031940434
158	0x3d96c69c	0.073621005
159	0xbde351b4	-0.11099568
160	0xbd4c7936	-0.049920283
161	0x3df584d8	0.119882286
162	0x3d288372	0.04114098
163	0x3cf7e8ab	0.030262312
164	0xbdc15fbf	-0.0944209
165	0x3dacda45	0.08440069
166	0xbdde477a	-0.10853477
167	0x3da36aa7	0.07979327
168	0x3d7d5cb1	0.061855976
169	0xbc282ba6	-0.010264313
170	0x3dfe23d1	0.12409175
171	0x3c5c50ce	0.013447
172	0xbd66102b	-0.056167763
173	0x3c90c4ad	0.017671907
174	0xbe084c20	-0.1331029
175	0x3bfcf163	0.007719205
176	0x3d3e93f6	0.046527825
177	0x3d5a8a00	0.053354263
178	0xbc2da0b6	-0.0105973985
179	0xbd7d1147	-0.061784055
180	0xbda9cf8b	-0.08291539
181	0xbdf8019d	-0.12109683
182	0x3cf4cdaf	0.029883234
183	0xbcff82c2	-0.03119028
184	0xbda3dabc	-0.08000705
185	0x3dddc583	0.10828688
186	0x3d975518	0.07389277
187	0x3c94a77a	0.018146265
188	0x3d8d1285	0.06888298
189	0xb9f25114	-0.00046218245
190	0xbd31a7d5	-0.043372948
191	0x3cd2fa00	0.025753975
192	0xbd04e581	-0.032445434
193	0x3cdfdff9	0.027328478
194	0x3d98b40a	0.07456215
195	0x3d49d473	0.049274873
196	0xbd0cc437	-0.034366813
197	0xbde27dd1	-0.11059154
198	0xbcd0be64	-0.02548141
199	0xbdbc48f4	-0.09193602
200	0xbd7109d3	-0.05884726
201	0x3c390017	0.011291525
202	0xbdadea7f	-0.08491992
203	0xbe08787b	-0.1332721
204	0xbd6aa097	-0.057282057
205	0xbdb6421d	-0.08899329
206	0xbdc063ee	-0.0939406
207	0xbdb433ef	-0.08798968
208	0xbcfd3a9a	-0.030911732
209	0xbdbc4926	-0.091936395
210	0x3a3726c0	0.000698667
211	0x3cc50a2a	0.024052698
212	0x3cb5e7a3	0.02220518
213	0x3d7d0de3	0.06178082
214	0x3cf697f2	0.03010175
215	0xbd7e2aed	-0.062052656
216	0x3d74dd5e	0.059781425
217	0x3d023b5d	0.031794894
218	0x3e0109b4	0.12601358
219	0xbd139479	-0.036030266
220	0xbddf5af1	-0.109060176
221	0x3db520e4	0.08844164
222	0xbda2a744	-0.0794206
223	0x3d5f5513	0.054524492
224	0x3e08777e	0.13326833
225	0xbdcf644b	-0.10126551
226	0xbcee5ecc	-0.029097937
227	0xbda3ab53	-0.07991662
228	0xbc78659d	-0.015160945
229	0xbd787686	-0.060659908
230	0xbdb24c2c	-0.08705935
231	0xbd939144	-0.072054416
232	0xbd8fd32f	-0.07022702
233	0xbd516e57	-0.05113062
234	0xbb18d989	-0.002332302
235	0x3dac334c	0.084082216
236	0x3cc34667	0.023837281
237	0x3dbc0385	0.09180359
238	0xbb544253	-0.0032388165
239	0x3c0fa1d9	0.008766615
240	0xbd0b917f	-0.034074303
241	0x3bf9cdbc	0.0076234024
242	0xbd381fa3	-0.044952046
243	0x3dbf9582	0.09354688
244	0x3c17a3cc	0.009255361
245	0xbd9c04d5	-0.07618109
246	0xbdfa1faf	-0.122130744
247	0x3d68c416	0.056827627
248	0xbd894543	-0.06702664
249	0x3d1a937e	0.037738316
250	0x3e00138e	0.1250746
251	0x3de32792	0.11091532
252	0x3cee6537	0.029100997
253	0x3dce9e1c	0.10088751
254	0x3d0f7f09	0.03503326
255	0xbc5d8648	-0.013520785

embedding.embedding_network.0.bias f4 [128]
0	0x37dd3ca4	2.6373491e-05
1	0x37e39ff2	2.7134989e-05
2	0x3707b90c	8.089712e-06
3	0x3926a490	0.00015892298
4	0xb81cd60c	-3.7392645e-05
5	0x37432258	1.1630902e-05
6	0x35a2bc08	1.2124665e-06
7	0x36d0a980	6.2186155e-06
8	0x374a3005	1.2051319e-05
9	0xb83291c3	-4.257426e-05
10	0xb8d2098a	-0.00010015357
11	0xb7ff9276	-3.046657e-05
12	0xb6a49645	-4.9050745e-06
13	0xb8b9346e	-8.831253e-05
14	0x37976745	1.8048691e-05
15	0x385205ec	5.0073417e-05
16	0x3914dfcb	0.00014197749
17	0x38514dc8	4.9901922e-05
18	0x375a14d0	1.2998658e-05
19	0xb81e723e	-3.7776532e-05
20	0xb728509b	-1.0032348e-05
21	0xb89cd556	-7.4783966e-05
22	0x389266be	6.98096e-05
23	0x379052f0	1.7204758e-05
24	0x370d4268	8.419716e-06
25	0xb75e5d3b	-1.3253938e-05
26	0x3790cc4e	1.7261274e-05
27	0xb777f225	-1.4778726e-05
28	0xb7bdea07	-2.2639533e-05
29	0xb795a812	-1.7840448e-05
30	0x3791c248	1.7375816e-05
31	0x376160de	1.3433599e-05
32	0xb71512e2	-8.885489e-06
33	0x37e8295c	2.7675815e-05
34	0xb8702ee1	-5.726412e-05
35	0xb7aa7fd6	-2.0325107e-05
36	0x388690e8	6.416609e-05
37	0x38d063d7	9.9368095e-05
38	0x384f7aa0	4.946685e-05
39	0x371de273	9.410654e-06
40	0x37a38884	1.9494684e-05
41	0x37becaba	2.2744167e-05
42	0x36ddb44b	6.607302e-06
43	0xb850aebe	-4.9753806e-05
44	0xb5359416	-6.764325e-07
45	0xb7d8f5b8	-2.5863628e-05
46	0xb8e38ca1	-0.00010850398
47	0xb76412c0	-1.3594225e-05
48	0xb77811ec	-1.4786125e-05
49	0xb52ab894	-6.359853e-07
50	0xb7e5be01	-2.7387405e-05
51	0xb7b79f8c	-2.1889595e-05
52	0xb7ca747d	-2.413452e-05
53	0xb70d505a	-8.422963e-06
54	0x37aea538	2.0819352e-05
55	0x380ddaa5	3.382065e-05
56	0x383ef5ef	4.5528574e-05
57	0xb1ca9e00	-5.8969363e-09
58	0x38089353	3.2562133e-05
59	0xb782ef18	-1.5608544e-05
60	0x38539c10	5.0451665e-05
61	0x360f57d0	2.1359774e-06
62	0x354d77b8	7.6542665e-07
63	0xb804c4eb	-3.1654647e-05
64	0x36ddef82	6.6141956e-06
65	0xb8759050	-5.8546953e-05
66	0x3896abdb	7.184568e-05
67	0xb838e3e6	-4.4081266e-05
68	0xb7a7346f	-1.9932368e-05
69	0x38a6e44a	7.958019e-05
70	0xb83c18e0	-4.484586e-05
71	0xb8d88b1b	-0.00010325593
72	0xb7af6bb0	-2.0911772e-05
73	0x37983818	1.8145933e-05
74	0xb770af23	-1.4345892e-05
75	0x3837da11	4.383369e-05
76	0xb7af3487	-2.0886086e-05
77	0xb5500f40	-7.750823e-07
78	0xb8978639	-7.225242e-05
79	0x3712df4b	8.754268e-06
80	0xb76858ad	-1.3848924e-05
81	0x37e3032f	2.7061991e-05
82	0xb75d6ff4	-1.3198693e-05
83	0xb7ab8920	-2.0448642e-05
84	0xb5f1018d	-1.7956351e-06
85	0xb6e513f4	-6.8270547e-06
86	0x37500460	1.2398785e-05
87	0xb5da3afa	-1.625943e-06
88	0xb7e3af76	-2.7142214e-05
89	0xb6aa2a04	-5.071286e-06
90	0xb6d9b572	-6.488227e-06
91	0xb79230e2	-1.742732e-05
92	0xb7d0381e	-2.4821664e-05
93	0x3786830f	1.6035074e-05
94	0xb626ee41	-2.487461e-06
95	0x38804fea	6.118401e-05
96	0x37cff4c6	2.4790304e-05
97	0xb6b10088	-5.275073e-06
98	0x3896b646	7.1865084e-05
99	0x37b064ac	2.1027714e-05
100	0xb777d00a	-1.4770785e-05
101	0xb8adf3e9	-8.294715e-05
102	0xb825a6cd	-3.949441e-05
103	0xb89ce56c	-7.481393e-05
104	0xb7c46824	-2.3413515e-05
105	0xb800e9a7	-3.0735184e-05
106	0xb6ed81d5	-7.078265e-06
107	0xb60a0060	-2.056382e-06
108	0x38999571	7.323444e-05
109	0xb43f3a40	-1.7809452e-07
110	0xb5f2e648	-1.8097426e-06
111	0x37ece550	2.8240174e-05
112	0xb7f90a42	-2.968789e-05
113	0x33adb800	8.08941e-08
114	0xb73f8f5a	-1.1417864e-05
115	0xb80370f7	-3.133804e-05
116	0xb7c2f143	-2.3238948e-05
117	0xb7673048	-1.3779914e-05
118	0xb7a7bc8c	-1.999575e-05
119	0xb68203c8	-3.874742e-06
120	0xb7e2d343	-2.7039676e-05
121	0xb8c48fc1	-9.3727846e-05
122	0x3808e45a	3.2637596e-05
123	0x38401304	4.5794077e-05
124	0xb73c4910	-1.1222684e-05
125	0x37ef1fd6	2.8505845e-05
126	0xb719ddd4	-9.171159e-06
127	0xb808c540	-3.260863e-05

embedding.embedding_network.1.weight f4 [128]
0	0x3f7a697f	0.97817224
1	0x3f81034d	1.0079132
2	0x3f8314fc	1.0240779
3	0x3f85c3db	1.0450395
4	0x3f7d54c5	0.98957473
5	0x3f7cfd0f	0.98823637
6	0x3f7a2113	0.9770672
7	0x3f82424e	1.0176485
8	0x3f81baea	1.0135167
9	0x3f8197f4	1.0124497
10	0x3f79a2b6	0.975139
11	0x3f7be174	0.9839089
12	0x3f81d030	1.0141659
13	0x3f8b62d1	1.0889531
14	0x3f7b29fe	0.9811095
15	0x3f857267	1.0425538
16	0x3f7ff97d	0.99990064
17	0x3f81b750	1.0134068
18	0x3f8013aa	1.0006001
19	0x3f75223b	0.95755357
20	0x3f8186ed	1.0119301
21	0x3f800ab2	1.0003264
22	0x3f7b80f9	0.9824367
23	0x3f7c59dd	0.9857462
24	0x3f7f85a2	0.9981328
25	0x3f80fadd	1.0076557
26	0x3f7e37d4	0.99303937
27	0x3f7f4cb0	0.9972639
28	0x3f7e53dd	0.99346715
29	0x3f804739	1.0021735
30	0x3f803685	1.0016638
31	0x3f809efd	1.0048519
32	0x3f7aec4a	0.980168
33	0x3f78cd8f	0.9718866
34	0x3f828ac5	1.0198599
35	0x3f8172c8	1.0113153
36	0x3f819a73	1.0125259
37	0x3f7f0018	0.9960952
38	0x3f7789c5	0.96694595
39	0x3f7c57c1	0.985714
40	0x3f7e79e7	0.9940476
41	0x3f80d2fc	1.0064387
42	0x3f7d6b6d	0.98992044
43	0x3f7f69e3	0.99770945
44	0x3f7c4f27	0.98558277
45	0x3f827611	1.0192281
46	0x3f7a92ef	0.9788045
47	0x3f75596d	0.9583958
48	0x3f8231bf	1.0171431
49	0x3f84197b	1.0320276
50	0x3f80cc5c	1.0062366
51	0x3f7f63e9	0.99761826
52	0x3f77de5b	0.9682366
53	0x3f86a63a	1.0519478
54	0x3f7a2737	0.9771609
55	0x3f7d15e2	0.98861516
56	0x3f83fac3	1.0310901
57	0x3f82b363	1.0210994
58	0x3f7dc6f8	0.9913173
59	0x3f814003	1.009766
60	0x3f801549	1.0006496
61	0x3f81bbf1	1.013548
62	0x3f7f65f1	0.99764925
63	0x3f80d573	1.006514
64	0x3f709588	0.93978167
65	0x3f791902	0.97303784
66	0x3f80ed89	1.007249
67	0x3f780b1b	0.96891946
68	0x3f84f459	1.0387069
69	0x3f81a5bf	1.0128707
70	0x3f8180d9	1.0117446
71	0x3f7e08c2	0.99232113
72	0x3f7a06af	0.9766645
73	0x3f7a727e	0.9783095
74	0x3f7c6c43	0.98602694
75	0x3f76d12a	0.9641291
76	0x3f7e9671	0.99448305
77	0x3f7bb3ea	0.983214
78	0x3f76c8a4	0.96399903
79	0x3f7bf5a2	0.9842168
80	0x3f7e7167	0.9939179
81	0x3f7f099c	0.9962404
82	0x3f78c9ff	0.9718322
83	0x3f7a76c7	0.9783749
84	0x3f7d43fa	0.9893185
85	0x3f83ebc8	1.030633
86	0x3f80e5ad	1.0070091
87	0x3f7fe8e9	0.9996477
88	0x3f80df27	1.0068101
89	0x3f78d534	0.9720032
90	0x3f7f4d8e	0.99727714
91	0x3f807952	1.0037024
92	0x3f7a5013	0.97778434
93	0x3f7fc420	0.9990864
94	0x3f829453	1.0201515
95	0x3f83c00a	1.0292981
96	0x3f7dcfea	0.99145377
97	0x3f7d355e	0.98909557
98	0x3f8169a6	1.0110366
99	0x3f7f3044	0.9968302
100	0x3f73797b	0.9510724
101	0x3f80fd9a	1.0077393
102	0x3f81d6e8	1.0143709
103	0x3f82f7ba	1.023185
104	0x3f7db77c	0.991081
105	0x3f8288f4	1.0198045
106	0x3f8229d5	1.0169016
107	0x3f84f902	1.0388491
108	0x3f77c2c0	0.9678154
109	0x3f819e12	1.0126364
110	0x3f7b6e2d	0.9821499
111	0x3f82993e	1.0203016
112	0x3f802f9a	1.0014527
113	0x3f7c72db	0.98612756
114	0x3f764e58	0.96213293
115	0x3f80d990	1.0066395
116	0x3f839cfd	1.0282284
117	0x3f7a40ea	0.977553
118	0x3f81faa4	1.0154614
119	0x3f807a92	1.0037405
120	0x3f7a56bb	0.9778859
121	0x3f7c3d1b	0.9853074
122	0x3f7d0509	0.9883581
123	0x3f800167	1.0000428
124	0x3f7e86bf	0.99424356
125	0x3f820289	1.0157024
126	0x3f8195ca	1.0123837
127	0x3f784a41	0.969883

embedding.embedding_network.1.bias f4 [128]
0	0xbc6aa709	-0.014322051
1	0xba3e6e66	-0.00072643755
2	0x3cd2d7ae	0.02573761
3	0x3d3b13cd	0.04567318
4	0xbbc4d3a2	-0.006006674
5	0x3bbe605e	0.0058098277
6	0x3b816b4a	0.0039495574
7	0x3c858e22	0.016303126
8	0x3d6e35c6	0.05815675
9	0x3ca7205c	0.020401172
10	0xbacd3ee4	-0.0015659002
11	0xbcabb2eb	-0.020959338
12	0x3d615f3f	0.055022474
13	0x3dba8bb5	0.09108678
14	0x3c505a73	0.012716877
15	0x3cdcc52b	0.026949486
16	0x3c1c914e	0.009556128
17	0x3cb801ce	0.022461798
18	0x3cc1d338	0.023660287
19	0xbcd009e3	-0.02539534
20	0x3c94a9b2	0.018147323
21	0xbbb9f513	-0.005674967
22	0x3c9de6b4	0.019275047
23	0xbb860712	-0.0040901983
24	0x3d093d59	0.03350577
25	0x3c7c841e	0.015412359
26	0x3ce63a77	0.02810405
27	0x3c7a3fa9	0.015273967
28	0xbb16e8b2	-0.002302688
29	0xbbb171b4	-0.005415166
30	0x3c99b268	0.018761829
31	0x3cab9f25	0.02094991
32	0xbca4de84	-0.020125635
33	0xbc64fc3c	-0.013976153
34	0x3cc8e171	0.024521561
35	0x3ca0bf87	0.019622577
36	0x3c1d66e9	0.009607055
37	0x3ce6eafd	0.028188223
38	0xbd1483ef	-0.036258634
39	0x3bf8f701	0.0075978045
40	0x3a0713ac	0.00051527726
41	0x3c91f281	0.01781583
42	0x3c93d627	0.018046452
43	0x3cd60741	0.026126506
44	0x3bf4a609	0.007466082
45	0x3d098a0b	0.033578914
46	0x3b0ea720	0.0021767095
47	0xbcd306a9	-0.025760012
48	0x3d0a28f6	0.03373047
49	0x3d3f9039	0.0467684
50	0x3c99c6ce	0.018771555
51	0x391e4a18	0.00015095656
52	0xbc8dccdf	-0.017309604
53	0x3d59cba7	0.053172734
54	0xbc60dc1c	-0.013724353
55	0x3b9aa8d9	0.0047198352
56	0x3cef5cfd	0.029219145
57	0x3d26f3af	0.04075974
58	0xbc012d66	-0.007884359
59	0x3c9bba06	0.019009601
60	0x3c541357	0.012944064
61	0x3c862704	0.016376026
62	0x3c8abacb	0.016934773
63	0x3cdd17e5	0.026988933
64	0xbd413f70	-0.04717964
65	0xbcbef329	-0.023309307
66	0x3c2f00d1	0.010681347
67	0xbccc390b	-0.024929544
68	0x3d3937c9	0.045219216
69	0x3d6f1c3f	0.058376547
70	0x3cf7df64	0.030257888
71	0xb6d729e8	-6.412378e-06
72	0xbba21d2f	-0.0049473266
73	0xbb81c532	-0.003960275
74	0x3c5235c9	0.012830206
75	0xbc5240f5	-0.01283287
76	0x3c2121e8	0.009834744
77	0x3bba4f3f	0.0056857164
78	0xbc55f994	-0.013059992
79	0x3ada1b3f	0.00166402
80	0x3c49832e	0.012299342
81	0x3c851dc4	0.016249545
82	0xbce5bfb2	-0.028045509
83	0xbb2db1b4	-0.0026503624
84	0xba5b0eb1	-0.0008356376
85	0x3d49b71e	0.0492469
86	0x3c92ad3e	0.017904874
87	0x3cf34c49	0.029699462
88	0x3b59ce41	0.003323451
89	0xbb293c83	-0.0025823421
90	0x3d345b52	0.044032402
91	0x3ca83720	0.020534098
92	0xbc763782	-0.0150278825
93	0x3cd20d7d	0.025641197
94	0x3cb8a7a1	0.02254087
95	0x3cf0d499	0.02939825
96	0xbb1f001c	-0.002426154
97	0x3bd3dfbb	0.0064658797
98	0x3cf92eab	0.03041776
99	0x3ad5e56a	0.0016318981
100	0xbd29b304	-0.04143049
101	0x3c1f38dd	0.009718147
102	0x3ccf7847	0.025325907
103	0x3ca81381	0.020517113
104	0x3b64e76e	0.0034927982
105	0x3c442de9	0.011973836
106	0x3ce1c7b4	0.027561046
107	0x3cf14f59	0.029456781
108	0xbbd80cc1	-0.0065933173
109	0x3c3eefdb	0.011653866
110	0x3ba5498d	0.0050441683
111	0x3cbb58cb	0.022869488
112	0x3ba79b25	0.00511493
113	0x3ba2239f	0.004948094
114	0xbcb22c9f	-0.021749793
115	0x3c8282cc	0.01593151
116	0x3d1cc268	0.038271338
117	0xbc29b642	-0.010358395
118	0x3ce17456	0.027521294
119	0x3d10aa6c	0.035318777
120	0xbc181e62	-0.009284588
121	0xb7b8402c	-2.1964392e-05
122	0xbca68541	-0.020327212
123	0x3c2868e8	0.010278918
124	0x3b101afe	0.0021988745
125	0x3c0fa425	0.008767162
126	0x3d60625f	0.054781314
127	0xbca08446	-0.019594323

embedding.embedding_network.1.running_mean f4 [128]
0	0x3b4a7301	0.0030891302
1	0x3bc89ad0	0.0061219707
2	0xbb3e4725	-0.0029034105
3	0xbc367c27	-0.011137999
4	0x3c37f75f	0.011228411
5	0xbc0064a3	-0.007836494
6	0xbb8d353f	-0.004309326
7	0xbc459bb2	-0.012061046
8	0x3a4810c0	0.00076318905
9	0xbba81ce2	-0.005130396
10	0x3af00f16	0.0018315043
11	0x3bb68875	0.005570466
12	0x394a8834	0.00019314961
13	0xbc6012dd	-0.013676372
14	0x3bfbabdc	0.0076803993
15	0x3c227289	0.009915003
16	0xbb97683d	-0.0046205805
17	0x3c31bf3a	0.010848815
18	0x3c7e2360	0.015511364
19	0xbbe75358	-0.007059496
20	0xbc2ebdbf	-0.010665356
21	0xbca78647	-0.02044977
22	0x3cab790b	0.020931741
23	0xbbad3c02	-0.0052866945
24	0xba476014	-0.00076055643
25	0xbb844100	-0.004036069
26	0xbad2cb23	-0.0016082268
27	0x3be7ea84	0.007077517
28	0x3bc206ce	0.0059212213
29	0x3993d855	0.00028199205
30	0xbc8bd3fb	-0.017068854
31	0xbc7e8d36	-0.015536597
32	0x3c71b5c2	0.014752807
33	0x38a9b2fc	8.0918864e-05
34	0xbc012736	-0.007882884
35	0x3ca38e1a	0.01996522
36	0x3c8fe6cd	0.01756611
37	0x3b9b7a56	0.004744808
38	0xbabe1943	-0.0014503378
39	0x3b829e7f	0.0039861794
40	0x3c34eb48	0.011042424
41	0x3c014100	0.007889032
42	0xbbf6a0a1	-0.0075264727
43	0xbc8c22a4	-0.017106362
44	0x3b7e9a80	0.0038849413
45	0x3c1ecb84	0.009692077
46	0xbb812449	-0.003941093
47	0xbc6e08d1	-0.014528469
48	0xbb4ba1f1	-0.0031071866
49	0x3bd7c675	0.006584937
50	0x3b966f28	0.0045908876
51	0x3c884588	0.016634718
52	0x3c141b48	0.0090397075
53	0x3be8c035	0.007102991
54	0x3c348f0b	0.011020432
55	0xbc804bd9	-0.015661167
56	0xbc581b0e	-0.013190044
57	0xba89e054	-0.0010519125
58	0xbb858596	-0.0040747626
59	0x3c69989e	0.014257578
60	0x3aed5f3d	0.0018110048
61	0xbbc339fe	-0.005957841
62	0x3c1d69f2	0.009607779
63	0xbc414247	-0.011795587
64	0xbb39f80e	-0.0028376612
65	0x3be80918	0.007081162
66	0xbacdfb55	-0.0015715162
67	0x3ba3a6c9	0.0049942476
68	0xbc176ee2	-0.009242745
69	0xbc085e23	-0.008323225
70	0x3c46e90a	0.012140522
71	0x3c271cbb	0.010199721
72	0xbbc01498	-0.00586183
73	0xbc1c09b1	-0.009523795
74	0x3ab590d5	0.0013852367
75	0xb9a8612a	-0.0003211585
76	0x3c1d6629	0.009606876
77	0xbc2205c1	-0.009889067
78	0xbc01c1a1	-0.0079197
79	0x3b01ffea	0.0019836375
80	0xbc654500	-0.013993502
81	0x3c6f495e	0.014604894
82	0x3c553913	0.013014096
83	0xbc8624da	-0.016374994
84	0x3c2f6b50	0.010706738
85	0x3bb153c0	0.005411595
86	0xbc405f49	-0.011741468
87	0xbc3cacad	-0.0115157785
88	0xbc03f31e	-0.008053569
89	0x3c6ff087	0.0146447485
90	0xbc699243	-0.014256063
91	0x3c623db0	0.013808653
92	0xbc3b3ed7	-0.011428556
93	0xbb8c1426	-0.004274863
94	0x3ba82dfc	0.005132435
95	0xbcba3b3b	-0.022733321
96	0x3c8a0b01	0.01685095
97	0xbc653e17	-0.013991854
98	0xbc02e4d1	-0.007989124
99	0x3c86e8e1	0.016468467
100	0xb9186540	-0.00014533568
101	0xba4c6034	-0.0007796318
102	0xbbbbe0f3	-0.005733603
103	0x3b573518	0.0032838043
104	0xbbb1ef8b	-0.005430167
105	0x3bda3a51	0.006659784
106	0x3bc71915	0.006075988
107	0xbc100adc	-0.008791652
108	0xbc035111	-0.008014933
109	0x3c363dcf	0.011123135
110	0x3c222e0c	0.009898674
111	0x3bf1d79c	0.007380439
112	0x399d4ba4	0.0003000173
113	0xbb0d8f98	-0.002160048
114	0x3c88eeba	0.016715396
115	0xbaf1aa38	-0.001843757
116	0x3c1dda04	0.0096344985
117	0x3b9a4447	0.0047078463
118	0x3b8f64c8	0.0043760277
119	0x3c3a165a	0.011357868
120	0x38d0671a	9.937417e-05
121	0xbbef9493	-0.0073114126
122	0xba367aa2	-0.0006961023
123	0x3b595e90	0.0033167936
124	0xbb1904c7	-0.0023348795
125	0x3b36a17a	0.0027867244
126	0xbc81a975	-0.015827874
127	0x3bd5fc7b	0.006530342

embedding.embedding_network.1.running_var f4 [128]
0	0x3b9cb198	0.004781913
1	0x3c74e675	0.014947523
2	0x3c88dc98	0.01670675
3	0x3c26f062	0.010189148
4	0x3c1c51dc	0.009541001
5	0x3bdb8bb3	0.006700003
6	0x3c6148d3	0.013750273
7	0x3c3ae1f9	0.011406415
8	0x3c0f14fe	0.008733032
9	0x3c88414c	0.016632698
10	0x3c06f950	0.008238152
11	0x3c4f4aeb	0.012652139
12	0x3c2bc03f	0.010482847
13	0x3c7e2a65	0.015513037
14	0x3c535321	0.012898237
15	0x3c606c16	0.013697645
16	0x3c027bbb	0.00796407
17	0x3c99d331	0.018777462
18	0x3c15ffb8	0.009155206
19	0x3c030324	0.007996354
20	0x3c4938c8	0.012281604
21	0x3c86416c	0.016388617
22	0x3c3ae067	0.011406041
23	0x3c674724	0.014116082
24	0x3c736417	0.014855406
25	0x3bd75a27	0.0065720263
26	0x3c8691cf	0.016426949
27	0x3c866a55	0.016408125
28	0x3c0eab64	0.008707855
29	0x3bfb4df0	0.007669203
30	0x3c22b723	0.0099313585
31	0x3c88f2f7	0.016717417
32	0x3c2ef93e	0.010679541
33	0x3b96d86e	0.004603437
34	0x3c6e61cd	0.014549685
35	0x3c8e15d6	0.017344397
36	0x3c5875b6	0.013211658
37	0x3c5547f0	0.0130176395
38	0x3c81e9d9	0.015858578
39	0x3c8c71c9	0.0171441
40	0x3c1e7c7f	0.009673237
41	0x3c8cd516	0.017191451
42	0x3c337400	0.0109529495
43	0x3c290602	0.010316374
44	0x3c406267	0.011742211
45	0x3bf57d6e	0.007491759
46	0x3bbb1ba7	0.0057100835
47	0x3c13045b	0.008973206
48	0x3c0f4528	0.0087445155
49	0x3c5d814a	0.013519594
50	0x3c55af71	0.013042317
51	0x3ca4f7d9	0.020137714
52	0x3bfb3ab0	0.007666908
53	0x3c430cc4	0.011904899
54	0x3c2884a1	0.010285527
55	0x3c20f0eb	0.009823064
56	0x3c66153f	0.014043151
57	0x3c594bc4	0.013262693
58	0x3c0532da	0.0081298
59	0x3c64b112	0.0139582325
60	0x3c442c67	0.011973477
61	0x3c15827f	0.009125351
62	0x3c024c73	0.007952797
63	0x3c3bd9a2	0.011465462
64	0x3b87e08d	0.0041466416
65	0x3c077055	0.008266528
66	0x3c5147c7	0.012773461
67	0x3b64a082	0.003488571
68	0x3c8a0532	0.01684818
69	0x3c697aa4	0.014250431
70	0x3c61f507	0.013791329
71	0x3bc8812f	0.0061189155
72	0x3c8cfafa	0.017209519
73	0x3be0ec93	0.0068641393
74	0x3c802183	0.01564098
75	0x3bbe0803	0.005799295
76	0x3c2d7a8f	0.010588302
77	0x3c4621bd	0.012093005
78	0x3c05d1fc	0.00816774
79	0x3c74ff4b	0.014953445
80	0x3c99769b	0.018733313
81	0x3c0e855f	0.00869879
82	0x3bdec3ad	0.0067982287
83	0x3c7e844e	0.015534474
84	0x3c64d45b	0.013966645
85	0x3c4ab937	0.01237326
86	0x3c4b61d6	0.012413463
87	0x3c9a22f9	0.018815504
88	0x3bd1ae6f	0.006398968
89	0x3ca700ce	0.020386126
90	0x3c2ad1a1	0.010425956
91	0x3c5f225b	0.013619031
92	0x3bdfec36	0.0068335785
93	0x3c1e965c	0.009679403
94	0x3ca5112a	0.020149786
95	0x3c1d56b1	0.009603188
96	0x3c1d1d2a	0.009589473
97	0x3c14606c	0.009056192
98	0x3c4c9fa0	0.012489229
99	0x3bd7efe6	0.0065898774
100	0x3b841146	0.0040303795
101	0x3c3761b4	0.011192728
102	0x3cada809	0.02119829
103	0x3c3ec70f	0.011644139
104	0x3c4fadd0	0.0126757175
105	0x3c6db09b	0.014507438
106	0x3c2ccea4	0.010547314
107	0x3c5e3075	0.013561358
108	0x3b884430	0.004158519
109	0x3c7e89ba	0.015535766
110	0x3c6269f6	0.013819208
111	0x3c886d8e	0.016653802
112	0x3caa39c8	0.020779505
113	0x3c22c086	0.0099335965
114	0x3c18c100	0.009323359
115	0x3ca6adbd	0.020346517
116	0x3ca42e1f	0.020041524
117	0x3bc9b2fc	0.00615537
118	0x3c22f630	0.009946391
119	0x3cc2b116	0.023766082
120	0x3bfe1be0	0.007754788
121	0x3c789c7e	0.015174029
122	0x3c9671cd	0.018364811
123	0x3c864b2f	0.016393272
124	0x3b8c1b30	0.004275702
125	0x3c5b4e7a	0.0133854095
126	0x3c7983d7	0.015229187
127	0x3bc14c22	0.0058989683

embedding.embedding_network.4.weight f4 [64, 128]
0	0x3d5c29f5	0.05375095
1	0xbcbde470	-0.023180217
2	0x3d856851	0.065140374
3	0xbd1726e0	-0.03690231
4	0x3d2a6cc4	0.041607633
5	0x3c4d4432	0.012528466
6	0x3da67759	0.081282325
7	0xbd29188b	-0.04128317
8	0xbd12a56b	-0.035802286
9	0xbdb7a176	-0.08966343
10	0xbccfd790	-0.025371343
11	0xbd62f8fe	-0.05541324
12	0x3cfcdf0d	0.030868078
13	0x3d734558	0.059392303
14	0x3d8a4745	0.06751875
15	0x3daebb41	0.085318096
16	0xbc2363c2	-0.009972515
17	0x3c5fd7fb	0.013662334
18	0x3d935996	0.071948215
19	0xbdaaacb6	-0.08333723
20	0x3d675f96	0.056487642
21	0xbce23d41	-0.027617099
22	0xbd340f0b	-0.04395966
23	0xbdb6b5a3	-0.08921363
24	0x3c08430e	0.008316768
25	0xbd1c7dd8	-0.03820595
26	0xbc166f1b	-0.009181763
27	0xbca63688	-0.020289674
28	0xbcb6fed0	-0.022338301
29	0x3d5bef5d	0.05369507
30	0xbd257960	-0.040398955
31	0x3c5d0780	0.013490558
32	0x3c710442	0.014710488
33	0xbda3e3ed	-0.08002458
34	0xbd8709ec	-0.06593689
35	0xbcdc1e4f	-0.026869921
36	0xbcafe61b	-0.021472028
37	0xbc323e69	-0.010879138
38	0xbb299f9d	-0.002588249
39	0x3da3c314	0.079961926
40	0x3c4eef6a	0.012630323
41	0xbd160583	-0.03662635
42	0x3abbcba3	0.0014327656
43	0xbda30ffc	-0.07962033
44	0x3db69ae4	0.08916262
45	0x3d9f0e34	0.07766381
46	0x3dcdfe40	0.1005826
47	0xbd6f06da	-0.058356144
48	0xbda18563	-0.078867696
49	0xbd764007	-0.060119655
50	0x3d0a6bb4	0.03379412
51	0xbc992fc3	-0.018699532
52	0x3d1ff5e1	0.039052848
53	0xbd0dd7f1	-0.034629766
54	0x3dba96e8	0.09110814
55	0xbda03046	-0.078217074
56	0x3bf9e007	0.007625583
57	0xbd0962d0	-0.0335415
58	0xbde19b34	-0.11015931
59	0x3d021032	0.031753726
60	0x3d956f05	0.07296566
61	0xbdadece1	-0.08492447
62	0x3db25864	0.087082654
63	0xbcbd748c	-0.023126863
64	0x3d65a20a	0.056062736
65	0x3b2e91f3	0.0026637285
66	0x3da66ac6	0.08125834
67	0x3c375488	0.011189587
68	0x3c0e4886	0.008684283
69	0x3d399b11	0.0453139
70	0xba483afe	-0.0007638185
71	0x3dc39cf1	0.095514186
72	0xbab73a9f	-0.0013979262
73	0xbd77937e	-0.060443394
74	0x3d7dc853	0.061958622
75	0xbd9553bf	-0.07291364
76	0xba124ce0	-0.0005580913
77	0xb9ee9b46	-0.00045510585
78	0xbd2f95b7	-0.04286739
79	0x3daa59ef	0.08317935
80	0xb918ad2c	-0.00014560361
81	0xbd41159a	-0.04713974
82	0x3c83cc2a	0.016088564
83	0x3d173d64	0.03692378
84	0xbd1df5c7	-0.03856447
85	0x3cb01ba8	0.021497563
86	0xbda521ee	-0.08063112
87	0x3cb897e4	0.022533365
88	0xbd27676c	-0.040870115
89	0x3cdca853	0.026935732
90	0x3d7c2a0b	0.061563533
91	0x3d2514f5	0.04030319
92	0x3ce49e8a	0.027907629
93	0xbb0bcde9	-0.0021332449
94	0xbd83722a	-0.064182594
95	0xbb9d5d36	-0.0048023714
96	0xbaca5626	-0.0015437051
97	0x3d2250de	0.039627902
98	0xbd53b360	-0.051684737
99	0x3bb25d4e	0.0054432517
100	0x3da197d9	0.07890291
101	0x3c0a6065	0.008445834
102	0xbd876fee	-0.06613146
103	0xbca32784	-0.019916303
104	0xbd123ebe	-0.035704367
105	0xbc0c74ba	-0.008572752
106	0xbd0d7b4d	-0.034541417
107	0xbdb7cddb	-0.08974811
108	0x3d247805	0.040153522
109	0xbc88e6f4	-0.01671169
110	0xbd4e5b8e	-0.050380282
111	0xbc9ea317	-0.019364877
112	0xbda01f56	-0.07818477
113	0xbd4e069b	-0.05029927
114	0xbd582266	-0.05276718
115	0xbce9ff12	-0.02856401
116	0x3d832deb	0.064052425
117	0xbd3a5caa	-0.045498528
118	0x3d0e8f0a	0.03480438
119	0x3d004005	0.031311054
120	0xbd129fa5	-0.03579678
121	0x3d2098d3	0.039208245
122	0xbdcaad0a	-0.09896286
123	0xbd137969	-0.036004458
124	0x3c93879c	0.018009
125	0x3d077be4	0.033077136
126	0xbdcc2606	-0.0996819
127	0xbc923103	-0.017845636
128	0xbb9fdd31	-0.004878663
129	0xbd508491	-0.050907675
130	0x3d9d5a06	0.07683186
131	0x3d93ebdc	0.07222721
132	0x3c84a75a	0.01619308
133	0x3d9b7482	0.075905815
134	0x3d4e5ecb	0.05038337
135	0x3d96b7ca	0.07359274
136	0xbd765184	-0.060136333
137	0xbd823757	-0.063582115
138	0xbdba6ac8	-0.09102398
139	0x3b89825c	0.0041964483
140	0x3d076194	0.033052042
141	0xbc738467	-0.01486311
142	0xbdbf29fb	-0.09334179
143	0x3d96f686	0.07371239
144	0xbc515271	-0.012776003
145	0xbd87f848	-0.06639153
146	0x3d82912e	0.06375347
147	0xbc86f381	-0.016473534
148	0xbd8b313e	-0.067965016
149	0x3d9f9212	0.077915326
150	0x3be059e4	0.0068466533
151	0x3d868a1b	0.0656931
152	0xbd527d38	-0.05138895
153	0x3d72e6e2	0.05930222
154	0xbd9ef3d0	-0.07761347
155	0x3b5e02ad	0.0033876107
156	0xbda9eb51	-0.08296836
157	0xbd3ffbf6	-0.046871148
158	0x3c17e00a	0.009269724
159	0xbd7d4172	-0.06182999
160	0xbd1bd723	-0.038046967
161	0xbb7af561	-0.003829323
162	0x3cca4f20	0.024695933
163	0xbd60ded3	-0.0549
164	0xbc23db55	-0.010001023
165	0xbd9906df	-0.07472014
166	0x3cc7810c	0.024353527
167	0xbd943335	-0.072363295
168	0x3da0cdad	0.078517295
169	0xbcec3e72	-0.02883837
170	0x3d395b24	0.045252934
171	0xbd276996	-0.04087218
172	0x3b04d70e	0.0020269784
173	0xbd9615f1	-0.07328404
174	0x3d658e55	0.05604394
175	0x3d2934ff	0.041310307
176	0xba9ec652	-0.0012113547
177	0x3c7c0646	0.015382355
178	0xbda27c5d	-0.07933877
179	0xbdb02b50	-0.08602011
180	0xbda06fef	-0.0783385
181	0x3cc00ebb	0.023444524
182	0xbd7f8e0d	-0.06239133
183	0xbd61e112	-0.055146284
184	0x3cb22f8e	0.021751191
185	0xbd283ed6	-0.04107555
186	0x3c99e735	0.018787006
187	0x3d6718c6	0.05642011
188	0x3d13edbd	0.036115397
189	0x3dbd68df	0.09248518
190	0xbcbd4886	-0.023105871
191	0x3d765fc6	0.06014993
192	0x3cacb3ca	0.021081824
193	0xbd480dd6	-0.04884132
194	0x3daacd2e	0.08339916
195	0xbd1bcab8	-0.038035125
196	0xbdab6ec1	-0.08370734
197	0x3d4554ef	0.048176702
198	0xbd4c9cc8	-0.049954206
199	0x3d841a4d	0.06450329
200	0x3bb88887	0.0056315097
201	0x3d5e243a	0.054233767
202	0xbc9a3963	-0.018826192
203	0xbda995df	-0.08280539
204	0x3ac93596	0.0015351053
205	0xbc17a00a	-0.009254465
206	0x3d66d065	0.056351084
207	0xbd719c71	-0.058987085
208	0x3da6d427	0.081459336
209	0xbd353110	-0.044236243
210	0xbdbd2c43	-0.09236958
211	0x3d16d8bb	0.036827784
212	0x3d08abb7	0.033366885
213	0xbdadeec9	-0.0849281
214	0xbce80ea8	-0.028327301
215	0x3c9e8589	0.019350784
216	0xbd0a5ca3	-0.03377975
217	0xbd25299b	-0.04032288
218	0xbc941bb7	-0.018079622
219	0xbbc21b3e	-0.0059236577
220	0x3d567ba6	0.052364014
221	0x3d3f2bb7	0.04667255
222	0x3db5f751	0.088850625
223	0xbce3ef33	-0.02782402
224	0x3d37fc2e	0.04491823
225	0xbd4fa3f1	-0.050693456
226	0xbd6719f4	-0.056421235
227	0xbcfc6118	-0.030808017
228	0xbd577dee	-0.05261033
229	0xbd96b9bf	-0.07359647
230	0xbba39697	-0.004992317
231	0x3d31378b	0.04326586
232	0xbd4528b1	-0.04813451
233	0xbcdef973	-0.027218556
234	0x3ccbff48	0.024902001
235	0xbda268da	-0.07930155
236	0x3d876f39	0.06613011
237	0xbdd145ed	-0.102184154
238	0x3ce22f56	0.027610462
239	0xbd21385b	-0.039360385
240	0xbd6207b9	-0.055183146
241	0x3dbeb3ee	0.093116626
242	0xbd693f8e	-0.056945376
243	0x3bb196d2	0.0054195905
244	0xbdafb7b2	-0.08579959
245	0xbd8f0c34	-0.069847494
246	0x3d7d450e	0.061833434
247	0xbdd436bb	-0.103620015
248	0xbbbe9ab5	-0.0058167824
249	0x3d5d2230	0.053987682
250	0x3d202978	0.039102048
251	0x3cdcc64f	0.02695003
252	0x3d9c2b87	0.0762549
253	0xbcf68e17	-0.03009705
254	0x3d8a2aef	0.0674647
255	0xbd21928d	-0.039446402

embedding.embedding_network.4.bias f4 [64]
0	0xb73e2d84	-1.133548e-05
1	0x37a48e6f	1.961665e-05
2	0x38adeb7c	8.293145e-05
3	0x350708a1	5.0303976e-07
4	0xb8290dac	-4.0305473e-05
5	0xb7420196	-1.156367e-05
6	0x3766e436	1.3762203e-05
7	0x37a9a276	2.0222022e-05
8	0xb6986550	-4.5417473e-06
9	0xb7234605	-9.73186e-06
10	0xb7270df9	-9.957229e-06
11	0x36892c48	4.088073e-06
12	0x37e7b5bf	2.7621978e-05
13	0xb801b0f5	-3.09208e-05
14	0xb82a1c55	-4.0557545e-05
15	0x37b1b6d0	2.1185173e-05
16	0xb75de008	-1.3224788e-05
17	0x36ef127a	7.124906e-06
18	0xb6cbc62f	-6.072943e-06
19	0x361bf934	2.3241855e-06
20	0xb72ac848	-1.0179421e-05
21	0x37e0e2be	2.6808466e-05
22	0xb695e96b	-4.4677195e-06
23	0xb7c41a5a	-2.3377292e-05
24	0x36f77cb3	7.3756905e-06
25	0x3595a241	1.1148587e-06
26	0xb7138b0a	-8.794255e-06
27	0xb69d52d8	-4.688609e-06
28	0xb7472ba6	-1.1871487e-05
29	0x36fbd3c4	7.5050357e-06
30	0xb78e63dd	-1.6974222e-05
31	0x37d2b47f	2.5118e-05
32	0xb7076cd2	-8.071964e-06
33	0xb745d2be	-1.1791182e-05
34	0xb838b704	-4.4039465e-05
35	0x3870d1a6	5.741571e-05
36	0xb8097a91	-3.2777494e-05
37	0x3711916d	8.676533e-06
38	0xb4c0084e	-3.576883e-07
39	0xb8980796	-7.249338e-05
40	0x367630b2	3.66852e-06
41	0x36b479f5	5.3786157e-06
42	0x370ca3cd	8.382788e-06
43	0xb806da5a	-3.2151445e-05
44	0x381c347f	3.724219e-05
45	0xb73cd900	-1.12561975e-05
46	0x38073c3d	3.224261e-05
47	0xb79224e8	-1.7421742e-05
48	0x37a1f0e8	1.9304876e-05
49	0x37e29bab	2.7013788e-05
50	0xb78e03fc	-1.6929574e-05
51	0x352b6cc2	6.386073e-07
52	0x3671886d	3.5991209e-06
53	0xb6b63318	-5.4299708e-06
54	0x37445903	1.1703235e-05
55	0x37a3d38f	1.9529629e-05
56	0x37ba2f72	2.2195021e-05
57	0xb71618f5	-8.9465075e-06
58	0x3713a5a4	8.800449e-06
59	0xb7464960	-1.1818804e-05
60	0x365b57c1	3.2684623e-06
61	0x36615390	3.3576252e-06
62	0xb85ea3dd	-5.3081534e-05
63	0xb793ec37	-1.7633762e-05

embedding.embedding_network.5.weight f4 [64]
0	0x3f6c643c	0.92340446
1	0x3f66bf62	0.90135777
2	0x3f75de35	0.96042186
3	0x3f6880f1	0.9082175
4	0x3f6ca0cc	0.92432857
5	0x3f6a351c	0.9148729
6	0x3f745733	0.95445555
7	0x3f64d5e9	0.893889
8	0x3f6b15a9	0.91829926
9	0x3f65f1a5	0.89821845
10	0x3f66cdee	0.90157974
11	0x3f6cd81a	0.92517245
12	0x3f6415ba	0.8909565
13	0x3f76dc62	0.9643003
14	0x3f6aedd1	0.9176913
15	0x3f700d01	0.9376984
16	0x3f6ebfa3	0.93261164
17	0x3f65df5b	0.8979394
18	0x3f719029	0.94360596
19	0x3f65f93c	0.89833426
20	0x3f6b1363	0.91826457
21	0x3f694b0f	0.91130155
22	0x3f68f01a	0.90991366
23	0x3f69e088	0.9135823
24	0x3f69108b	0.9104087
25	0x3f6eb351	0.93242365
26	0x3f6fe8e8	0.9371476
27	0x3f6db474	0.92853475
28	0x3f6d31a2	0.9265386
29	0x3f723e22	0.9462606
30	0x3f6cda3d	0.92520505
31	0x3f736cf1	0.95088106
32	0x3f6f5b36	0.9349855
33	0x3f6f1602	0.93392956
34	0x3f661e56	0.8989004
35	0x3f6f0439	0.9336582
36	0x3f66b354	0.90117383
37	0x3f6adaed	0.91740304
38	0x3f72cf27	0.9484734
39	0x3f694fd5	0.9113744
40	0x3f712962	0.9420377
41	0x3f79dd1e	0.97603023
42	0x3f6e11de	0.92996013
43	0x3f6d8503	0.92781085
44	0x3f666b52	0.9000751
45	0x3f70adb9	0.9401508
46	0x3f6559f2	0.8959037
47	0x3f6b833f	0.9199714
48	0x3f6c3ba2	0.9227849
49	0x3f6cbe5f	0.92477983
50	0x3f6ee444	0.93317056
51	0x3f689a46	0.908604
52	0x3f6bb5c5	0.92074233
53	0x3f666336	0.89995134
54	0x3f71513c	0.9426458
55	0x3f6b599e	0.9193362
56	0x3f6906ec	0.91026187
57	0x3f6700b2	0.90235436
58	0x3f67e737	0.9058718
59	0x3f6be037	0.92139
60	0x3f61716a	0.8806368
61	0x3f6983b6	0.912166
62	0x3f6c01da	0.92190325
63	0x3f66c7a3	0.9014837

embedding.embedding_network.5.bias f4 [64]
0	0xbd5601e7	-0.052247908
1	0xbd1bb512	-0.03801448
2	0x3d56e90a	0.052468337
3	0xbd6ef58d	-0.058339644
4	0xbae2d3c4	-0.0017305543
5	0xbcbadbc1	-0.022809865
6	0x3d1f0bd0	0.038829625
7	0xbd9d0bb1	-0.076682456
8	0xbd607b62	-0.054805167
9	0xbd012cf2	-0.031537004
10	0xbc9fb81c	-0.01949697
11	0x3a1c941e	0.0005972999
12	0xbda5e071	-0.080994494
13	0x3d2ca1ff	0.04214668
14	0xbd978107	-0.07397657
15	0xbb8c1a8f	-0.004275627
16	0xbccaac25	-0.024740288
17	0xbd0bc124	-0.03411974
18	0xbd038a70	-0.032114446
19	0xbcdef01a	-0.027214099
20	0xbcfe6218	-0.031052634
21	0xba3a8c44	-0.0007116238
22	0xbcf1bb1c	-0.029508166
23	0xbd07f8e5	-0.03319635
24	0xbcdd297c	-0.02699732
25	0x3cd3e990	0.025868207
26	0x3be33e43	0.0069349124
27	0xbc0f87e9	-0.008760431
28	0xbd3894e7	-0.04506388
29	0x3cddfea0	0.027098954
30	0x396cb2d9	0.0002257334
31	0x3cde9e68	0.027175143
32	0xbc386bf4	-0.011256207
33	0x3b83c071	0.0040207435
34	0xbd22c925	-0.039742608
35	0x3c8a2a78	0.016865954
36	0xbd5c6d06	-0.05381491
37	0x3b1c77d3	0.0023875132
38	0x3c8509db	0.016240051
39	0xbc66b208	-0.014080532
40	0x3b7d69e5	0.0038667854
41	0x3d4bbb00	0.049738884
42	0x3c85294c	0.016255043
43	0xbd3e80dd	-0.046509612
44	0xbd5eb937	-0.054375853
45	0xbcabf858	-0.020992443
46	0xba755422	-0.0009358545
47	0xbd2f3b51	-0.042781178
48	0xbd0f60d5	-0.035004456
49	0x3c9d41b0	0.019196361
50	0x39b97d24	0.00035379187
51	0x3c68b213	0.014202612
52	0xbd500eb6	-0.05079528
53	0xbda01020	-0.078155756
54	0x3c08fc81	0.008360983
55	0xbd61f77f	-0.05516767
56	0xbcfcacdb	-0.030844143
57	0xbcc3e2ce	-0.02391186
58	0xbd85ad87	-0.06527238
59	0xba4f2d88	-0.0007903208
60	0xbdc6ea6d	-0.09712682
61	0xbcc44193	-0.02395705
62	0x3ca10d2a	0.019659597
63	0xbd86533e	-0.06558846

embedding.embedding_network.5.running_mean f4 [64]
0	0xbe341b33	-0.175885
1	0xbea053ec	-0.31314027
2	0xbf38314b	-0.71950215
3	0xbe87b857	-0.26507828
4	0xbf38b36a	-0.72148764
5	0xbe85a84a	-0.26104957
6	0xbe9ca353	-0.30593356
7	0x3dffd10b	0.12491044
8	0xbeb60cfd	-0.35556784
9	0xbf242a12	-0.64126694
10	0xbed45e15	-0.4147803
11	0xbedfba83	-0.43696985
12	0xbe917f1c	-0.2841729
13	0xbdddf34f	-0.10837423
14	0x3d60a6de	0.054846637
15	0x3c98133c	0.01856386
16	0xbeb42673	-0.35185584
17	0xbe059ae0	-0.13047361
18	0x3e3dfb2a	0.18552843
19	0xbf4c1b08	-0.79728746
20	0xbf507ab0	-0.81437206
21	0xbed88c74	-0.42294657
22	0xbea67193	-0.32508525
23	0xbeebf6af	-0.46086642
24	0xbe29e629	-0.16591705
25	0xbe57e16f	-0.2108209
26	0xbe919b9a	-0.28439027
27	0xbebe853f	-0.37211034
28	0xbedbf077	-0.42956898
29	0xbede0615	-0.43364015
30	0xbe7cde81	-0.24694254
31	0xbf00d86f	-0.5033025
32	0xbc173648	-0.00922925
33	0xbea3feaf	-0.32030246
34	0xbee625bd	-0.44950667
35	0xbf677a9d	-0.9042147
36	0xbf0d5958	-0.5521445
37	0xbe72a1dd	-0.23694558
38	0xbee41c14	-0.44552672
39	0xbdb682c0	-0.08911657
40	0xbf31a062	-0.6938535
41	0xbf06f241	-0.527134
42	0xbf03944d	-0.51398164
43	0x3daafe28	0.08349258
44	0xbdd49afc	-0.103811234
45	0xbe43d046	-0.19122419
46	0xbf25fbe4	-0.6483748
47	0xbe5daec9	-0.21648706
48	0x3d0b75aa	0.03404776
49	0xbd3079ab	-0.04308478
50	0xbbe7b5c8	-0.0070712306
51	0xbe82f0fd	-0.25574484
52	0xbd27111b	-0.040787797
53	0xbeb5048b	-0.3535503
54	0xbed2c129	-0.41162995
55	0xbb87b19d	-0.004141046
56	0xbf2205aa	-0.6328989
57	0xbd8c0f2d	-0.06838832
58	0x3a8916f4	0.0010459111
59	0xbf1b8d66	-0.6076263
60	0xb9f54f21	-0.00046788997
61	0xbea5adab	-0.3235906
62	0xbe0dcbbc	-0.1384725
63	0xbdf4ed1d	-0.11959288

embedding.embedding_network.5.running_var f4 [64]
0	0x3e82e937	0.25568554
1	0x3f50b2b7	0.815227
2	0x3f9451e2	1.1587489
3	0x3ecd28d8	0.40070224
4	0x3f07d112	0.5305339
5	0x3f3026d6	0.6880926
6	0x3f5518a2	0.8324071
7	0x3f11ee94	0.57004666
8	0x3ef375bd	0.47550765
9	0x3f4f85a6	0.81063306
10	0x3f514108	0.81739855
11	0x3f6e70e8	0.9314103
12	0x3f30510c	0.6887367
13	0x3f9c78be	1.2224348
14	0x3ee7fb5e	0.45308965
15	0x3f0534e1	0.5203381
16	0x3f980a7e	1.1878202
17	0x3f63497b	0.88784
18	0x3f32af93	0.69799155
19	0x3f67dd94	0.90572476
20	0x3eff0254	0.49806464
21	0x3f0868b5	0.5328477
22	0x3f0f66d7	0.56016296
23	0x3f324cbb	0.6964833
24	0x3ef4b6cc	0.47795713
25	0x3f1413e2	0.5784284
26	0x3f3b9925	0.73280555
27	0x3f5b35ca	0.8562895
28	0x3f2b414b	0.66896504
29	0x3f8d1f58	1.102519
30	0x3f7c49e9	0.9855028
31	0x3f30669b	0.68906564
32	0x3f255434	0.6458161
33	0x3f506ced	0.8141621
34	0x3f3b31d3	0.731229
35	0x3f8e6cd5	1.1126963
36	0x3f653e25	0.8954795
37	0x3f4fc01d	0.81152517
38	0x3f4b56fe	0.79429615
39	0x3f4c3931	0.7977477
40	0x3f56de6b	0.8393313
41	0x3f603e48	0.87595034
42	0x3f6e497a	0.93080866
43	0x3eaad3c2	0.33364683
44	0x3edaa17d	0.4270133
45	0x3f2b63eb	0.6694934
46	0x3f859b22	1.0437968
47	0x3f221dc7	0.63326687
48	0x3f06e7f7	0.526977
49	0x3f8b8b90	1.0901966
50	0x3f45ec3e	0.773136
51	0x3f969b69	1.1766177
52	0x3ef7ec96	0.48422688
53	0x3f0f1e1c	0.5590532
54	0x3f5f2764	0.8716948
55	0x3eab6ea2	0.33482844
56	0x3f2e8a7a	0.6818005
57	0x3f873877	1.0564107
58	0x3f0f199b	0.55898446
59	0x3f84ae98	1.0365782
60	0x3e9ff65c	0.31242645
61	0x3f37519a	0.7160889
62	0x3f204e09	0.6261907
63	0x3f211765	0.6292632

embedding.embedding_network.8.weight f4 [5, 64]
0	0x3cdf6af1	0.027272673
1	0x3d284748	0.041083604
2	0xbcf56526	-0.029955458
3	0x3d2cbd65	0.04217281
4	0xb9e78bce	-0.00044163916
5	0x3d5d4eaf	0.054030117
6	0xbcf37eb1	-0.029723497
7	0x3b1650d2	0.0022936356
8	0x3d11d707	0.035605457
9	0x3d18153c	0.037129626
10	0x3c8a1191	0.01685408
11	0x3d021e34	0.031767085
12	0x3d3c9d52	0.04604847
13	0xbd0f631d	-0.03500663
14	0x3cf97b9d	0.030454451
15	0xbd8c8e39	-0.06863064
16	0x3d041b75	0.032252748
17	0x3c16db42	0.009207549
18	0x3d18b311	0.037280146
19	0x3ce11ce1	0.02747959
20	0x3bbf40d2	0.0058365846
21	0xbd3be72a	-0.045874752
22	0xbb4401f2	-0.0029908386
23	0xbca8596e	-0.020550456
24	0x3995a533	0.00028542578
25	0xbd49ac7d	-0.049236763
26	0x3cb5646d	0.022142613
27	0x3b756c4c	0.0037448583
28	0x3d232f6b	0.039840143
29	0xbd9aa9d1	-0.07551921
30	0x3c94bcf9	0.018156515
31	0xbd19aa5e	-0.03751599
32	0xbd1a7d75	-0.0377173
33	0xbd205f39	-0.03915331
34	0x3d146f48	0.03623894
35	0xbd8d113f	-0.06888055
36	0x3c9086aa	0.017642338
37	0xbcc23f79	-0.023711907
38	0xbcae4c5c	-0.021276645
39	0xbb974ec6	-0.004617545
40	0x3c1d5493	0.009602684
41	0xbcc7cdd1	-0.024390133
42	0xbcb6f26f	-0.022332398
43	0x3c54cc63	0.012988183
44	0xbc98c999	-0.018650817
45	0x3c5209b2	0.012819694
46	0xbd1cdfba	-0.0382993
47	0x3c84f5ba	0.016230453
48	0xbc3704fa	-0.01117062
49	0x3ccc5e0d	0.02494719
50	0xbd1e22e6	-0.0386075
51	0xbd3a7060	-0.045517325
52	0x3d1bf475	0.03807493
53	0xbc9d5164	-0.01920385
54	0xbdb0f140	-0.08639765
55	0x3d269fce	0.040679745
56	0x3d2de763	0.042456996
57	0x3cf55fe4	0.02995295
58	0x3d09803a	0.033569552
59	0x3c81afd2	0.015830908
60	0x3c846608	0.016161934
61	0x3b506c54	0.003180285
62	0xbd78d54b	-0.060750287
63	0x3cedf3ce	0.02904692
64	0x3cb60126	0.022217344
65	0xbc860476	-0.016359549
66	0xbcb45b42	-0.022016171
67	0x3c01f76b	0.007932524
68	0xbc7a0fd5	-0.015262564
69	0xbc236dff	-0.009974956
70	0xbc5b2f0d	-0.013377917
71	0xbd4f1bb7	-0.05056354
72	0xb9caaf54	-0.00038659072
73	0x3ba537c6	0.005042049
74	0x3aeb20d0	0.0017938856
75	0xbb037ac1	-0.002006218
76	0x3d31a8f8	0.04337403
77	0xbd00c01f	-0.03143322
78	0xbc107fa8	-0.008819498
79	0xbd14e957	-0.036355343
80	0x3d1075f4	0.03526874
81	0xbd08ef3d	-0.03343128
82	0x3d2a4b75	0.041575868
83	0xbd54cd69	-0.051953707
84	0xbcae4c9e	-0.021276768
85	0x3cd0678f	0.025440006
86	0x3d2749ad	0.040841747
87	0x3ccda918	0.025105044
88	0x3d4c34ea	0.04985515
89	0x3d0c544a	0.03426007
90	0xbd2eb7f9	-0.04265592
91	0xbd162b30	-0.03666228
92	0x3cd1960d	0.025584245
93	0x3c0614d2	0.008183675
94	0xbbd4a862	-0.0064897994
95	0xbd3f830f	-0.046755847
96	0xbd51891a	-0.05115614
97	0x3d824f27	0.06362753
98	0xbbf7cd3e	-0.0075623086
99	0xbcd27215	-0.025689164
100	0xbd5cc6c4	-0.053900495
101	0x3d0f576c	0.03499548
102	0x3d132463	0.035923373
103	0x3d594aa6	0.053049706
104	0x3c8fd2e2	0.017556611
105	0x3cba6dca	0.02275743
106	0xbaf7ee2d	-0.0018915586
107	0xbc9dac25	-0.019247124
108	0x3be0d7b5	0.006861652
109	0x3d1b9ea4	0.03799309
110	0x3d0e867f	0.034796234
111	0xbd3238a1	-0.043511037
112	0xbc9e3560	-0.01931256
113	0x3cb00ba6	0.02148993
114	0x3d565275	0.05232473
115	0x3d6dfb15	0.05810078
116	0x3b8aee69	0.0042398465
117	0xbcb8f54e	-0.022577908
118	0xbc9301e5	-0.01794524
119	0xbbb107e2	-0.005402551
120	0xbd0436f0	-0.032278955
121	0xbd16dc2b	-0.036831062
122	0xbd3de185	-0.04635765
123	0xbd4e741d	-0.050403703
124	0x3b9b7e97	0.0047453153
125	0x3d7d016b	0.06176893
126	0x3ce0be22	0.027434412
127	0xbc4370de	-0.011928765
128	0xbb11ca22	-0.0022245725
129	0x3d504741	0.050849203
130	0x3daab8ad	0.08336005
131	0xbb0a3268	-0.0021087173
132	0x3d63c525	0.055607934
133	0xbd309a6c	-0.04311602
134	0x3d1a96c3	0.037741434
135	0xbce00dc4	-0.027350314
136	0xbb3f8cac	-0.0029228134
137	0xbd833bbb	-0.06407877
138	0x3d7484af	0.05969685
139	0xbd710ccb	-0.05885009
140	0xbbaeaa09	-0.0053303284
141	0x3d5dfcc4	0.054196134
142	0xbb9f427c	-0.0048602205
143	0x3c9f37af	0.019435732
144	0xbd1d341c	-0.038379773
145	0xbd80cf36	-0.06289522
146	0x3cf3e9ed	0.02977463
147	0xbd402c15	-0.04691704
148	0xbc45555e	-0.012044279
149	0x3d201c4f	0.039089497
150	0xbd033513	-0.032033037
151	0xbcfb7e13	-0.030699765
152	0xbd20b23d	-0.03923248
153	0xbd0a52ca	-0.03377036
154	0xbd3b9261	-0.045793895
155	0xbd43154b	-0.04762773
156	0x3cdb4ef4	0.026771046
157	0xbd408219	-0.04699907
158	0x3d5cb5fd	0.053884495
159	0x3c80fa17	0.015744252
160	0xbb31bf15	-0.002712195
161	0x3c92e655	0.017932096
162	0xbd3b3219	-0.045702074
163	0xbd6672df	-0.056261893
164	0xbd406a5a	-0.046976425
165	0x3d3dd081	0.046341423
166	0xbd5eea38	-0.054422587
167	0x3d5f20dd	0.0544747
168	0xbd5fcd98	-0.05463943
169	0xbd3d0299	-0.046145055
170	0xbd610e6e	-0.0549454
171	0x3c0a8cd8	0.008456431
172	0x3d4af947	0.049554136
173	0xbd001002	-0.031265266
174	0xbd824382	-0.06360532
175	0xbd1c568d	-0.03816848
176	0xbca9ead1	-0.020741852
177	0x3d9445ab	0.072398506
178	0x3cadb5ed	0.021204913
179	0xbd87f6cc	-0.0663887
180	0x3be17427	0.0068803015
181	0x3add517d	0.0016885247
182	0xbd224f26	-0.039626263
183	0xbb07f2a1	-0.0020743983
184	0xbd35e9ab	-0.044412296
185	0x3d53f2b2	0.051745124
186	0x3bfae6a7	0.0076568904
187	0x3d5461cb	0.051851075
188	0x3cd54eef	0.026038615
189	0x3cdeefa0	0.027213871
190	0x3d6210e2	0.055191882
191	0x3cf61ad8	0.030042097
192	0xb79964a1	-1.828588e-05
193	0x3ac36017	0.0014905956
194	0xb9a738a9	-0.00031894937
195	0xba608041	-0.0008564033
196	0x3ab94465	0.0014134763
197	0x3a4cfc42	0.0007819572
198	0xbac1909e	-0.0014767831
199	0xba28e9d1	-0.0006443533
200	0xbac90d37	-0.0015339021
201	0x388ffac5	6.865481e-05
202	0x3b1c117b	0.002381413
203	0xba65b8ac	-0.0008763175
204	0x3ae3c8b5	0.0017378541
205	0x385523d8	5.081654e-05
206	0xbacf8242	-0.0015831667
207	0xba9e9e05	-0.0012101537
208	0x3a189df9	0.00058218796
209	0xba76e7f9	-0.0009418722
210	0xbaa6e3cb	-0.0012732683
211	0xbaf3ae1a	-0.0018591315
212	0xba3fdc07	-0.00073188584
213	0xb902fc7a	-0.00012491821
214	0xb9abe9c0	-0.0003278982
215	0xbac7a92c	-0.0015232912
216	0xba28250b	-0.0006414211
217	0x381887a4	3.636595e-05
218	0x3a8e7afe	0.0010870395
219	0x3a3767fc	0.0006996391
220	0x394ab096	0.00019330005
221	0x39e940d4	0.00044489524
222	0xba363ce1	-0.00069518207
223	0x39800c60	0.00024423283
224	0xba926549	-0.0011169101
225	0x3a583937	0.0008248272
226	0x39cf5e7d	0.00039552516
227	0xba2f618f	-0.00066902576
228	0x3ad24c70	0.0016044509
229	0xbabad6f4	-0.0014254735
230	0xb9ce292f	-0.00039322066
231	0x3a5a2b55	0.0008322497
232	0xbabfc7ff	-0.0014631747
233	0xb77c2c80	-1.5030731e-05
234	0x3a680f9c	0.00088524236
235	0x3a46a40e	0.00075775466
236	0xbaa34780	-0.0012457222
237	0xb9013dc6	-0.00012325411
238	0xbb13a64c	-0.002252954
239	0x3ad21fbc	0.0016031186
240	0x3a95451c	0.0011388394
241	0xba2e8f69	-0.0006658943
242	0x39f072ca	0.00045861892
243	0xba6704df	-0.00088126765
244	0xb9b49a2a	-0.00034447137
245	0xb96a8e17	-0.00022368912
246	0x3acaaa53	0.0015462138
247	0xb8bbc183	-8.952899e-05
248	0x3896af86	7.185251e-05
249	0x3a943d47	0.0011309766
250	0x3b0a99a7	0.0021148713
251	0x3893d911	7.049938e-05
252	0x3a2f52e9	0.0006688075
253	0x39b9a9c5	0.00035412438
254	0xba2320be	-0.00062228355
255	0xbaba15ec	-0.0014197207

embedding.embedding_network.8.bias f4 [5]
0	0x3d3c160f	0.045919474
1	0x3db34403	0.087532066
2	0x3d9341fd	0.07190321
3	0x38e7083e	0.000110164736
4	0x3d56e666	0.05246582

exp_avg f4 [5, 5]
0	0x00000000	0.0
1	0x00000000	0.0
2	0x00000000	0.0
3	0x00000000	0.0
4	0x00000000	0.0
5	0x00000000	0.0
6	0x00000000	0.0
7	0x00000000	0.0
8	0x00000000	0.0
9	0x00000000	0.0
10	0x00000000	0.0
11	0x00000000	0.0
12	0x00000000	0.0
13	0x00000000	0.0
14	0x00000000	0.0
15	0x00000000	0.0
16	0x00000000	0.0
17	0x00000000	0.0
18	0x00000000	0.0
19	0x00000000	0.0
20	0x00000000	0.0
21	0x00000000	0.0
22	0x00000000	0.0
23	0x00000000	0.0
24	0x00000000	0.0

exp_avg_sq f4 [5, 5]
0	0x00000000	0.0
1	0x00000000	0.0
2	0x00000000	0.0
3	0x00000000	0.0
4	0x00000000	0.0
5	0x00000000	0.0
6	0x00000000	0.0
7	0x00000000	0.0
8	0x00000000	0.0
9	0x00000000	0.0
10	0x00000000	0.0
11	0x00000000	0.0
12	0x00000000	0.0
13	0x00000000	0.0
14	0x00000000	0.0
15	0x00000000	0.0
16	0x00000000	0.0
17	0x00000000	0.0
18	0x00000000	0.0
19	0x00000000	0.0
20	0x00000000	0.0
21	0x00000000	0.0
22	0x00000000	0.0
23	0x00000000	0.0
24	0x00000000	0.0
