results/checkpoints/model_epoch_10_step_630.pt (torch, 208529 bytes, 37 tensors)

embedding.metric f4 [5, 5]
-1.0 0.0 0.0 0.0 0.0 0.0 1.0 0.0
0.0 0.0 0.0 0.0 1.0 0.0 0.0 0.0
0.0 0.0 1.0 0.0 0.0 0.0 0.0 0.0
1.0
00000000: 0000 80bf 0000 0000 0000 0000 0000 0000
00000010: 0000 0000 0000 0000 0000 803f 0000 0000
00000020: 0000 0000 0000 0000 0000 0000 0000 0000
00000030: 0000 803f 0000 0000 0000 0000 0000 0000
00000040: 0000 0000 0000 0000 0000 803f 0000 0000
00000050: 0000 0000 0000 0000 0000 0000 0000 0000
00000060: 0000 803f

embedding.embedding_network.0.weight f4 [128, 55]
-0.069396056 -0.17277242 0.04227418 0.011947367 -0.046726745 -0.08784781 -0.121452555 0.04342683
0.029369278 0.0241298 0.04833892 -0.06367179 0.13453084 0.08972797 -0.09772792 -0.052926295
0.007546804 0.04026837 0.006312899 -0.0846546 -0.111177005 -0.08647116 0.022475936 0.053024977
0.053381614 -0.0850436 0.10608704 -0.08281713 0.11994382 -0.086645894 0.08929629 0.00036455356
0.005440599 -0.028900316 0.0059589124 -0.0455472 -0.027260548 -0.027847484 0.016998181 0.008529237
-0.081959 0.0577115 -0.022049947 -0.05041651 0.092075415 -0.09685455 0.03816856 -0.0031443166
0.06925605 0.024609892 -0.047867354 -0.08696131 -0.011027565 0.094989546 -0.017859783 0.071963735
0.15430517 -0.112211935 -0.004032777 -0.036516074 -0.011822343 0.07684839 0.00775309 -0.070231125
-0.10552363 -0.12691136 -0.004431806 -0.122408986 -0.024694877 0.064563 0.025720604 -0.08246886
0.04336086 0.10910758 -0.02338021 -0.10590818 0.12554309 0.11322422 -0.091364615 -0.09683398
-0.017703287 -0.054787453 -0.017407991 -0.07744788 -0.018896839 0.0854163 -0.04249203 0.049634703
-0.017521106 0.08536432 0.029383555 -0.013437416 0.023397144 0.05086409 -0.09072536 -0.052195817
-0.013362648 0.09819429 0.02735365 0.051185794 -0.13377237 -0.036348686 0.028204935 0.009470096
-0.05316409 -0.083276816 -0.07975277 -0.0812467 0.029311666 -0.041949283 -0.1356063 -0.07284209
-0.060448963 0.12611063 0.12782677 -0.05441626 0.04293331 0.023898087 0.09332845 0.04235038
-0.05427124 0.11049994 0.056744024 0.022897057 -0.09915175 0.12874077 0.03969509 0.027609324
0.12331403 -0.0076807975 -0.113004886 -0.039389435 -0.058878906 -0.03755557 -0.09665598 0.13541089
-0.07400041 -0.08588814 0.10816661 -0.06131264 -0.021184737 -0.018161263 0.11365642 -0.06194213
0.0069946786 -0.01972 -0.03549675 0.015747977 -0.0924244 -0.10970296 -0.036577575 -0.0056678345
0.03041289 -0.029395409 0.08152295 0.06663838 -0.055955637 -0.094489604 0.11653892 -0.04723865
0.12569585 -0.09788677 0.06816467 -0.012391966 0.10844316 -0.036470458 0.024228953 -0.18176612
0.08196445 -0.07994879 0.013584233 0.07792363 0.022258619 0.10254483 -0.08074346 -0.05481589
0.018404957 -0.0052925223 -0.02573778 0.01899505 0.0936727 0.090433195 0.008291571 0.085753806
-0.0045539388 -0.1258944 0.04715195 0.1178284 0.0042108325 0.0754479 0.01825812 0.079820134
-0.06176346 -0.11088272 0.00045821708 -0.101635024 0.10410842 0.004044639 0.092363104 0.037046663
0.01752411 -0.06828518 0.1236865 -0.02187952 0.063886926 -0.04463519 0.09804944 0.10444029
0.031667404 -0.026358526 0.0011439988 -0.11117433 -0.03431499 -0.014472968 -0.06513049 -0.024642207
-0.010851148 -0.07685275 -0.078349985 0.14166191 -0.056610752 0.084896296 -0.086417094 -0.09616465
0.09284545 0.11754332 0.033547737 -0.0980702 0.118353635 -0.026260214 0.11634212 -0.0054758573
0.119462304 -0.05278118 0.03419953 0.05200055 -0.092625335 0.1211099 0.13428152 -0.0795758
-0.09341744 0.11371379 -0.07716833 0.055212464 0.11786302 0.01974826 -0.06384956 0.012447285
0.08969344 0.062815614 0.098905005 -0.0627829 -0.023606448 0.1284844 0.01894726 -0.12307015
00000000: 851f 8ebd 41eb 30be b127 2d3d e4be 433c
00000010: 8b64 3fbd 8de9 b3bd 1ebc f8bd 55e0 313d
00000020: d797 f03c dcab c53c 08ff 453d 5b66 82bd
00000030: 74c2 093e 4cc3 b73d 9325 c8bd 3ec9 58bd
00000040: 2e4b f73b 72f0 243d 6fdc ce3b 645f adbd
00000050: c5b0 e3bd cb17 b1bd 741f b83c b830 593d
00000060: aea6 5a3d 572b aebd 2944 d93d 079c a9bd
00000070: 1ba5 f53d 6773 b1bd f9e0 b63d 8d21 bf39
00000080: 0d47 b23b 5bc0 ecbc fb42 c33b b38f 3abd
00000090: 8351 dfbc 6820 e4bc c53f 8b3c 36be 0b3c
000000a0: 1fda a7bd e562 6c3d 17a2 b4bc 8b81 4ebd
000000b0: 0992 bc3d ae5b c6bd a356 1c3d e110 4ebb
000000c0: 1ed6 8d3d af9a c93c 8f10 44bd c518 b2bd
000000d0: f6ac 34bc e189 c23d ae4e 92bc b961 933d
000000e0: 2d02 1e3e 5fcf e5bd 6325 84bb e191 15bd
000000f0: 80b2 41bc b062 9d3d a20d fe3b 56d5 8fbd
00000100: c61c d8bd 0df5 01be af38 91bb 90b1 fabd
00000110: e94c cabc 9b39 843d 04b4 d23c 6fe5 a8bd
00000120: 289b 313d cb73 df3d db87 bfbc 63e6 d8bd
00000130: 5e8e 003e 1ae2 e73d 5f1d bbbd e550 c6bd
00000140: 7c06 91bc cf68 60bd 349b 8ebc fe9c 9ebd
00000150: 8bcd 9abc beee ae3d 1f0c 2ebd c24d 4b3d
00000160: 6c88 8fbc 7dd3 ae3d c8b5 f03c 9c28 5cbc
00000170: 5eab bf3c dd56 503d 38ce b9bd 48cb 55bd
00000180: 02ef 5abc 171a c93d c314 e03c 32a8 513d
00000190: a0fb 08be 5ce2 14bd 090e e73c 7628 1b3c
000001a0: 97c2 59bd 098d aabd 6c55 a3bd ab64 a6bd
000001b0: 051f f03c 03d3 2bbd 61dc 0abe 3c2e 95bd
000001c0: 5599 77bd 2523 013e 05e5 023e 96e3 5ebd
000001d0: d7da 2f3d ecc5 c33c fd22 bf3d 9877 2d3d
000001e0: 854b 5ebd cb4d e23d 6c6c 683d 9c92 bb3c
000001f0: 1310 cbbd 9fd4 033e 5297 223d f32c e23c
00000200: 118c fc3d 33af fbbb 1b6f e7bd d156 21bd
00000210: 022b 71bd dfd3 19bd 92f3 c5bd 27a9 0a3e
00000220: 878d 97bd 1fe6 afbd 7586 dd3d f622 7bbd
00000230: 9d8b adbc eec6 94bc b2c4 e83d 08b7 7dbd
00000240: 9e33 e53b d68b a1bc 0a65 11bd e701 813c
00000250: 0149 bdbd f2ab e0bd 5ed2 15bd 3eb9 b9bb
00000260: 7424 f93c a4ce f0bc 81f5 a63d b479 883d
00000270: bd31 65bd c483 c1bd f5ab ee3d 517d 41bd
00000280: 6ab6 003e dc78 c8bd eb99 8b3d ac07 4bbc
00000290: 7317 de3d 0c62 15bd cc7b c63c e620 3abe
000002a0: fadc a73d 31bc a3bd 6790 5e3c 6d96 9f3d
000002b0: b557 b63c 0603 d23d d45c a5bd a086 60bd
000002c0: fec5 963c e56c adbb 09d8 d2bc 829b 9b3c
000002d0: 79d7 bf3d 0a35 b93d 5fd9 073c b19f af3d
000002e0: 3539 95bb 76ea 00be 6722 413d 0450 f13d
000002f0: 06fb 893b 6e84 9a3d 0e92 953c bd78 a33d
00000300: affb 7cbd 7b16 e3bd db3c f039 0626 d0bd
00000310: cc36 d53d e488 843b de28 bd3d 3ebe 173d
00000320: b98e 8f3c 1ad9 8bbd 594f fd3d ae3c b3bc
00000330: 26d7 823d 64d3 36bd 25ce c83d cae4 d53d
00000340: aeb5 013d d6ed d7bc 3bf2 953a 5eaf e3bd
00000350: e08d 0cbd 0720 6dbc 2263 85bd 74de c9bc
00000360: 03c9 31bc f964 9dbd f575 a0bd d20f 113e
00000370: ade0 67bd 1cde ad3d 72fb b0bd f9f1 c4bd
00000380: c125 be3d 8dba f03d 5a69 093d 07d9 c8bd
00000390: 6463 f23d a91f d7bc c744 ee3d d26e b3bb
000003a0: a7a8 f43d 1431 58bd ce14 0c3d 87fe 543d
000003b0: 5ab2 bdbd 7808 f83d 1881 093e a3f8 a2bd
000003c0: a551 bfbd c7e2 e83d 6e0a 9ebd 7726 623d
000003d0: 2b62 f13d 1ac7 a13c 8fc3 82bd b2ef 4b3c
000003e0: 32b1 b73d 79a5 803d b58e ca3d 5294 80bd
000003f0: 4f62 c1bc 6a91 033e 4937 9b3c 340c fcbd

embedding.embedding_network.0.bias f4 [128]
1.5957738e-05 3.7104597e-05 4.320891e-06 9.792429e-06 -4.2099346e-05 -1.3954781e-05 0.00016565566 1.1093823e-05
-2.6732185e-05 -6.374061e-05 -5.9394966e-05 -9.223184e-06 -1.3392758e-05 1.4314609e-05 -8.988636e-06 1.2111357e-05
2.9674376e-05 0.0001426125 -8.8188724e-05 -7.9735537e-07 -7.3151587e-06 -9.153564e-06 6.6963376e-06 -8.3634266e-05
1.7134584e-05 -9.9639e-06 -2.5853018e-05 3.62351e-05 1.1394737e-05 4.269202e-06 0.00013902546 5.9865968e-05
-2.5379707e-06 -4.8516e-05 -4.839738e-06 -1.3973385e-05 9.426289e-06 -6.2608684e-05 9.385027e-05 -6.180264e-05
1.6210406e-05 5.8345384e-05 1.3250204e-05 1.4706489e-05 -1.9630495e-05 5.435496e-05 0.0001281517 -1.772744e-05
-2.512523e-05 1.4107438e-06 -9.9904115e-05 5.7631045e-05 -4.9033983e-06 -3.638844e-05 -3.8209728e-05 -1.0065218e-05
3.1688247e-05 -1.1497073e-06 2.8511133e-05 1.3245e-05 8.1836726e-05 5.3222448e-06 8.414439e-05 -4.6361172e-05
-1.6527041e-06 -1.0889254e-06 4.6947902e-05 1.2986895e-05 4.6128214e-05 -6.2945505e-06 3.3847606e-05 1.5378253e-05
6.340273e-05 3.1075822e-05 2.8305172e-05 1.7008048e-05 -9.959014e-06 -4.1152132e-05 -3.3897034e-06 1.6447024e-05
-6.709824e-06 8.895116e-05 -1.8448158e-05 -4.0467025e-05 -2.649118e-05 3.5739602e-06 -1.6387528e-05 2.2038186e-05
3.8248218e-06 -4.9910894e-05 -4.836358e-05 -1.3272341e-05 2.7909247e-05 7.21408e-05 -3.377555e-05 6.282178e-05
-1.229201e-05 3.5630685e-05 6.1072133e-06 7.5073585e-05 2.8693734e-05 -1.8373425e-05 -2.245195e-06 -7.9607855e-07
-9.348867e-05 1.071969e-05 7.896631e-05 3.932482e-05 3.225004e-05 4.8288322e-05 3.7703473e-06 -7.23455e-06
3.873452e-05 2.1340265e-05 -8.237269e-06 5.0543e-05 2.3319748e-05 1.46279635e-05 -1.4326241e-05 -2.8156546e-05
3.584019e-05 3.302926e-05 6.2615385e-05 -9.252655e-06 -2.7026135e-06 -2.1249148e-06 6.643866e-05 -3.111445e-06
00000000: fbdc 8537 c2a0 1b38 2cfc 9036 2a4a 2437
00000010: d493 30b8 541f 6ab7 dab3 2d39 9b1f 3a37
00000020: ee3e e0b7 7bac 85b8 dc1e 79b8 46bd 1ab7
00000030: 75b1 60b7 c728 7037 e6cd 16b7 e231 4b37
00000040: 3ded f837 408a 1539 f6f1 b8b8 d809 56b5
00000050: bc74 f5b6 4292 19b7 1ab1 e036 ce64 afb8
00000060: 3dbc 8f37 a02a 27b7 efde d8b7 24fb 1738
00000070: 062c 3f37 2a40 8f36 5dc7 1139 9818 7b38
00000080: 0152 2ab6 a97d 4bb8 0865 a2b6 3b6f 6ab7
00000090: 9a25 1e37 c84c 83b8 7bd1 c438 0a9c 81b8
000000a0: 95fb 8737 e1b7 7438 314d 5e37 e4bb 7637
000000b0: 2bac a4b7 32fb 6338 7660 0639 63b5 94b7
000000c0: 05c4 d2b7 ca58 bd35 9d83 d1b8 ddb8 7138
000000d0: df87 a4b6 ca9f 18b8 6243 20b8 c8dd 28b7
000000e0: ffe8 0438 a44f 9ab5 312b ef37 d836 5e37
000000f0: c29f ab38 bc95 b236 ad76 b038 ee73 42b8
00000100: 7bd2 ddb5 3127 92b5 ede9 4438 4ae2 5937
00000110: cb79 4138 c735 d3b6 97f7 0d38 8c00 8137
00000120: 15f7 8438 6957 0238 e570 ed37 81ac 8e37
00000130: a415 27b7 c49a 2cb8 a97a 63b6 b7f7 8937
00000140: f324 e1b6 4a8b ba38 1ec1 9ab7 23bb 29b8
00000150: 6039 deb7 2bd8 6f36 f377 89b7 a5de b837
00000160: f856 8036 6a57 51b8 00da 4ab8 45ac 5eb7
00000170: a71e ea37 4c4a 9738 38aa 0db8 30bf 8338
00000180: c839 4eb7 2872 1538 90ec cc36 d370 9d38
00000190: 53b3 f037 a120 9ab7 28ac 16b6 1ab2 55b5
000001a0: 590f c4b8 b8d8 3337 b79a a538 b4f0 2438
000001b0: 3744 0738 3189 4a38 1306 7d36 50c0 f2b6
000001c0: e076 2238 df03 b337 cd32 0ab7 22fe 5338
000001d0: c79e c337 a06a 7537 bd5a 70b7 b931 ecb7
000001e0: 1c53 1638 e688 0a38 6150 8338 da3b 1bb7
000001f0: 8c5e 35b6 c299 0eb6 fc54 8b38 38ce 50b6

embedding.embedding_network.1.weight f4 [128]
1.0128324 1.0221024 1.0018846 0.9654056 0.95804554 0.9767738 0.9898563 0.9920534
0.99861854 1.0369843 0.98614484 1.0053927 0.97780925 1.0090115 0.9762581 1.0083607
0.97251105 1.0049573 0.9934352 0.9903117 0.9874142 0.9901232 0.99333227 1.0070448
1.0268146 1.0142341 0.9685264 1.0050262 0.99849415 0.9913219 0.9964632 1.0084344
1.0038944 0.97797984 1.0181441 1.0015752 0.9995944 1.0262225 0.9863144 0.9749436
1.0318595 1.0092474 0.9930248 1.0358407 0.9824545 1.0199863 0.99818164 1.0385097
0.99698573 1.0086379 0.98830384 1.0032803 0.9977737 0.9989442 0.96338445 1.0014666
0.980101 0.9623612 0.9716006 0.99004054 1.0144885 0.9807979 0.99236786 0.99392027
0.984482 0.99618286 1.0012584 0.9848229 1.0126125 1.0257599 1.0286596 1.0140891
1.0168965 1.0136578 0.97598875 0.96070397 0.99232244 0.94856656 1.0155413 1.0126188
0.9987548 0.98531055 1.0316576 1.0022577 1.0131084 0.9811803 1.0075638 0.9835463
0.9825042 0.99430776 1.0179214 1.0686387 1.0087458 0.99771655 0.9569008 1.0110652
1.0197191 1.0230277 0.9769207 1.0225976 0.95088094 0.9818804 0.98633254 0.98666006
1.0052962 0.9851035 0.99032354 1.0105861 0.9664935 1.0161966 0.9949338 0.9833143
1.0031203 0.9957694 0.98075163 0.9947653 0.9797367 1.0358822 0.99037147 1.0106285
1.0256436 0.99415565 0.99419147 1.0157254 1.001172 0.9846603 1.020736 1.035266
00000000: 7ea4 813f 40d4 823f c13d 803f d224 773f
00000010: 7942 753f d90d 7a3f 3967 7d3f 36f7 7d3f
00000020: 77a5 7f3f e7bb 843f fd73 7c3f b5b0 803f
00000030: b551 7a3f 4a27 813f 0dec 793f f711 813f
00000040: 7cf6 783f 71a2 803f c551 7e3f 1185 7d3f
00000050: 2dc7 7c3f b778 7d3f 064b 7e3f d8e6 803f
00000060: a96e 833f 6cd2 813f 59f1 773f b3a4 803f
00000070: 509d 7f3f 46c7 7d3f 3618 7f3f 6114 813f
00000080: 9d7f 803f e35c 7a3f 8c52 823f 9e33 803f
00000090: 6be5 7f3f 425b 833f 1a7f 7c3f e795 793f
000000a0: f913 843f 052f 813f e036 7e3f 6e96 843f
000000b0: 2382 7b3f e98e 823f d588 7f3f e3ed 843f
000000c0: 753a 7f3f 0c1b 813f 7b01 7d3f 7d6b 803f
000000d0: 196e 7f3f cfba 7f3f 5da0 763f 0f30 803f
000000e0: e6e7 7a3f 4e5d 763f d1ba 783f 4c73 7d3f
000000f0: c2da 813f 9215 7b3f d20b 7e3f 8f71 7e3f
00000100: 0307 7c3f d705 7f3f 3c29 803f 5b1d 7c3f
00000110: 499d 813f 1a4c 833f 1eab 833f accd 813f
00000120: aa29 823f 8abf 813f 66da 793f b2f0 753f
00000130: d808 7e3f 42d5 723f 42fd 813f 7e9d 813f
00000140: 65ae 7f3f 503d 7c3f 5b0d 843f fb49 803f
00000150: 89ad 813f a22e 7b3f daf7 803f b1c9 7b3f
00000160: 6585 7b3f f48a 7e3f 404b 823f 27c9 883f
00000170: 951e 813f 5a6a 7f3f 73f7 743f 966a 813f
00000180: 2886 823f 92f2 823f 7a17 7a3f 7ae4 823f
00000190: ef6c 733f 845c 7b3f 4a80 7c3f c195 7c3f
000001a0: 8cad 803f be2f 7c3f d885 7d3f e35a 813f
000001b0: 1e6c 773f bb12 823f fbb3 7e3f 7cba 7b3f
000001c0: 3f66 803f beea 7e3f 8a12 7b3f f0a8 7e3f
000001d0: 06d0 7a3f ca97 843f fc88 7d3f 465c 813f
000001e0: 4a48 833f fc80 7e3f 5583 7e3f 4a03 823f
000001f0: 6726 803f b312 7c3f 7aa7 823f 9983 843f

embedding.embedding_network.1.bias f4 [128]
0.028056636 0.017562242 0.028905073 -0.03234018 -0.022127956 -0.035407607 0.0019269679 0.007698408
0.01879846 0.04384711 -0.0011327653 0.025984632 0.01081692 0.04081221 -0.03162998 0.019328093
-0.005752032 0.010111464 0.01421118 0.01628977 -0.0033678408 0.012202853 -0.008350647 0.016875042
0.031764068 0.019171637 -0.0140170865 0.03668506 0.021928182 0.002666426 0.00024318152 0.008451575
0.034979373 0.027831934 0.022614956 0.021880968 0.030754486 0.037511088 -0.0010949242 -0.022234075
0.025353502 0.026316037 0.0019960217 0.04298487 -0.021122752 0.043008685 0.007976231 0.043378156
0.024741951 0.021890879 0.013660026 0.016696386 0.012795049 0.005897822 -0.024526153 0.005261414
-0.01964355 -0.023939567 -0.0060176165 0.016321274 0.015474698 -0.025584608 0.019311074 0.0015575598
-0.009820522 0.0011071771 -0.005588968 -0.015021545 0.03089782 0.025984734 0.044026807 0.011261809
0.031234974 0.040233985 0.003855413 -0.03164458 0.014076699 -0.05363229 0.013609043 0.04854702
-0.0014699586 0.0036128552 0.036539476 0.016204782 0.010851566 0.006671905 0.04896365 -0.0052800337
-0.014181707 0.018274076 0.021154437 0.06897165 0.034310654 0.035116933 -0.038727555 0.02116059
0.041448943 0.053357664 0.00058620365 0.03736573 -0.052501194 0.0050711227 -0.012300436 0.007052582
0.018997772 0.00049888383 0.013364649 0.025072975 -0.0011834112 0.041066986 -0.0026679002 0.0070115677
0.020547273 0.025757138 -0.000902515 0.0034477843 -0.019805279 0.043392874 0.018488823 0.030809198
0.02134819 0.021504391 0.027358841 0.03329612 0.0094656525 -0.012035872 0.014349269 0.031691436
00000000: 08d7 e53c b1de 8f3c 55ca ec3c 2377 04bd
00000010: b045 b5bc 9107 11bd 5092 fc3a ed42 fc3b
00000020: 3aff 993c 0799 333d 4c79 94ba b9dd d43c
00000030: 7339 313c b42a 273d 708e 01bd f355 9e3c
00000040: 8b7b bcbb 8eaa 253c 02d6 683c 2072 853c
00000050: feb6 5cbb 7aee 473c 27d1 08bc 873d 8a3c
00000060: 0a1b 023d d60d 9d3c eca7 65bc 1343 163d
00000070: bba2 b33c 34bf 2e3b 8bfe 7e39 7a78 0a3c
00000080: 8846 0f3d ccff e33c 0043 b93c b73f b33c
00000090: d5f0 fb3c 3aa5 193d 8f83 8fba 3c24 b6bc
000000a0: 26b2 cf3c bb94 d73c b0cf 023b e710 303d
000000b0: 9f09 adbc e029 303d bdae 023c 4bad 313d
000000c0: a2af ca3c 8054 b33c 4dce 5f3c dcc6 883c
000000d0: 53a2 513c 8442 c13b 12eb c8bc f167 ac3b
000000e0: 83eb a0bc e91c c4bc 6d2f c5bb 31b4 853c
000000f0: 9689 7d3c d096 d1bc 4232 9e3c 0927 cc3a
00000100: 41e6 20bc b31e 913a a923 b7bb ed1c 76bc
00000110: 6d1d fd3c f0dd d43c 7455 343d 7383 383c
00000120: 7de0 ff3c 64cc 243d 19ab 7c3b bf9d 01bd
00000130: f4a1 663c 88ad 5bbd 77f8 5e3c 3dd9 463d
00000140: a0ab c0ba a7c5 6c3b 6baa 153d e4bf 843c
00000150: c4ca 313c ff9f da3b 1c8e 483d 2204 adbb
00000160: 645a 68bc 84b3 953c 124c ad3c 0241 8d3d
00000170: 5489 0c3d c6d6 0f3d c9a0 1ebd f958 ad3c
00000180: 5ec6 293d 918d 5a3d 76ab 193a cf0c 193d
00000190: 7e0b 57bd a92b a63b c587 49bc 5919 e73b
000001a0: 37a1 9b3c 87c7 023a 67f7 5a3c d765 cd3c
000001b0: b11c 9bba db35 283d f0d7 2ebb 4bc1 e53b
000001c0: c152 a83c a200 d33c c296 6cba 39f4 613b
000001d0: ae3e a2bc babc 313d df75 973c 9263 fc3c
000001e0: 66e2 ae3c fa29 b03c a61f e03c 8361 083d
000001f0: d315 1b3c 1b32 45bc 3219 6b3c e1ce 013d

embedding.embedding_network.1.running_mean f4 [128]
-0.0044440567 0.0032754769 0.0029204204 0.0051612114 -0.0020812596 0.006316439 -0.0029944011 0.00015728893
0.0010536197 0.00047857847 0.0027281523 -0.0042921472 0.0047291913 -0.011672189 0.013371395 -0.0035220091
0.0007246957 0.010024341 -0.0025640703 0.0038313328 -0.0035097995 0.004820949 -0.0025985509 -0.001195953
-0.0032296893 0.010279047 0.0027954795 -0.0050262106 -0.008524923 -0.00019883816 0.0001204119 0.0047287988
0.0032506639 0.003629721 -0.006597849 0.005886172 0.0009995826 0.005336982 -0.0015661706 -0.0039851596
0.0037771459 -0.01018023 -0.0015784 0.007101737 0.0019457409 0.009481916 -0.0015805747 0.0037258475
-0.006006139 0.0010521592 -0.003646789 0.010558092 -0.0035442172 -0.0006330514 0.0010592801 -0.01135375
0.0022635586 -0.0051355925 -0.001635225 -0.0025098745 0.0057649375 -0.005121398 0.003285383 0.008369089
-0.009778274 -0.00014264455 -0.0024388093 -0.00061065657 -0.0072235623 -0.010980082 -0.0015151566 0.0057615447
0.00034937763 0.0039217863 0.0018842113 0.00050240435 0.0045252666 -0.0028108286 -0.0012384561 -0.0023333116
0.007997763 0.0031046344 0.0023350304 -0.0074057714 0.009498452 -0.000381806 -0.005222779 -0.010023215
0.0021113462 -0.00608524 -0.001116391 -0.01041889 -0.0064277225 0.0014703308 0.0012380918 0.010973896
-0.008877768 -0.0029414734 0.0047238455 0.0013723 -0.0014508414 -0.004180084 0.00096081756 0.009276976
0.0035605042 -0.0069904607 -0.0058243843 -0.011963544 -0.002461021 0.00035593822 0.0035063408 0.0017511207
0.0021035566 0.0010889325 0.0007166754 -0.009045478 -0.008678881 0.0070529147 0.001436308 -0.0028928358
-0.0048118765 -0.0032328053 0.0029876353 -0.0027678362 0.00032451862 0.0062166476 0.00125435 -0.004196454
00000000: 739f 91bb 62a9 563b 8664 3f3b 611f a93b
00000010: be65 08bb 21fa ce3b b73d 44bb eded 2439
00000020: 9c19 8a3a b7e9 fa39 cdca 323b 24a5 8cbb
00000030: 55f7 9a3b b63c 3fbc b213 5b3c 82d1 66bb
00000040: 81f9 3d3a 223d 243c f609 28bb 1917 7b3b
00000050: aa04 66bb 0df9 9d3b 734c 2abb 86c1 9cba
00000060: 32a9 53bb 7369 283c 5d34 373b e9b2 a4bb
00000070: 1eac 0bbc 367f 50b9 a685 fc38 0af4 9a3b
00000080: 1709 553b 9de0 6d3b c532 d8bb cae0 c03b
00000090: 6d04 833a dae1 ae3b f747 cdba f195 82bb
000000a0: fe89 773b fbca 26bc 51e2 ceba b0b5 e83b
000000b0: 3b08 ff3a 0a5a 1b3c 492b cfba 592d 743b
000000c0: 25cf c4bb 9be8 893a f7fe 6ebb d9fb 2c3c
000000d0: 1946 68bb 5cf3 25ba 8bd7 8a3a 1405 3abc
000000e0: 3658 143b 7948 a8bb 0c55 d6ba b57c 24bb
000000f0: cde7 bc3b 66d1 a7bb 954f 573b 811e 093c
00000100: 0e35 20bc db92 15b9 6ed4 1fbb 7814 20ba
00000110: a2b3 ecbb cde5 33bc 3898 c6ba 57cb bc3b
00000120: ac2c b739 5482 803b a4f7 f63a c9b3 033a
00000130: b048 943b e135 38bb b153 a2ba 79ea 18bb
00000140: 0d09 033c 1f77 4b3b 4f07 193b 1dac f2bb
00000150: 659f 1b3c 222d c8b9 d823 abbb 6938 24bc
00000160: 835e 0a3b b166 c7bb de53 92ba feb3 2abc
00000170: a59f d2bb 1db8 c03a 7847 a23a dbcb 333c
00000180: 0f74 11bc bcc5 40bb 7dca 9a3b bfde b33a
00000190: 292a beba 16f9 88bb 60df 7b3a 75fe 173c
000001a0: 5957 693b 3c10 e5bb 7ada bebb be02 44bc
000001b0: 1549 21bb 389d ba39 a3ca 653b dc85 e53a
000001c0: d3db 093b 83ba 8e3a 46df 3b3a 7c33 14bc
000001d0: de31 0ebc 231c e73b 8042 bc3a bb95 3dbb
000001e0: f2ac 9dbb 79dd 53bb 34cc 433b 9664 35bb
000001f0: 2724 aa39 05b5 cb3b 0069 a43a 6882 89bb

embedding.embedding_network.1.running_var f4 [128]
0.0126040215 0.015290731 0.010794866 0.018411672 0.010464217 0.017484663 0.0125677325 0.015328719
0.014553761 0.0103526255 0.010292343 0.011285509 0.014173427 0.012216243 0.014668429 0.007149825
0.010430783 0.016133113 0.017206931 0.017909879 0.015121181 0.014851051 0.010664294 0.006556888
0.019079883 0.020181948 0.01615796 0.009121126 0.011967842 0.011620608 0.014090865 0.008091729
0.014230269 0.012123862 0.015749162 0.010971556 0.01068675 0.015756248 0.016104417 0.0067895916
0.02015288 0.012079986 0.01381774 0.010690007 0.015229264 0.016493626 0.009323302 0.012380112
0.013127887 0.0131508745 0.014147709 0.016196396 0.016712047 0.017204335 0.0064435382 0.017024098
0.0069344407 0.0035729874 0.00828056 0.008370135 0.01078934 0.00897757 0.012695912 0.013230867
0.015869543 0.012101384 0.010409033 0.012390514 0.012948567 0.02036561 0.0147747565 0.015894284
0.008666938 0.010079742 0.011034077 0.009468795 0.00882771 0.0068947193 0.021775885 0.013385514
0.012826547 0.011156306 0.009321925 0.014632481 0.007779956 0.00817468 0.014018034 0.017770382
0.008056018 0.012332714 0.0075908257 0.020306554 0.018283188 0.011520321 0.006275572 0.01954254
0.011861863 0.009572281 0.010741269 0.018517613 0.0060763443 0.009171085 0.013649572 0.0066475887
0.01321027 0.012738178 0.0065450985 0.014789952 0.008388063 0.013946989 0.009683598 0.008577697
0.012987274 0.01079827 0.00978875 0.017704464 0.011919456 0.012590258 0.007390161 0.016872194
0.019271353 0.016660219 0.015408807 0.01982838 0.012319542 0.015204255 0.013211085 0.008237595
00000000: 1981 4e3c f985 7a3c f3dc 303c 13d4 963c
00000010: 1b72 2b3c ff3b 8f3c e4e8 4d3c 4f25 7b3c
00000020: e672 6e3c 0f9e 293c 37a1 283c dbe6 383c
00000030: a937 683c a326 483c da53 703c 1449 ea3b
00000040: e0e5 2a3c 9729 843c 8df5 8c3c bdb7 923c
00000050: d4be 773c d351 733c 4ab9 2e3c 2adb d63b
00000060: 6a4d 9c3c 9d54 a53c b35d 843c c670 153c
00000070: c414 443c 5d64 3e3c 5fdd 663c 2c93 043c
00000080: 1326 693c 2aa3 463c 6304 813c 0bc2 333c
00000090: 7a17 2f3c 3f13 813c 69ed 833c 397b de3b
000000a0: a717 a53c 22eb 453c cd63 623c 2425 2f3c
000000b0: 2a84 793c a41d 873c c3c0 183c f4d5 4a3c
000000c0: 5916 573c c476 573c cbcb 673c 4eae 843c
000000d0: b4e7 883c 1bf0 8c3c 5124 d33b 1f76 8b3c
000000e0: 4e3a e33b c828 6a3b 30ab 073c e422 093c
000000f0: c6c5 303c a816 133c 8402 503c 47c6 583c
00000100: d800 823c e244 463c a68a 2a3c 9501 4b3c
00000110: 3a26 543c c8d5 a63c d211 723c bb34 823c
00000120: c6ff 0d3c 8125 253c 46c8 343c 0123 1b3c
00000130: 19a2 103c 19ed e13b 5763 b23c ea4e 5b3c
00000140: 7026 523c f0c8 363c fdba 183c 13bd 6f3c
00000150: 00ef fe3b 18ef 053c e5ab 653c 3193 913c
00000160: 63fd 033c 270f 4a3c 76bc f83b ee59 a63c
00000170: a0c6 953c babf 3c3c 50a3 cd3b ad17 a03c
00000180: 4258 423c 0ed5 1c3c 26fc 2f3c 40b2 973c
00000190: 121c c73b 5242 163c 74a2 5f3c 04d4 d93b
000001a0: e36f 583c cab3 503c 4478 d63b 8e51 723c
000001b0: 166e 093c e981 643c f4a7 1e3c 7889 0c3c
000001c0: 93c8 543c 3aeb 303c fe60 203c f408 913c
000001d0: d249 433c 5f47 4e3c 2a29 f23b 8e37 8a3c
000001e0: f5de 9d3c 037b 883c 3975 7c3c 206f a23c
000001f0: e7d7 493c 441b 793c 4f73 583c faf6 063c

embedding.embedding_network.4.weight f4 [64, 128]
-0.05293144 0.074586816 0.07647369 -0.08001364 -0.03480485 0.08864126 0.031499065 0.021499155
-0.040073372 -0.086303085 -0.05870308 0.059671015 -0.049232192 0.03484664 -0.035054155 0.043125987
0.05858315 0.010789006 -0.0011074394 -0.07306606 -0.096091144 -0.017219137 0.033784002 0.021434428
0.0074498663 0.049387336 0.04413292 0.05436405 -0.06505551 0.036222897 -0.063108906 -0.0040807463
-0.05838082 0.01589992 -0.088160075 -0.08802833 0.062008508 -0.015498337 -0.14907905 0.047956616
0.07018393 -0.0069982936 -0.017476264 0.055548664 0.07775598 -0.0083141215 -0.0016811024 -0.0118429065
-0.0019314762 -0.111292 0.014409734 0.0029381476 -0.06135296 -0.100347556 0.0343166 0.022319345
0.033082787 -0.047698334 0.06170043 0.017010322 -0.05196259 -0.0748806 -0.08356872 0.03158343
-0.037322715 0.045404132 0.0049258084 0.07085141 -0.056519378 0.1182074 0.06254497 -0.02374886
0.08125875 0.051077794 0.046560142 0.06497471 0.075022355 0.016054628 0.049636677 -0.061152495
0.042724177 -0.03163558 -0.13393056 -0.01423108 0.0011965978 0.011076929 -0.053689647 0.059882548
0.067320146 -0.056742568 -0.08171903 -0.026837131 -0.04962426 0.082862556 -0.08645501 -0.020492086
0.00750649 -0.075877964 0.011111364 -0.060430575 0.03701335 0.021043992 0.06846238 0.034088396
0.055815734 -0.09175875 -0.0025930926 -0.027220132 0.04289443 0.054666515 0.065200925 0.0029756406
-0.11044339 0.046830405 -0.032739837 0.044137213 0.044981085 0.0048723267 0.04876458 7.833587e-05
0.09245464 -0.03153022 0.10097161 0.04942133 -0.024893926 -0.03632744 -0.029014016 -0.084715806
0.036266077 -0.0155025935 0.012408231 0.0035576953 -0.059763245 0.032768965 -0.05867132 0.01139406
4.909958e-05 -0.09237545 -0.058240294 -0.030047525 0.10786147 0.02693604 0.027954563 0.020616032
-0.09160383 -0.069489084 0.024796288 0.049136817 0.04107306 -0.07795112 0.109788015 0.050828107
0.03293056 -0.040266436 -0.051420942 -0.03535263 0.040758457 0.042555988 0.006081343 0.08532131
0.04080403 0.011314624 -0.038543034 0.07410622 -0.044233143 0.0019454248 -0.02194217 0.07334126
0.016539656 -0.038061183 -0.030186126 0.023673546 0.045475073 -0.007957732 -0.08715915 0.10852854
0.033136 -0.010330075 0.020483896 0.030597052 -0.07524423 -0.06720926 0.05105738 0.06256768
-0.100244746 0.010630985 0.06290006 0.05379645 -0.022656547 0.011601988 0.039163236 -0.06426218
0.0033385365 -0.046505142 0.03385962 0.055819005 0.11219286 -0.01503751 0.031917747 0.008276111
-0.082980275 -0.025987756 -0.0017051452 0.014595113 0.020538997 -0.02935587 -0.0823798 -0.042852182
0.05142461 -0.04489031 0.026841547 -0.02519888 -0.10229182 0.06120162 0.02937171 0.025247378
-0.078285865 0.11014688 -0.07247417 -0.033448916 0.026307065 -0.03438021 0.037923753 -0.03385612
0.08967443 -0.0043945187 -0.041683324 -0.045955278 0.013154559 -0.064249605 0.060838193 -0.040449344
0.03491636 -0.01950428 0.029284019 -0.038113937 -0.02932891 0.042069044 -0.026946036 -0.05890257
-0.0021496054 -0.07140675 -0.09357714 -0.034146417 -0.07528073 -0.006060918 -0.050119597 0.0038859767
-0.002342637 0.036316942 0.05724804 -0.055833727 -0.093328446 -0.047428533 0.056581214 -0.03315063
00000000: a3ce 58bd f9c0 983d 3d9e 9c3d 31de a3bd
00000010: 888f 0ebd 8d89 b53d 2a05 013d ff1e b03c
00000020: fa23 24bd acbf b0bd a472 70bd 9869 743d
00000030: b2a7 49bd 5abb 0e3d f294 0fbd e0a4 303d
00000040: e3f4 6f3d 5fc4 303c 8027 91ba a9a3 95bd
00000050: 6fcb c4bd 260f 8dbc 1861 0a3d 4197 af3c
00000060: 021e f43b 604a 4a3d b9c4 343d d7ac 5e3d
00000070: d33b 85bd 765e 143d 3e3f 81bd c8b7 85bb
00000080: ba20 6fbd 8d40 823c 458d b4bd 3248 b4bd
00000090: a2fc 7d3d bdec 7dbc 2ea8 18be 286e 443d
000000a0: 98bc 8f3d f151 e5bb 622a 8fbc ff86 633d
000000b0: 873e 9f3d f437 08bc 7058 dcba c008 42bc
000000c0: 9629 fdba 0fed e3bd ce16 6c3c f08d 403b
000000d0: 3e4d 7bbd 0583 cdbd 908f 0c3d 0fd7 b63c
000000e0: d181 073d 545f 43bd 97b9 7c3d 3b59 8b3c
000000f0: bad6 54bd 005b 99bd 1426 abbd a05d 013d
00000100: b4df 18bd aff9 393d ad68 a13b 8b1a 913d
00000110: dd80 67bd b916 f23d 9417 803d f88c c2bc
00000120: fd6a a63d f336 513d d9b5 3e3d 7611 853d
00000130: 52a5 993d ff84 833c d44f 4b3d 0a7b 7abd
00000140: 8cff 2e3d 4f94 01bd 1825 09be 7a29 69bc
00000150: 29d7 9c3a 027c 353c ade9 5bbd 6747 753d
00000160: 25df 893d e56a 68bd 4f5c a7bd 8bd9 dbbc
00000170: cf42 4bbd d8b3 a93d 530f b1bd 05df a7bc
00000180: 01f9 f53b e865 9bbd 700c 363c 0d86 77bd
00000190: 4f9b 173d 7364 ac3c 0136 8c3d 46a0 0b3d
000001a0: 0a9f 643d 03ec bbbd e0f0 29bb c1fc debc
000001b0: 12b2 2f3d ffe9 5f3d 1088 853d f702 433b
000001c0: 2530 e2bd 3dd1 3f3d 351a 06bd 39c9 343d
000001d0: 163e 383d 0aa8 9f3b 5ebd 473d 4048 a438
000001e0: dc58 bd3d d525 01bd 34ca ce3d 056e 4a3d
000001f0: 59ee cbbc 15cc 14bd cdae edbc 7b7f adbd
00000200: bd8b 143d 97fe 7dbc e54b 4b3c 3928 693b
00000210: 4eca 74bd c038 063d 5751 70bd 27ae 3a3c
00000220: 46f0 4d38 572f bdbd 608d 6ebd 3a26 f6bc
00000230: 79e6 dc3d f8a8 dc3c f800 e53c f4e2 a83c
00000240: ca9a bbbd 4b50 8ebd 9621 cb3c b043 493d
00000250: 3a3c 283d d6a4 9fbd 8ad8 e03d 2231 503d
00000260: 32e2 063d 6bee 24bd c49e 52bd ebcd 10bd
00000270: 57f2 263d 304f 2e3d 0146 c73b f0bc ae3d
00000280: 2022 273d f960 393c 4ddf 1dbd 00c5 973d
00000290: d02d 35bd a0fd fe3a 11c0 b3bc f133 963d
000002a0: 2c7e 873c 0be6 1bbd e548 f7bc 06ef c13c
000002b0: 1244 3a3d 2661 02bc 7f80 b2bd 3644 de3d
000002c0: 9db9 073d 7a3f 29bc d8cd a73c aba6 fa3c
000002d0: a619 9abd 02a5 89bd 8b21 513d 7c23 803d
000002e0: 1e4d cdbd 952d 2e3c bfd1 803d ab59 5c3d
000002f0: 399a b9bc 4416 3e3c a169 203d e49b 83bd
00000300: 59cb 5a3b 2d7c 3ebd 63b0 0a3d 78a2 643d
00000310: 5fc5 e53d e35f 76bc 2fbc 023d 8798 073c
00000320: 90f1 a9bd 46e4 d4bc 2e7f dfba 5720 6f3c
00000330: 6641 a83c b97b f0bc beb6 a8bd c585 2fbd
00000340: 9da2 523d e7de 37bd cee2 db3c e26d cebc
00000350: 607e d1bd 8dae 7a3d f19c f03c 97d3 ce3c
00000360: 5754 a0bd b094 e13d 566d 94bd bb01 09bd
00000370: ea81 d73c 43d2 0cbd f055 1b3d b7ac 0abd
00000380: 3aa7 b73d e5ff 8fbb 22bc 2abd 9a3b 3cbd
00000390: 3886 573c 4c95 83bd 7831 793d 36ae 25bd
000003a0: 7504 0f3d 71c7 9fbc 0ae5 ef3c 5c1d 1cbd
000003b0: 2f43 f0bc 9750 2c3d efbd dcbc d243 71bd
000003c0: 65e0 0cbb b43d 92bd 5fa5 bfbd 1ddd 0bbd
000003d0: c92c 9abd aa9a c6bb 354a 4dbd dfab 7e3b
000003e0: ed86 19bb 13c1 143d ec7c 6a3d e8b1 64bd
000003f0: fc22 bfbd 6c44 42bd b4c1 673d f4c8 07bd

embedding.embedding_network.4.bias f4 [64]
3.1805102e-05 -5.2081537e-06 4.620228e-05 -1.1473957e-05 -1.7059843e-05 -3.863455e-07 -5.817715e-05 7.3985416e-06
4.237253e-06 5.589741e-06 3.0693605e-05 1.8851106e-05 -4.727736e-05 -1.5487834e-05 7.058105e-07 -1.1810244e-05
9.95487e-07 1.49392445e-05 8.2421575e-06 1.880566e-06 -9.216885e-06 -4.2773e-06 -4.180166e-05 -5.4216453e-06
1.2243036e-05 -3.218295e-07 2.8575127e-05 -1.3852268e-05 -6.083612e-06 -2.7341925e-05 1.1432757e-05 8.759247e-06
-6.68815e-05 3.6867657e-06 -1.9843546e-05 3.903537e-05 1.1883673e-05 1.9191351e-05 -1.9619514e-05 -9.936995e-06
1.3103609e-05 7.4976497e-06 2.0879308e-05 -9.270982e-06 -1.0191026e-05 -3.5854428e-05 -2.3182554e-05 1.6584954e-06
1.3114998e-05 2.3435245e-05 -2.1282517e-06 -6.492584e-06 4.127676e-06 5.708396e-06 3.9158458e-05 4.445793e-07
-2.1506508e-05 1.7210365e-06 -4.444446e-05 -5.827694e-07 -2.9663365e-06 2.087651e-05 -1.2082217e-05 -2.4590809e-05
00000000: 7866 0538 b3c1 aeb6 52c9 4138 4580 40b7
00000010: bc1b 8fb7 ec6a cfb4 3d03 74b8 fd40 f836
00000020: ba2d 8e36 828f bb36 02bd 0038 7122 9e37
00000030: ae4b 46b8 dfeb 81b7 ee76 3d35 9d24 46b7
00000040: ac9c 8535 91a3 7a37 cc47 0a37 c167 fc35
00000050: 38a2 1ab7 ba85 8fb6 3154 2fb8 94eb b5b6
00000060: 7067 4d37 e9c7 acb4 9eb4 ef37 0a67 68b7
00000070: d421 ccb6 565c e5b7 51cf 3f37 aef4 1237
00000080: bb42 8cb8 276a 7736 b175 a6b7 e9b9 2338
00000090: fd5f 4737 1dfd a037 9694 a4b7 12b7 26b7
000000a0: 92d7 5b37 5294 fb36 f925 af37 918a 1bb7
000000b0: 20fa 2ab7 6662 16b8 2878 c2b7 7899 de35
000000c0: 7d08 5c37 ce96 c437 16d3 0eb6 dfda d9b6
000000d0: 7880 8a36 c08a bf36 133e 2438 84ae ee34
000000e0: e068 b4b7 5dfe e635 e069 3ab8 9c6f 1cb5
000000f0: 4611 47b6 f71f af37 bab4 4ab7 5c48 ceb7

embedding.embedding_network.5.weight f4 [64]
0.8867147 0.9237585 0.94716656 0.9167274 0.9105077 0.9442689 0.89311206 0.8880849
0.966961 0.899343 0.8918321 0.9053495 0.9195403 0.9085501 0.90952337 0.9101379
0.9140684 0.8969271 0.9072361 0.92350966 0.8881747 0.90943146 0.91153526 0.92469907
0.94842046 0.9200113 0.9343432 0.909783 0.94075876 0.9463335 0.94456065 0.9080028
0.90819645 0.9217276 0.89002323 0.93462604 0.9454476 0.9122816 0.9080941 0.9401333
0.9062999 0.93729615 0.93165207 0.93383116 0.9180353 0.9088091 0.9001165 0.91541374
0.9075691 0.8993795 0.9587986 0.9433586 0.8788547 0.9281072 0.9138408 0.9395201
0.92048305 0.91106826 0.89232546 0.9437621 0.9095779 0.9168729 0.886839 0.93116784
00000000: bcff 623f 707b 6c3f 8279 723f a6ae 6a3f
00000010: 0817 693f 9bbb 713f fea2 643f 8859 633f
00000020: c28a 773f 583b 663f 1c4f 643f fcc4 673f
00000030: fe66 6b3f bd96 683f 86d6 683f ccfe 683f
00000040: 6300 6a3f 049d 653f a040 683f 216b 6c3f
00000050: 6b5f 633f 80d0 683f 605a 693f 14b9 6c3f
00000060: afcb 723f dc85 6b3f 1e31 6f3f 8ae7 683f
00000070: 91d5 703f ea42 723f bace 713f df72 683f
00000080: 907f 683f 57f6 6b3f 90d8 633f a743 6f3f
00000090: db08 723f 498b 693f db78 683f 93ac 703f
000000a0: 4503 683f a4f2 6f3f c080 6e3f 8f0f 6f3f
000000b0: 5d04 6b3f b7a7 683f 096e 663f 8e58 6a3f
000000c0: 7356 683f bc3d 663f d373 753f f37f 713f
000000d0: 9ffc 603f 6f98 6d3f 78f1 693f 6484 703f
000000e0: c7a4 6b3f c53b 693f 716f 643f 659a 713f
000000f0: 19da 683f 2fb8 6a3f e107 633f 0461 6e3f

embedding.embedding_network.5.bias f4 [64]
-0.08155665 -0.012163435 -0.018058091 0.0013097522 -0.0330915 0.034692638 -0.029369045 -0.050375022
0.042504773 -0.049879648 -0.034629297 -0.006658162 -0.048125774 -0.017566737 -0.04164223 -0.027031094
-0.023648188 -0.07188597 -0.059788425 -0.0014730503 -0.085031845 -0.043489024 -0.011934563 -0.031554617
0.004431368 -0.018396039 -0.013937572 -0.009904187 -0.014516772 0.015868122 0.0024615403 -0.062006153
-0.026867114 -0.029526865 -0.046083283 -0.012620518 0.025869036 -0.008194588 -0.043721355 -0.012415251
-0.028873583 -0.012576552 0.003991585 -0.004231145 -0.014688258 -0.022709014 -0.029898003 -0.0024083771
-0.031672645 -0.058869682 0.012205745 0.022436928 -0.095556974 -0.010548121 -0.004540958 0.010286455
0.0003336501 -0.0063646655 -0.047887508 0.013785611 -0.033957932 -0.012352043 -0.048096593 0.014424244
00000000: 2c07 a7bd 2549 47bc 90ee 93bc feab ab3a
00000010: f48a 07bd de19 0e3d 5a97 f0bc 0a56 4ebd
00000020: 7c19 2e3d 9a4e 4cbd 73d7 0dbd b62c dabb
00000030: 881f 45bd 1ee8 8fbc 0b91 2abd 5070 ddbc
00000040: d8b9 c1bc f438 93bd b5e4 74bd 5e13 c1ba
00000050: 2d25 aebd 8c21 32bd 2f89 43bc 6a3f 01bd
00000060: 0235 913b 4ab3 96bc 6a5a 64bc 2c45 22bc
00000070: c1d7 6dbc ddfd 813c cb51 213b 2afa 7dbd
00000080: 6c18 dcbc 53e2 f1bc d3c1 3cbd 4ac6 4ebc
00000090: 4deb d33c 9842 06bc 2a15 33bd 5669 4bbc
000000a0: 4b88 ecbc e20d 4ebc d8cb 823b 6ba5 8abb
000000b0: 05a7 70bc 4108 babc a8ec f4bc ddd5 1dbb
000000c0: 2dbb 01bd 5621 71bd 9bfa 473c a6cd b73c
000000d0: 60b3 c3bd 07d2 2cbc 51cc 94bb 8588 283c
000000e0: c2ed ae39 af8e d0bb b125 44bd 0bdd 613c
000000f0: 7917 0bbd 3960 4abc ef00 45bd aa53 6c3c

embedding.embedding_network.5.running_mean f4 [64]
-0.0028386381 -0.1404183 -0.057220016 -0.5113089 -0.21141495 -0.64785916 -0.39757097 -0.5662354
-0.34624553 -0.6917285 -0.71232563 -0.62562037 -0.102710806 -0.55434453 -0.44017088 -0.7752143
-0.46167952 -0.15718287 -0.1468815 -0.6901926 0.04534049 -0.028620694 -0.21400166 -0.17498256
-0.72231644 -0.17513996 -0.26295748 -0.17376883 0.12333287 -0.32083738 -0.5566024 -0.31028104
-0.071504384 0.056141037 -0.013487131 -0.6495761 -0.5845244 -0.5078441 -0.7736319 -0.36958846
-0.24166103 0.063855894 -0.73935246 -0.75961924 0.24106355 -0.62876236 0.02638127 -0.18874115
-0.18646482 -0.2694518 -0.36009398 -0.31363502 -0.22165827 -0.3110235 -0.40214375 -1.0426381
-0.22629943 -0.78338706 -0.30892628 -0.40866935 -0.1604776 -0.1380692 -0.36365676 -0.28111896
00000000: 7208 3abb d1c9 0fbe 895f 6abd 24e5 02bf
00000010: 297d 58be 19da 25bf 6c8e cbbe cef4 10bf
00000020: 1847 b1be 1e15 31bf f95a 36bf a828 20bf
00000030: 0b5a d2bd 86e9 0dbf 145e e1be 7274 46bf
00000040: 4261 ecbe 8cf4 20be 1b68 16be 76b0 30bf
00000050: f3b6 393d f275 eabc 4023 5bbe a12e 33be
00000060: bbe9 38bf e457 33be 5da2 86be 75f0 31be
00000070: f295 fc3d cc44 a4be 7f7d 0ebf 28dd 9ebe
00000080: e470 92bd 25f4 653d 21f9 5cbc 9f4a 26bf
00000090: 64a3 15bf 1202 02bf bd0c 46bf b33a bdbe
000000a0: fd75 77be e1c6 823d 3446 3dbf 6876 42bf
000000b0: 5dd9 763e 92f6 20bf 881d d83c 5c45 41be
000000c0: a2f0 3ebe 96f5 89be 3d5e b8be c594 a0be
000000d0: 63fa 62be 793e 9fbe c9e5 cdbe 2a75 85bf
000000e0: 0abb 67be 0e8c 48bf 962b 9ebe 1c3d d1be
000000f0: 3d54 24be 0362 0dbe 3831 babe d3ee 8fbe

embedding.embedding_network.5.running_var f4 [64]
0.7822919 0.35796025 0.42131546 0.68342966 0.74811643 0.78762937 0.7269327 0.91270924
1.1525015 0.49015304 0.8831722 1.0989882 0.295588 0.5519649 0.5681843 0.99267083
0.50508374 0.7042891 0.300688 0.6344381 0.49491522 0.83429027 0.7487683 0.7197818
0.7580246 0.7980613 0.7940006 1.239437 0.6412536 0.51717466 0.68831456 0.5955182
0.68675965 0.6101398 0.6035509 0.9039289 0.78978723 1.1996946 0.7478443 0.7457823
0.76549935 0.58683854 0.6717371 0.61920273 0.60222614 0.83916456 0.74202156 0.86483634
0.63342136 0.34237987 0.8356455 1.0995253 0.35935557 0.39829016 0.8329914 0.7524327
0.51582366 1.3281548 0.61247253 0.83723813 0.4452065 0.7237726 0.7023426 0.7990921
00000000: 4844 483f 9146 b73e a9b6 d73e 3ff5 2e3f
00000010: 8f84 3f3f 14a2 493f 4318 3a3f 50a7 693f
00000020: 2b85 933f 57f5 fa3e 9317 623f a5ab 8c3f
00000030: 4f57 973e 924d 0d3f 8774 113f ad1f 7e3f
00000040: 2b4d 013f 4a4c 343f c7f3 993e 896a 223f
00000050: 8765 fd3e 0c94 553f 48af 3f3f 9f43 383f
00000060: e60d 423f bf4d 4c3f a043 4b3f dfa5 9e3f
00000070: 3229 243f 8f65 043f 6235 303f e173 183f
00000080: 7bcf 2f3f 1f32 1c3f 5082 1a3f e267 673f
00000090: 7f2f 4a3f 988f 993f b972 3f3f 97eb 3e3f
000000a0: c4f7 433f 0d3b 163f f6f6 2b3f 1284 1e3f
000000b0: 7e2b 1a3f 7dd3 563f 20f5 3d3f ea65 5d3f
000000c0: e727 223f 6a4c af3e ddec 553f 3fbd 8c3f
000000d0: 74fd b73e b0ec cb3e ed3e 553f 6e9f 403f
000000e0: 050d 043f fa00 aa3f 00cb 1c3f 3d55 563f
000000f0: 1bf2 e33e 2949 393f bacc 333f 4d91 4c3f

embedding.embedding_network.8.weight f4 [5, 64]
-0.026160242 -0.034411173 -0.032783784 -0.017566793 -0.001568456 -0.036844537 0.017627683 0.0024145923
-0.012273563 -0.038068164 0.028680412 0.044538803 0.022337219 -0.037873812 0.03999868 0.039465386
-0.022215983 -0.016037729 0.023875827 0.008857967 -0.022998359 -0.04705878 -0.036111746 0.053730465
-0.018323518 0.02910792 -0.011351225 -0.017690074 -0.019448565 0.013249299 -0.022861324 -0.023972496
-0.04394283 0.04997288 0.04179089 -0.0007666581 -0.031394538 0.04815986 0.056312375 -0.027579583
0.022850756 -0.0237993 -0.019497465 0.03724063 0.0247893 0.052571572 -0.035253573 0.04788105
0.03521086 -0.042847183 0.02952011 0.020223139 0.023234112 -0.031507447 -0.036255743 -0.045550052
-0.011704961 -0.013615065 0.050680492 -0.053740565 0.04121005 -0.02003765 -0.0038792284 -0.060351543
0.04733787 0.0042545577 0.022777049 0.020924099 0.041896816 0.010426982 0.05642072 -0.06151399
0.047250576 -0.031899158 0.026160633 -0.041327927 -0.0006270623 0.040059976 0.020751923 -0.054599024
-0.03253404 -0.034946904 0.015891645 0.033877205 -0.019909652 0.031318974 0.00046612392 -0.007177181
-0.02635459 -0.042351898 0.0053531015 -0.0635246 -0.04555644 0.05446955 -0.010306882 -0.045280993
0.022644201 0.029116219 0.058911376 0.07430682 0.0193034 -0.058245745 -0.035034135 -0.045309003
0.04176059 -0.032112136 0.018703276 0.01794596 0.05212831 0.040099125 0.027680086 -0.009280031
0.038173743 0.01087152 -0.047835506 -0.0022859436 0.0138323475 0.018360212 0.03245672 0.007283444
-0.0343102 -0.0005963781 0.025668059 0.0063903374 -0.016980603 -0.026343837 -0.03403652 -0.012883062
0.018165987 -0.010860925 0.01763345 -0.071155384 0.036952488 -0.05598046 0.057190828 -0.035142172
-0.041185543 0.022426764 -0.06577893 -0.08166643 -0.024008777 0.05066358 -0.017442727 -0.034449972
0.03384487 0.01166947 -0.021285027 -0.07277555 -0.0041889804 -0.04092992 0.05693186 0.018323813
-0.04587356 -0.04402109 0.05811869 0.043146934 0.008915846 -0.028414631 -0.046847135 0.021457117
0.05122592 -0.012923543 -0.003280703 -0.03014223 -0.05469153 0.048829008 -0.019337824 -0.024202868
-0.04000293 -0.0013170664 0.06104084 0.038346127 0.014963813 0.05946809 0.04004193 0.06153082
-0.031445686 0.013531121 -0.033735406 0.068747155 -0.0050926204 -0.0053631673 -0.068635575 0.02644101
-0.04847352 -0.06625881 0.007618058 -0.03615017 -0.020580959 0.042340636 -0.05604483 -0.062370244
-0.0009139845 0.00026456363 -0.00039940694 0.0004666542 -0.00093329366 4.001295e-05 4.807327e-05 0.00073110044
-0.00031836392 -0.0008732198 -0.0022707589 -0.0011974027 -0.0019185306 0.00011820538 0.0013313281 -0.002191231
0.0019419725 -0.0008648416 0.00032319367 0.0005986999 -0.0015171528 0.0012335653 -0.00049082143 -0.0010283536
-0.0012829409 0.000996857 -0.0010302459 0.0001662841 -2.2492022e-05 0.00021224801 -7.935621e-05 -0.00017091136
-0.00047921404 -0.0007143735 0.00067160674 -0.00042814063 -0.00095954136 0.00022313878 0.00043355225 9.049768e-05
-0.00023672302 -0.00011198199 7.711908e-05 0.00025304622 -0.000268387 0.00020202906 0.00041768322 4.10007e-05
0.0009829534 0.00012189681 0.00052512274 -0.0010210612 0.0007316022 0.0008581896 -0.00086000824 -0.0008572598
0.0002350219 0.0006661195 -0.00046117476 0.000116946 -0.0007794982 -0.001157474 -0.0021002789 0.00038234796
00000000: 014e d6bc bbf2 0cbd 4a48 06bd 3ce8 8fbc
00000010: a694 cdba 4cea 16bd ee67 903c 233e 1e3b
00000020: 0e17 49bc 5ded 1bbd 2ff3 ea3c 526e 363d
00000030: 8bfc b63c 9221 1bbd a8d5 233d 75a6 213d
00000040: 4bfe b5bc 8e61 83bc 3d97 c33c 0221 113c
00000050: 0e67 bcbc b5c0 40bd e9e9 13bd 7a14 5c3d
00000060: 341b 96bc bc73 ee3c 7dfa 39bc c6ea 90bc
00000070: 9952 9fbc 9613 593c ac47 bbbc f861 c4bc
00000080: 66fd 33bd 5db0 4c3d ed2c 2b3d 8ef9 48ba
00000090: 8f97 00bd 4643 453d cea7 663d 94ee e1bc
000000a0: 8231 bb3c c0f6 c2bc 26b9 9fbc a189 183d
000000b0: ee12 cb3c 4a55 573d 0d66 10bd eb1e 443d
000000c0: 4339 103d 8780 2fbd 28d4 f13c ffaa a53c
000000d0: 7755 be3c f40d 01bd e780 14bd b192 3abd
000000e0: 2ac6 3fbc b911 5fbc 5996 4f3d 111f 5cbd
000000f0: dfcb 283d ff25 a4bc a73a 7ebb 2e33 77bd
00000100: 5be5 413d d169 8b3b ef96 ba3c 0469 ab3c
00000110: ff9b 2b3d efd5 2a3c 6a19 673d 18f6 7bbd
00000120: d289 413d b1a8 02bd d34e d63c 7947 29bd
00000130: 7061 24ba ee15 243d f0ff a93c 3aa3 5fbd
00000140: 6a42 05bd 7c24 0fbd 322f 823c d3c2 0a3d
00000150: 9119 a3bc 5348 003d 1862 f439 8f2e ebbb
00000160: 95e5 d7bc 2f79 2dbd 1269 af3b 2f19 82bd
00000170: 6499 3abd 761b 5f3d 32de 28bc 9078 39bd
00000180: 5580 b93c 2385 ee3c 0e4d 713d 2d2e 983d
00000190: 2a22 9e3c 1793 6ebd f47f 0fbd ef95 39bd
000001a0: 270d 2b3d 0488 03bd 9d37 993c 6803 933c
000001b0: 7f84 553d fb3e 243d 59c1 e23c 450b 18bc
000001c0: 125c 1c3d 761e 323c 2aef 43bd c5cf 15bb
000001d0: 12a1 623c 2868 963c 56f1 043d f5a9 ee3b
000001e0: da88 0cbd 4256 1cba d245 d23c 0966 d13b
000001f0: e81a 8bbc 08cf d7bc e169 0bbd 7a13 53bc
00000200: d6d0 943c 05f2 31bc 0674 903c eab9 91bd
00000210: 7e5b 173d c44b 65bd ee40 6a3d 3df1 0fbd
00000220: 2cb2 28bd 55b8 b73c 1bb7 86bd bb40 a7bd
00000230: 0eae c4bc 9d84 4f3d 0de4 8ebc 6a1b 0dbd
00000240: eba0 0a3d 4e31 3f3c f05d aebc 590b 95bd
00000250: b743 89bb 22a6 27bd 6231 693d d21b 963c
00000260: eae5 3bbd 754f 34bd dd0d 6e3d d7ba 303d
00000270: c513 123c cdc5 e8bc c8e2 3fbd d6c6 af3c
00000280: 45d2 513d 45bd 53bc 1001 57bb d7ec f6bc
00000290: 3a04 60bd ed00 483d 5b6a 9ebc 1845 c6bc
000002a0: 1dda 23bd 6aa1 acba f605 7a3d d410 1d3d
000002b0: c82a 753c d094 733d 0203 243d be07 7c3d
000002c0: 31cd 00bd a3b1 5d3c 232e 0abd 4fcb 8c3d
000002d0: ffdf a6bb 82bd afbb cf90 8cbd d19a d83c
000002e0: 2b8c 46bd b3b2 87bd e7a0 f93b 3312 14bd
000002f0: 6699 a8bc 606d 2d3d 438f 65bd f177 7fbd
00000300: 7698 6fba 21b5 8a39 7e67 d1b9 44a9 f439
00000310: 47a8 74ba 94d3 2738 48a2 4938 52a7 3f3a
00000320: 15ea a6b9 cae8 64ba 03d1 14bb 2bf2 9cba
00000330: 3477 fbba 08e5 f738 f57f ae3a c19a 0fbb
00000340: c989 fe3a 8ab6 62ba 5272 a939 12f2 1c3a
00000350: 33db c6ba 95af a13a 78aa 00ba d2c9 86ba
00000360: 5a28 a8ba f8a8 823a 5109 87ba 8c5c 2e39
00000370: 40ad bcb7 e48e 5e39 0a6c a6b8 ab36 33b9
00000380: 053f fbb9 cb44 3bba c40e 303a 1078 e0b9
00000390: bb89 7bba 5cfa 6939 664e e339 92c9 bd38
000003a0: da38 78b9 e0d7 eab8 feba a138 4aab 8439
000003b0: 4bb6 8cb9 c3d7 5339 7efc da39 2bf8 2b38
000003c0: 71d6 803a daa2 ff38 64a8 093a 21d5 85ba
000003d0: fec8 3f3a 21f8 603a 2d72 61ba bbb9 60ba
000003e0: 3670 7639 869e 2e3a d4c9 f1b9 e840 f538
000003f0: 3d57 4cba 62b6 97ba d5a4 09bb e075 c839

embedding.embedding_network.8.bias f4 [5]
0.07073031 -0.041679595 0.09971201 0.0037900289 -0.016696168
00000000: 0edb 903d 39b8 2abd cf35 cc3d 2262 783b
00000010: 67c6 88bc

exp_avg f4 [5, 5]
0.0 0.0 0.0 0.0 0.0 0.0 0.0 0.0
0.0 0.0 0.0 0.0 0.0 0.0 0.0 0.0
0.0 0.0 0.0 0.0 0.0 0.0 0.0 0.0
0.0
00000000: 0000 0000 0000 0000 0000 0000 0000 0000
00000010: 0000 0000 0000 0000 0000 0000 0000 0000
00000020: 0000 0000 0000 0000 0000 0000 0000 0000
00000030: 0000 0000 0000 0000 0000 0000 0000 0000
00000040: 0000 0000 0000 0000 0000 0000 0000 0000
00000050: 0000 0000 0000 0000 0000 0000 0000 0000
00000060: 0000 0000

exp_avg_sq f4 [5, 5]
0.0 0.0 0.0 0.0 0.0 0.0 0.0 0.0
0.0 0.0 0.0 0.0 0.0 0.0 0.0 0.0
0.0 0.0 0.0 0.0 0.0 0.0 0.0 0.0
0.0
00000000: 0000 0000 0000 0000 0000 0000 0000 0000
00000010: 0000 0000 0000 0000 0000 0000 0000 0000
00000020: 0000 0000 0000 0000 0000 0000 0000 0000
00000030: 0000 0000 0000 0000 0000 0000 0000 0000
00000040: 0000 0000 0000 0000 0000 0000 0000 0000
00000050: 0000 0000 0000 0000 0000 0000 0000 0000
00000060: 0000 0000
