results/checkpoints/model_epoch_5_step_1.pt (torch, 208336 bytes, 37 tensors)

embedding.metric f4 [5, 5]
00000000: 0000 80bf 0000 0000 0000 0000 0000 0000
00000010: 0000 0000 0000 0000 0000 803f 0000 0000
00000020: 0000 0000 0000 0000 0000 0000 0000 0000
00000030: 0000 803f 0000 0000 0000 0000 0000 0000
00000040: 0000 0000 0000 0000 0000 803f 0000 0000
00000050: 0000 0000 0000 0000 0000 0000 0000 0000
00000060: 0000 803f
-1.0 0.0 0.0 0.0 0.0 0.0 1.0 0.0
0.0 0.0 0.0 0.0 1.0 0.0 0.0 0.0
0.0 0.0 1.0 0.0 0.0 0.0 0.0 0.0
1.0

embedding.embedding_network.0.weight f4 [128, 55]
00000000: 0610 d9bd b7bf 633d b158 5e3c 14d2 d2bd
00000010: 544c 0b3c b999 a03d de3f 0fbd e94b d23c
00000020: db0b 9e3d e50f 35bd 6136 c0bd 85ad b9bc
00000030: 8c8d 8d3d b2f9 8fbd 51f6 9f3d 45da eabc
00000040: 69fe ce3d 3373 b13d 8305 7b3d bc15 ae3d
00000050: 2748 503c 3c10 d43d f5bd cd3d 9346 a6bd
00000060: 10ef 293d d9b7 ce3c 4270 c23b 4149 a03d
00000070: 8af5 d93d 5244 5ebd 9603 ccbd bb8b 133d
00000080: db2a 9b3d 2ef1 b73d 682a 35bc 87ff 00be
00000090: 5e96 52bd 316c fb3d 8bdd afbd cff7 8b3d
000000a0: 5089 0d3d 7aca ba3c d903 82bd 98db 373d
000000b0: 951e c5bc 3c88 cbbd f04f 073c fd61 e13d
000000c0: 321e 2cbd 7700 e5bd a67b 233c 2b01 43bd
000000d0: 9ae9 b03d cc79 edbd 44f9 f73d 7ca5 0fbd
000000e0: 0cba 11be d824 1fbd 5c0c f53c 0a70 b4bb
000000f0: 7106 543d 6056 e73c 4208 a23d 7888 8e3d
00000100: 27c8 13bd 1713 be3d 95a9 993d b50f a73c
00000110: 472e 833a 33b5 b43d a5d6 a13c b675 8ebc
00000120: 7180 0cbd 50ee 0bbb 0b88 a73d 9c68 af3d
00000130: 67f9 d43c e398 e3bd 480b c3bd d36b 4abc
00000140: 5ab9 4dbc 69fd f93c b55e d73d 5af4 38bd
00000150: 10bc 193d 44a8 ce3d 04b0 24bd 0770 65bd
00000160: 7ca8 0ebd fb2b 813b c372 e43d 0914 2cbd
00000170: 5ec5 f4bd 49f1 423b 6f01 393d 7625 11bc
00000180: 2582 d9bd f9d9 7a3d 47d7 dbbd d3d6 213d
00000190: 7512 cb3d c70d f0bc 5f24 88bd 66bc 68bd
000001a0: a801 bebd c0b4 82bd fa6a a43d 38d8 7f3d
000001b0: 17d4 b23d 88d4 3b3d a4b5 6fbd 20d5 14be
000001c0: 3486 0ebd db6f 7b3d 5ed5 0b3c 0d71 a73d
000001d0: ae6e 82bd 976f 0a3d 8558 96bd 3c1e 87bd
000001e0: 6cb7 a83c f885 00be 0eb7 a7bd 8c26 3bbd
000001f0: bde1 bebd 212b dfbd c33c 483d ddbc f53d
00000200: e939 a8bc de1a 2bbd 9e0b 9cbd 75a3 8e3d
00000210: 72c5 903c 1f0d 3d3d f818 563b f176 d8bd
00000220: 2c94 01bd c3e5 84bd 6e10 223d 6b3e 8dbb
00000230: 706d 063e 9fed e33c 32c1 7ebc 7bc3 093e
00000240: 371c 5a3d 233e 293c 60cf 9a3c 8ae6 c2bd
00000250: 060c 553c 3ce7 ffbd 8b91 e73d 051d 0bbd
00000260: 0063 bdbd ebc0 6d3d fd76 cfbd f797 853c
00000270: b041 a13d 22df 913d 19b0 f3bd 5ec8 56bb
00000280: 7523 f6bd c751 9bbd 1838 0fbd dddc b1bd
00000290: 5bd0 dd3d e8d2 1ebc c312 38bd fbcf 183e
000002a0: 723d b43d 2df8 eebb 5be1 11bd 43b9 a3bd
000002b0: 6749 95ba 30c9 7dbd d39a 6d3c 1cba e93d
000002c0: 0460 01be 9156 c5bd f846 1ebe 3455 8d3d
000002d0: 6cec b13d 6fb6 033d d200 6a3d e349 f93a
000002e0: c2ab fe3d 6829 be3d 7260 a23d 9414 4f3c
000002f0: 1b75 79bd 323a 0f3d f3bb 9abd 0293 22bd
00000300: 0cb7 02be 827d 393d 832d f93d 4562 ebbd
00000310: d862 37bd c3ae 693c 9ccd f43d a829 5e3d
00000320: d28e 8dbb 3a03 b83d 6bdf 993d 8c1c 243d
00000330: f0ae 4e3d 25a2 513c 9f51 963d c01b d23c
00000340: 6d82 b0bb 2d1b e83d 8b27 873d 96a6 2ebd
00000350: 0c42 16bd dd4d b93d f657 adbd f6dd 0abc
00000360: a48d d3bd ceac e8bd 4532 003c a7bb 383c
00000370: a87f ccbd 7255 093e 66c5 913d ad4e 0cbd
00000380: fd29 4dbd 93ca 59bd f188 41bc e3ce 743d
00000390: 8416 4b3c 635d b03d abb6 fc3d d645 083e
000003a0: bb75 cf3c 1a0b 133b 8930 fa3d 9835 c2bd
000003b0: 9454 d5bd ebe3 a1bc a152 86bc 21df d53c
000003c0: 076c af3d e804 c8bd 135e a03d e3a8 1f3d
000003d0: 9c57 413d 147d 21ba 5fe2 cebd d58f 6cbd
000003e0: 9ad0 03be c91c b63d c9ce 983d c2d4 3abd
000003f0: 8ccf 983d 495b 3d3d ac7a 073d 17dd ca3d
-0.10598759 0.055602755 0.01357095 -0.102939755 0.008502085 0.0784182 -0.034973018 0.025670962
0.07717105 -0.04420461 -0.09385372 -0.022665748 0.069117635 -0.070300475 0.07810653 -0.028668532
0.10107119 0.08664551 0.061284553 0.08500239 0.012712515 0.10354659 0.10045997 -0.0811893
0.041487753 0.02523415 0.0059337923 0.07826472 0.10642536 -0.054264374 -0.099616215 0.03602193
0.075765334 0.08981548 -0.011057474 -0.12597476 -0.051412933 0.12276495 -0.08587178 0.06834375
0.03455478 0.022801626 -0.0634839 0.044887155 -0.024062434 -0.09938094 0.008258805 0.11005018
-0.042020984 -0.11181729 0.009978211 -0.047608536 0.08638306 -0.115954965 0.121080905 -0.035069928
-0.14231128 -0.038853496 0.02991312 -0.00550652 0.051763956 0.028239429 0.07911731 0.06959623
-0.036079552 0.09280985 0.07503048 0.020393232 0.0010008299 0.088236235 0.01975567 -0.017390113
-0.03430218 -0.0021351762 0.08180245 0.085648745 0.02599783 -0.11113145 -0.09523636 -0.012354809
-0.012556398 0.030516343 0.10516111 -0.045154907 0.037532866 0.10090688 -0.040206924 -0.05601504
-0.034828648 0.0039420105 0.111547016 -0.042011295 -0.11951707 0.0029745868 0.045167383 -0.008859029
-0.10620526 0.06124303 -0.1073442 0.039511513 0.0991563 -0.029303445 -0.06647562 -0.056820296
-0.0927766 -0.063821316 0.08028217 0.06246206 0.08731859 0.045856982 -0.058522835 -0.14534426
-0.034795955 0.06138597 0.008534757 0.081758596 -0.06368767 0.033797827 -0.073411025 -0.065975636
0.020595275 -0.12551105 -0.08189212 -0.045691058 -0.093204 -0.10896898 0.048886072 0.119989134
-0.020535426 -0.04177367 -0.07619403 0.06964771 0.017672274 0.04615509 0.003266869 -0.10569561
-0.03163545 -0.06489136 0.03956645 -0.0043104193 0.13127685 0.027823268 -0.015548991 0.13453476
0.053249564 0.010329756 0.018897712 -0.09516628 0.013003355 -0.12495276 0.11307057 -0.033963222
-0.092473984 0.05804531 -0.10130117 0.016307814 0.07873857 0.07122637 -0.11898822 -0.0032773237
-0.12018482 -0.07583957 -0.034965605 -0.086847045 0.10830756 -0.009693839 -0.044939768 0.14923088
0.08800782 -0.0072927685 -0.035615306 -0.0799432 -0.0011389673 -0.061959445 0.014502245 0.11412451
-0.12634283 -0.09635652 -0.1545676 0.06901017 0.08687672 0.032156404 0.05712969 0.0019019212
0.12435104 0.09285241 0.07928552 0.012639184 -0.060902696 0.03496761 -0.0755538 -0.03969098
-0.1276514 0.04528571 0.12166884 -0.11493353 -0.044772 0.014262858 0.119532794 0.054238945
-0.004320004 0.089849904 0.07513317 0.040066287 0.050459802 0.012795006 0.07339787 0.025647998
-0.0053866417 0.11333308 0.06599339 -0.042639337 -0.03668408 0.09048054 -0.08464043 -0.008475771
-0.1032975 -0.11361085 0.007824485 0.011275209 -0.09985286 0.13411501 0.07117729 -0.03425472
-0.05008887 -0.053171705 -0.0118124345 0.059767615 0.012395505 0.08611562 0.12339529 0.1330789
0.025324693 0.0022437037 0.122162886 -0.094828784 -0.104165226 -0.019762 -0.016396822 0.026107373
0.085655265 -0.09766561 0.07830443 0.038979422 0.04720269 -0.00061603007 -0.101017706 -0.057754356
-0.12872544 0.08892209 0.07461316 -0.045613058 0.074614614 0.046229634 0.033075973 0.09905451

embedding.embedding_network.0.bias f4 [128]
00000000: 6d0c 2538 aeea 48b8 a569 60b8 0479 82b9
00000010: 4077 44b8 fc05 a83a 74d1 3938 47b9 53b8
00000020: affe 1c38 b3f8 1d38 2876 73b6 b2e9 c538
00000030: 6191 ba38 9e10 1fba ab2a 96b7 8b4d 2c39
00000040: 7f9f 6738 9f84 b936 e915 ee37 70ca 3db8
00000050: ab97 de38 4cd2 8238 2a90 4039 df7b 8637
00000060: f4ab a03a 8f64 d838 4a56 93ba 5aac 8cb8
00000070: 8154 e836 9a66 8938 748d c236 8f4f 48b7
00000080: b014 93b8 5fc2 9eb7 83a4 71b7 840b 4a36
00000090: 4912 d538 d1f1 7f38 522b 8e38 978d d8b6
000000a0: 6dda da38 ba2d 5cb9 65b3 fab7 7a90 f9b9
000000b0: d2d3 68b7 f8ec 2eb8 6a34 5638 9aa6 c737
000000c0: 9818 f1b8 d358 8538 2dca 15b9 bc3e 1038
000000d0: c450 5db7 6bc2 a837 90b4 ddb8 c555 6b38
000000e0: a2d3 bbb8 f7a1 c0b8 a052 9735 d65f 61b7
000000f0: 2871 5fb8 0003 d138 635d c1b8 9e1d 8eb8
00000100: 3874 2237 1640 feb7 9863 3337 9d1e 1a39
00000110: 4149 46b8 cd0c ab37 c4a6 a638 24f8 b6b7
00000120: 82d6 8738 7144 68b8 8216 9638 5614 3837
00000130: 7c4f 8f36 d98d 7238 5eb4 5636 20ce 0bb8
00000140: a544 28ba fb94 92b8 b965 edb7 1f14 d7b7
00000150: 4eeb 8b3a 9d7c 8938 9770 11b9 a819 bf38
00000160: 3c0e b3b6 23d0 0cb9 baef a439 ca5e 86b8
00000170: e60a 80b9 de91 95b8 9722 94b9 1152 2939
00000180: c120 70b9 9761 83b7 b180 5539 7b19 6638
00000190: 149b a737 fcee a7b9 68da e5b9 2e6a d138
000001a0: f5de f937 c9dd 5738 52c0 4238 261a 9837
000001b0: a924 b1b7 99d7 53b9 5a3a b8b8 fb12 a939
000001c0: 2545 0438 f60c c9b7 4ec6 e838 79b1 42ba
000001d0: 3e88 11b8 969d ecb8 86a0 b137 c927 af39
000001e0: c58f de38 8257 2239 2f6d 79ba 4bca a9ba
000001f0: 5f31 e437 3da8 29b8 0a16 6637 2aa1 1036
3.9350638e-05 -4.790228e-05 -5.350415e-05 -0.00024885696 -4.68411e-05 0.0012819166 4.4302506e-05 -5.0478873e-05
3.743049e-05 3.7663336e-05 -3.6278598e-06 9.437221e-05 8.89625e-05 -0.0006067845 -1.7901262e-05 0.00016432085
5.5223234e-05 5.5288688e-06 2.8382014e-05 -4.5249646e-05 0.00010614035 6.238054e-05 0.00018364252 1.6031727e-05
0.0012258277 0.00010318413 -0.0011240926 -6.707823e-05 6.9239763e-06 6.55178e-05 5.798118e-06 -1.1939453e-05
-7.0133596e-05 -1.8925579e-05 -1.4403023e-05 3.0107049e-06 0.00010160037 6.1021947e-05 6.779157e-05 -6.453785e-06
0.00010435735 -0.0002099787 -2.988586e-05 -0.00047600624 -1.3877596e-05 -4.1705527e-05 5.107039e-05 2.3800229e-05
-0.000114963565 6.358479e-05 -0.00014285064 3.43907e-05 -1.3191431e-05 2.0117694e-05 -0.000105717336 5.6108245e-05
-8.9562745e-05 -9.185442e-05 1.1274424e-06 -1.3433359e-05 -5.3272728e-05 9.9664554e-05 -9.220352e-05 -6.776604e-05
9.683012e-06 -3.0309002e-05 1.069242e-05 0.00014697989 -4.72751e-05 2.039075e-05 7.946559e-05 -2.181164e-05
6.477257e-05 -5.537685e-05 7.15675e-05 1.09719895e-05 4.2709853e-06 5.7829402e-05 3.1993472e-06 -3.333215e-05
-0.000641892 -6.989572e-05 -2.829997e-05 -2.5639367e-05 0.0010674985 6.55588e-05 -0.0001387022 9.1123686e-05
-5.336273e-06 -0.00013428977 0.00031459128 -6.407274e-05 -0.00024422182 -7.1320435e-05 -0.0002825453 0.00016147668
-0.00022900385 -1.566186e-05 0.00020361204 5.4860004e-05 1.9980165e-05 -0.0003203078 -0.0004384101 9.985674e-05
2.9786936e-05 5.1466548e-05 4.6432317e-05 1.8131988e-05 -2.1117115e-05 -0.00020202844 -8.7846725e-05 0.00032248333
3.153565e-05 -2.3967103e-05 0.00011099559 -0.0007426958 -3.469758e-05 -0.000112827096 2.1174794e-05 0.00033408243
0.00010612564 0.00015482123 -0.0009514866 -0.0012953965 2.7202708e-05 -4.0449424e-05 1.37142e-05 2.1551482e-06

embedding.embedding_network.1.weight f4 [128]
00000000: ef44 7d3f 70f3 7f3f d5fe 803f ad17 813f
00000010: 8b97 7b3f bcb1 803f d1d5 7e3f b56f 7f3f
00000020: 29ac 803f c335 763f 98c9 7c3f 5176 7d3f
00000030: c5a3 7b3f ad5a 793f fa74 803f d7f3 803f
00000040: 986e 853f 29c0 843f f004 773f 0734 823f
00000050: d087 823f 6811 7f3f b1dc 833f 5d86 813f
00000060: ad0b 803f 707f 7f3f 7d49 7e3f b568 803f
00000070: 769a 7f3f 5a8a 823f 4a35 743f a36d 813f
00000080: 228a 803f 44fc 7d3f cd07 843f 386a 803f
00000090: 675a 833f ad99 823f 0714 813f 47bf 7d3f
000000a0: 92e2 7c3f 7625 843f a9aa 813f 7391 843f
000000b0: 7c9b 7d3f 5831 803f adfc 833f 11ac 803f
000000c0: 1731 803f e83f 7b3f f2f5 7a3f ff8c 813f
000000d0: 5d4e 813f c19a 7f3f c00d 833f 78a5 793f
000000e0: 980b 7d3f 76fa 803f bd2f 7e3f cc4b 7f3f
000000f0: 0ad8 7c3f 17b7 803f 8d1f 803f d18a 793f
00000100: 1d30 823f e83c 803f eb12 803f 211b 803f
00000110: c74e 7c3f 546d 7d3f a24f 803f e88f 7b3f
00000120: 6b5d 7c3f ee6c 7b3f 2773 7f3f 87a1 863f
00000130: 3c73 7e3f 3e5e 7a3f 1842 7c3f 1e6f 803f
00000140: a0ca 813f 2549 813f 14f5 7d3f f7d0 7d3f
00000150: 968c 7e3f 9208 783f 6472 803f 8f49 813f
00000160: 20b0 813f 617b 803f 721d 7b3f 1633 813f
00000170: 1a25 853f b5df 7d3f 0cb9 7d3f ae9b 813f
00000180: b6f3 803f 281e 793f da57 7d3f ceb1 843f
00000190: 59f4 7c3f c721 823f 0e0f 7f3f 291d 7b3f
000001a0: 7ee9 813f 7efa 7c3f b2c9 7b3f 2c09 813f
000001b0: b695 7c3f 8db4 7c3f fb5b 7f3f a334 7c3f
000001c0: ecc8 803f a3fe 823f c2c6 7d3f e36c 803f
000001d0: c26d 843f 03b5 7a3f 0302 843f 9bbf 7d3f
000001e0: cb3b 753f 2482 793f 54a7 813f 89c3 7e3f
000001f0: 1277 833f f2fd 803f f3ae 7b3f 5868 793f
0.9893331 0.9998083 1.0077769 1.008535 0.9827811 1.005424 0.9954501 0.99779826
1.0052539 0.96175784 0.9874511 0.9900866 0.9829677 0.97403985 1.0035698 1.0074414
1.0424376 1.0371143 0.9649191 1.0172127 1.0197697 0.99635935 1.0301725 1.011913
1.0003563 0.9980383 0.99330884 1.0031954 0.99845064 1.0198472 0.9539381 1.0111583
1.0042155 0.9921305 1.0314881 1.0032415 1.0261964 1.0203148 1.0084237 0.9911999
0.9878322 1.0323932 1.0130206 1.0356888 0.99065375 1.0015059 1.0311486 1.005251
1.0014981 0.9814439 0.9803153 1.0121154 1.010204 0.9984551 1.0238571 0.9751811
0.98845816 1.0076435 0.9929159 0.9972503 0.9876715 1.0055875 1.0009629 0.9747744
1.0170933 1.0018587 1.0005773 1.0008279 0.98557705 0.98994946 1.0024302 0.9826646
0.98580045 0.9821309 0.99785084 1.0518044 0.99394584 0.9780005 0.9853835 1.003391
1.0139961 1.0100447 0.99202085 0.9914698 0.9943327 0.9688808 1.0034909 1.0100573
1.0131874 1.0037652 0.98091805 1.0093715 1.0401947 0.99169475 0.99110484 1.0125635
1.0074375 0.9731164 0.98962176 1.0366762 0.98810345 1.0166558 0.99632347 0.9809137
1.0149381 0.9881972 0.9835464 1.0080924 0.9866594 0.98713 0.99749726 0.9851782
1.0061316 1.0233959 0.99131405 1.003323 1.0345995 0.9793245 1.0313114 0.9912049
0.9579436 0.97464204 1.012919 0.9951711 1.0270712 1.0077498 0.98313826 0.9742484

embedding.embedding_network.1.bias f4 [128]
00000000: ef38 f4bb beb8 b53b 056c b9bc 1a24 a93c
00000010: 5c80 b23b 001e ec3b 95a1 17bc df66 ebba
00000020: 96e2 c53c 2d53 e8bc 3556 9b3b d56e 9cbc
00000030: dbf6 5ebc c19d 86bc a46f 953c dc58 e33a
00000040: f6e2 153d fc34 e83c 4d42 03bd 5f61 083d
00000050: d501 d93c 9775 113c 23cb 613d a671 b63c
00000060: ee0f 2d3c eaa0 c5bb 24fe 293b 4d1d baba
00000070: c979 0a3b 0d27 9b3c 0c3b 3fbc 94ea f83a
00000080: 39b9 96bb e7d3 92bb cf9f f33c 2418 e53c
00000090: 40f0 0c3d b4c1 273d c0a3 a03c c5d3 0fbc
000000a0: c2f9 a8bb da80 323d 94d1 893c f34c 393d
000000b0: 493f 5f3a d5b1 9e3b d7ae 013d b650 933c
000000c0: ae04 133c f66b 143c fb5a c5bc 5f9e 123c
000000d0: 8c8c e63c 4ee2 9cbb 42b3 113d bce5 02bc
000000e0: 4b09 84bb 04a6 ce3c 6694 863c 31dd 0a3c
000000f0: 1722 31bc 0776 b13c d60e ca3c adff b1bc
00000100: f727 173d a3a1 8b3c 4324 4a3c c6d9 0f3c
00000110: 8610 943b 4c69 0bbc 60e3 c2b7 1d72 bebc
00000120: 1ae7 413c 3954 2b3c 1427 31bc 829f 2d3d
00000130: 525b 2f3b 569c a4bc 0bca 563b c00e 063c
00000140: 7cbe 3e3c b494 aa3c cde9 663c 66ed dfbb
00000150: 10f7 f63c 6366 94bc 3264 363b 0be2 a63c
00000160: 8a6a 8d3c f42b 903c 9b16 3abc 721d 963c
00000170: dd07 023d a60d bf3c edc9 153b c0b8 d93c
00000180: c773 003d 8844 a1bc fe04 07bb 79cf 3d3d
00000190: 35bf a7bc a753 cc3c 7edb 0a3c c0c2 28bc
000001a0: 4947 c53c 9686 c23b 14d4 c0bb ef89 a73c
000001b0: 3301 fdbb c3c0 c2ba c18c 593c 2a9b 99bb
000001c0: 9945 b63c 06b3 003d 9443 83bb 2563 843b
000001d0: 75b4 323d 37f2 f1bc 7117 003d b485 8f3b
000001e0: 536f 22bd 1ed3 b9bc 008b 473c 99f7 a93c
000001f0: 9662 0b3d dd98 c63c ae30 7b39 d307 7fbc
-0.007453076 0.0055457046 -0.022634516 0.020647097 0.0054474305 0.0072057247 -0.009254833 -0.0017959735
0.024155896 -0.028359974 0.0047405013 -0.019095818 -0.01360866 -0.016432645 0.018241711 0.0017345208
0.0365934 0.028345577 -0.03204565 0.033295985 0.026490131 0.008878133 0.055125367 0.022270989
0.01056288 -0.0060311453 0.0025938833 -0.0014199406 0.0021129719 0.01893952 -0.011671793 0.0018990808
-0.004599717 -0.004480827 0.029739289 0.027965613 0.034408808 0.040956214 0.019609332 -0.008778517
-0.0051567266 0.043579914 0.016823567 0.0452394 0.0008516205 0.0048429766 0.03166088 0.017982822
0.008973284 0.009058943 -0.024091234 0.008948891 0.02814319 -0.00478772 0.035571344 -0.007989343
-0.004029428 0.025225647 0.016428184 0.008475588 -0.01081135 0.021662725 0.024665277 -0.021728361
0.036903348 0.017044848 0.012337747 0.008779949 0.0045185713 -0.008508991 -2.3232482e-05 -0.023247773
0.011834884 0.010457092 -0.01081254 0.042388447 0.0026757312 -0.020094078 0.0032774236 0.008182228
0.011642095 0.02082286 0.014093828 -0.00683372 0.030147105 -0.018115228 0.0027830717 0.020371458
0.017262716 0.017599083 -0.011357929 0.018324587 0.03174578 0.023321938 0.0022855953 0.026577353
0.031360414 -0.019685999 -0.002060234 0.04634044 -0.020476917 0.024942232 0.008475183 -0.010300338
0.024081843 0.005936454 -0.0058846567 0.020451514 -0.00772109 -0.0014858473 0.013278187 -0.0046876865
0.022249984 0.03142073 -0.0040058587 0.0040401393 0.04362913 -0.029534442 0.031272355 0.0043799523
-0.03965695 -0.022683676 0.012179136 0.020747947 0.034029566 0.024242813 0.0002395536 -0.01556583

embedding.embedding_network.1.running_mean f4 [128]
00000000: 6726 5b3b 2bb3 0a3c c9fa 143c 096f 4c3b
00000010: 783d f8bb 7482 883b 03d0 723b b0fe f0bb
00000020: 4649 a9bb 1d97 173c e9e2 583b 6be8 1eba
00000030: e944 893a a5b7 b039 65b4 473a dd24 003c
00000040: 652a 403c 26d1 36bc 40b7 2fbc 05ed d23b
00000050: 8e03 c6bb 91a9 913b 313b 1d3b 813c f83b
00000060: fdd3 aa3a 5ac9 643c 14af 013b 18d1 edba
00000070: dec1 083b 5967 ad3b 05d7 c13b b253 43bc
00000080: df50 013c 1672 d0ba c8eb d7b9 e150 a83a
00000090: a4e5 ec3b dbd8 d0bb 6423 eb3b 0a4a 413c
000000a0: 1340 dbba 5574 723c 7fec 0ebb b9c4 f5bb
000000b0: 4816 d7bb 4e58 8a3b 53c7 bf3a 6c8c c53b
000000c0: 55a1 823b 5356 883b 8fc8 2ab8 51f8 acbb
000000d0: d02d c439 7d90 e7bb 446a ac3b 024e 9ebb
000000e0: 8d42 7c3b 11b4 6b3b a82b 3d3c b7f8 053b
000000f0: 243e 15b9 dffd 0abc ca7d 88ba e077 0f3b
00000100: 8714 01b9 a476 9aba 3cdb 883b 838c 8fbb
00000110: c601 043b d3f8 62bb a71b 303a fc8c b3ba
00000120: c5fc e93b c381 d53b e95d 623b eafc ec3b
00000130: d887 2b3b e8c6 de3b 6c7e 5d3c e289 aebb
00000140: 6b35 433c 7a10 c1ba 4553 dd3b 58c9 bb3b
00000150: b886 973b e672 ea3a 6f05 b8bb 8194 443c
00000160: e846 5d3b a45e 883b 37b4 99b9 7779 c8ba
00000170: c1f8 233c fe88 9a3b 6611 6aba 9fbe 6d3c
00000180: af34 e63b 7ee7 80bb 2a15 2e3b 4124 043b
00000190: f899 0fbb 2400 bfbb 2773 88bb c0f8 32bb
000001a0: 0d88 ba3b c3b1 0c3c b6e6 7eba 9e3e 3abc
000001b0: a039 0abb c7aa 0b3b 39e0 c63b c245 ccba
000001c0: 5b9f 9f3b 8e57 25bc dc2a cc3b ab1e b13b
000001d0: 07ec d43a bfcc febb 92ac 873a e526 613b
000001e0: 3023 10bb 65d8 cc3b 1278 1a3c 65b5 913b
000001f0: 1d87 093c 4c68 42bc 0b99 a83b 672c 483b
0.0033439638 0.008465569 0.009092995 0.0031194112 -0.007575687 0.004165942 0.0037050254 -0.00735458
-0.0051662056 0.009252337 0.0033094233 -0.00060618547 0.0010472807 0.00033706162 0.00076181284 0.007821289
0.011728858 -0.011158263 -0.010724843 0.0064369463 -0.006042904 0.0044452627 0.002399158 0.007575572
0.0013033148 0.013964022 0.0019788193 -0.001814398 0.0020867507 0.005291861 0.005915525 -0.01192181
0.007892816 -0.0015903141 -0.00041183666 0.0012841487 0.0072295237 -0.0063735074 0.0071758498 0.011797437
-0.001672747 0.0147982435 -0.0021808443 -0.007500258 -0.0065639354 0.0042219525 0.0014631547 0.0060287025
0.0039865174 0.0041606813 -4.0717943e-05 -0.005278625 0.00037418166 -0.007066785 0.0052616913 -0.0048310766
0.0038491816 0.0035965482 0.011546053 0.0020442435 -0.00014232897 -0.008483379 -0.0010413465 0.002189152
-0.00012310046 -0.0011784625 0.0041765254 -0.004380764 0.0020142659 -0.0034633174 0.00067179877 -0.0013698633
0.007140728 0.006515713 0.0034540838 0.007232298 0.0026173498 0.006798614 0.013518911 -0.0053264955
0.011914591 -0.0014729642 0.0067543113 0.005730789 0.004624214 0.0017887026 -0.005615882 0.011998297
0.0033764187 0.0041616727 -0.00029316705 -0.0015294988 0.010008038 0.004716038 -0.0008928984 0.01451078
0.0070253233 -0.003933846 0.0026562908 0.002016321 -0.002191184 -0.005828874 -0.004164118 -0.002730891
0.005692488 0.008587304 -0.00097237097 -0.011367468 -0.0021091476 0.0021311508 0.00606921 -0.0015584754
0.0048712916 -0.010091675 0.006230695 0.0054052672 0.0016244658 -0.0077758725 0.0010351113 0.0034355458
-0.002199363 0.006251382 0.009428041 0.0044466727 0.00839403 -0.011865687 0.0051451973 0.0030544044

embedding.embedding_network.1.running_var f4 [128]
00000000: 0823 dd3b 62e8 093c c755 2b3c ea16 673c
00000010: a651 293c 5414 693b 4c7d ee3b 3148 023c
00000020: 99d5 803c 79d1 ec3b bb26 f03b 568e f33b
00000030: 2d65 8d3b 52a1 3f3c 4c4d 1d3c cfe9 233c
00000040: 6aea 213c c860 333c f2f5 0c3c c7af 493c
00000050: 680e 3f3c de7b 1e3c 0fe2 553c 3eb1 373c
00000060: c759 ab3b 9b0c 053c 88e3 093c d400 403c
00000070: 0fc6 753c 6d2d 363c d95f 543c 8ddc 5b3c
00000080: a87f 063c b81e 783c 1739 723c 2131 763c
00000090: 2bbb 623c d520 3d3c 5509 893c b61e 1d3c
000000a0: b5ed ea3b 1c5d 523c 6176 513c c492 7f3c
000000b0: 97bd 2e3c c16f ed3b f03f 563c 6efc 153c
000000c0: 8bc8 013c a8d0 b73b e626 bb3b 6c58 543c
000000d0: b58f 173c dbe5 533c 73fe 603c 6eff 013c
000000e0: c8ae 4d3c 1ec5 1c3c 8c53 543c 8223 d43b
000000f0: 5f15 d13b e342 603c 5353 2b3c ec50 223c
00000100: d37b 413c 93c4 8c3c 4637 2f3c a7a5 7f3c
00000110: 04ac 6f3c 7043 8b3c 461f 383c bb78 673c
00000120: e192 1f3c 1dee 283c 9b37 8d3b 8b33 0f3c
00000130: 5bf1 e73b cf1e ab3b 32a5 f23b fa73 9e3c
00000140: 35da 303c 782f 843c a051 6a3c 3195 813c
00000150: 3ff1 883c e19a c33b 9380 053c 9452 0f3c
00000160: 41df 073c f35d 323c 4efb 2a3c 06ac f93b
00000170: 561a 8f3c bb3a d53b 528f 1c3c 6bf7 1a3c
00000180: 1522 123c ba2f c53b 2dc0 2d3c c0c0 8e3c
00000190: 345f 593b a51a 0a3c 2a9f 263c 6dd6 db3b
000001a0: e472 963c 0aa2 1c3c 9980 5f3c e709 1a3c
000001b0: b474 593c 2889 ec3b 2233 ac3c f97b ca3b
000001c0: 141f 633c 3eaa 343c e224 973b 111d d33b
000001d0: 76ea 193c 9cc8 473c 1e8f 303c 533a 0f3c
000001e0: 2c41 833b dfc4 ca3b a621 0c3c 1b46 953c
000001f0: a5e2 463c 149d 463c ce35 793c 6619 f03b
0.006748561 0.008417221 0.010457463 0.014104584 0.010334408 0.0035565095 0.00727812 0.007951782
0.015726851 0.0072271195 0.007328836 0.0074327393 0.0043150396 0.011696177 0.009600949 0.010004475
0.009882549 0.010948367 0.00860356 0.012309975 0.01166115 0.009673087 0.013054385 0.011211691
0.005229208 0.008120681 0.008416064 0.011718947 0.015000834 0.011119229 0.012962305 0.013419283
0.008209147 0.015144043 0.014784119 0.015026362 0.01383857 0.011543472 0.016728083 0.009589842
0.00716945 0.012839582 0.012784571 0.0155989565 0.010665319 0.007245988 0.013076767 0.009154422
0.007921348 0.0056095906 0.005711424 0.012960535 0.009250571 0.01293322 0.01373254 0.007934434
0.012553878 0.009568481 0.012959372 0.0064739594 0.0063807215 0.013687822 0.010456878 0.009906989
0.011809307 0.017183578 0.010694331 0.015603459 0.014628414 0.01699993 0.011237925 0.0141279055
0.0097396085 0.010310677 0.004309607 0.008740316 0.0070783324 0.0052221785 0.0074049467 0.019342411
0.010794212 0.016135916 0.0143016875 0.01581821 0.016716598 0.0059693907 0.00814833 0.0087477155
0.008292974 0.010886657 0.010435892 0.0076193837 0.017468613 0.0065072454 0.009555655 0.009458403
0.008919259 0.0060176523 0.0106049 0.017425895 0.0033168318 0.008429204 0.010169784 0.006708911
0.018365331 0.0095601175 0.0136415 0.009401775 0.013272453 0.0072184987 0.021020476 0.0061793295
0.01386239 0.011026917 0.004612551 0.006442674 0.009394279 0.012193825 0.010776309 0.008741933
0.004005572 0.0061880196 0.008552944 0.018221905 0.012138997 0.012122411 0.015210582 0.0073272465

embedding.embedding_network.4.weight f4 [64, 128]
00000000: 815c 56bd 1e6e 5d3c ead2 ddbd 576f 573d
00000010: 9f2e 9dbd e9d3 d43b 80ff 21bd f00d 883d
00000020: f917 46bc b1c8 b03c b472 a43d 3ad6 b2bd
00000030: b606 d33c bb45 e23c 24bb 23bd 1a25 b4bd
00000040: 8a3d ff3b 2bad 8abc d9d2 023d ef3a 8b3d
00000050: 4dec 07bd f0c1 953d e5e1 b13d 7d07 c53c
00000060: 210e 663d 6846 1c3d df2d 5e3d 15bb b1bc
00000070: 61f5 053d 54d1 053c 2504 65bd 53c7 6dbd
00000080: 4034 c0bc a845 0cbc 25dd 9fbb a436 e9bd
00000090: 9bf3 9fbb e99d 283c 327d 1c3c 8991 edbc
000000a0: 58dd 67bd 8d33 303c dd60 3a3d b0ae 2cbc
000000b0: 6354 4c3d 8338 7a3b d6e0 a2bd c7fd 883c
000000c0: ec4a 103d 8e65 813d 59a7 5fbd f4d5 a9bc
000000d0: db7f 62bd 1f68 04be 8e5d 693c 037b 2cbb
000000e0: 7e15 a33d 97d0 6a3d f25b 893d 1e6f bcbd
000000f0: 8ee7 9abd 1c7f 96bc 09ef bfbd d02b 3cbd
00000100: 7922 843a 5a00 f4bd 50ba 643c 9dd0 9d3b
00000110: d2b1 f2bd fc43 38bd 71f8 cc3c 938e a3bd
00000120: 0fdf 0a3d 97f1 663d 871c 8bbd e9f6 2a3d
00000130: 7846 763d ca62 0fbd 8919 46bd a0c7 d5bd
00000140: ec74 153b 3ed1 cbbc 82ef 0cbd 9cb3 8bbc
00000150: a279 1f3d 8eee edbc 1407 2abc 6117 0a3d
00000160: 46ff 5abd b4b0 87bd 3031 2b3d 695e 58bc
00000170: 40bc ea3b 0627 7b3d 94cb 8f3d 1e56 1c3d
00000180: f966 933d a1f3 11ba 51ba b13c 3fe7 fabd
00000190: 1d12 54bd 00a4 b3bb 1df9 e5bd 3fc4 e0bc
000001a0: 6cea 2f3d d35e b6bb b0fd 00bd c96f 873d
000001b0: 3910 453d 40d2 8c3d 9739 d5bc e57f 9f3d
000001c0: 386d 6f3c 6533 583d 4803 e03b 9d1f 90bd
000001d0: 257b 1fbd 1b2f a93c 8aed 813d 41a4 85bc
000001e0: 3fba e13c 3f82 743c ad59 023d 60a9 f53b
000001f0: b65d f23c 078d e2bc 5b2c a9bd 6066 50bd
00000200: e1ef 91bc a73f 17bd b277 11bd 2dd8 6a3b
00000210: 74b4 08bd 40b9 90bc f8ce e3bb d0d0 f43c
00000220: bf5d aa3d b437 b03c 9278 fa3c 570f 083d
00000230: 2a0e a7bd 765c ad3d ba0b 8a3c 0c8c 563d
00000240: c9e4 f73b a09d febd 178f fcbb 0a7d 9dbd
00000250: a903 c4bd 27ba f3bd f949 2a3c ef13 aabd
00000260: 7284 21bc 8d65 d43b f2a2 8ebd e317 9ebc
00000270: 5dd4 6abd d370 29bc 95ab 32bd a31f 6b3d
00000280: 23b4 423d 0a47 6d3d 3467 a5bc 34e4 fb3b
00000290: fc85 3ebd 7a82 91bd b305 13bd 7ea9 753d
000002a0: 0cfe 85bd 13ab b3bb e597 dbbd d8af 9c3d
000002b0: 0692 23bd cbd3 8abd 28f1 e33a 3eb2 cc3c
000002c0: 942d 82bd 3d0d 67bd eb0a 67bd 11e1 9b3d
000002d0: 9627 afbd 44a9 45bc 26ec 70bc dd41 52bd
000002e0: f48e 8bbd a858 cabd cbf1 4dbd 46cb dfbc
000002f0: dd64 a63d 79c0 62bd c000 ad3c 2e16 9f3d
00000300: be77 6dbd cb64 5f3d 248f 053c be98 e0bb
00000310: 4553 8b3d e440 683a e3c4 10bd 8346 18bd
00000320: a95d 07bd 7f2e 833d 35b5 273d 448d d7bd
00000330: 2912 ba3d 8c8f 66bd 1134 bfbd ecee 1bbd
00000340: 493e 57bd b6cc febc b9a5 f9bd 6fd8 53bd
00000350: 9384 063d 8762 80bd 750d 99bd 94fe afbd
00000360: 9bff a03d eb56 9dbd f9bf 4dbc 6c6b 693d
00000370: a38a 69bd 9d07 9b3c f830 9abd 294a 7abd
00000380: ef05 98bd 7635 7cbd 84be 8bbc aaf6 a4bc
00000390: 9275 6dbc 4354 8abd 4c0b 9f3d 6701 8cbd
000003a0: c621 bb3d 2cfe 833c 680a 363c 976e 0abc
000003b0: d291 01bd 3724 f3bc 5a2c 6dbd 0946 753d
000003c0: 4bf0 b2bd 26b9 06bd b25e 8abd d2ba 88bd
000003d0: fd99 d33b b2eb da3c 75b1 473c 5dc8 cbbc
000003e0: 289f 5f3c 8897 4ebc d211 033d 3e8e 97bd
000003f0: 21ee f4ba 624c 0b3d 09eb 593d 325d 073d
-0.052334312 0.0135150235 -0.10831244 0.052596416 -0.07674908 0.006494988 -0.039550304 0.06643283
-0.012090676 0.021580072 0.080296904 -0.08732267 0.025760036 0.02762114 -0.039973393 -0.08796139
0.0077893184 -0.016928276 0.03193936 0.0679835 -0.03318434 0.07312381 0.08685664 0.024051422
0.056165818 0.038153082 0.054242965 -0.021695653 0.032704715 0.0081675835 -0.055912156 -0.05805142
-0.023462415 -0.008561529 -0.0048786574 -0.11387375 -0.004881335 0.010291555 0.009551333 -0.02900006
-0.056607574 0.010754478 0.045502532 -0.010539696 0.049885165 0.0038180656 -0.0795304 0.016722573
0.0352277 0.06318198 -0.054602955 -0.020731904 -0.055297714 -0.12930344 0.014243497 -0.0026318438
0.07963084 0.057327833 0.0670699 -0.092008814 -0.07563697 -0.018371157 -0.09371764 -0.04594022
0.0010081074 -0.119141296 0.013960436 0.0048161284 -0.11850323 -0.04498671 0.02502081 -0.07986178
0.03390413 0.05638274 -0.067925505 0.041739378 0.060125798 -0.035006322 -0.048364196 -0.10438466
0.0022805287 -0.024880048 -0.0344081 -0.017053418 0.038934357 -0.029044416 -0.010377664 0.033713702
-0.053466104 -0.066255 0.041794956 -0.013206103 0.0071635544 0.061316513 0.07021251 0.038168065
0.07197375 -0.00055676146 0.021695288 -0.12251138 -0.051775087 -0.005482197 -0.11229155 -0.027437327
0.04294817 -0.005565503 -0.031491935 0.06613118 0.048111174 0.068760395 -0.026028438 0.07788066
0.014613442 0.05278339 0.0068363287 -0.0703728 -0.0389358 0.020652344 0.06344135 -0.016313674
0.02755463 0.014923631 0.031823803 0.0074969977 0.0295857 -0.027655138 -0.08260413 -0.050878882
-0.017814578 -0.036925938 -0.03551454 0.0035834417 -0.03337522 -0.01766646 -0.006952163 0.029884726
0.08318662 0.021510936 0.03057507 0.033217754 -0.081569985 0.08464901 0.016851295 0.052379653
0.007565115 -0.12432408 -0.0077074873 -0.07689865 -0.095710106 -0.1190074 0.010393613 -0.08304583
-0.009858238 0.0064818324 -0.06964673 -0.0192985 -0.05733143 -0.010341841 -0.043620665 0.057403218
0.047535073 0.057929076 -0.020190813 0.007687116 -0.046514496 -0.071049646 -0.035894107 0.059976093
-0.06542596 -0.00548304 -0.10722331 0.07650727 -0.03993418 -0.067786776 0.0017390596 0.024987336
-0.063563496 -0.05640911 -0.056406897 0.076112874 -0.08552472 -0.012064282 -0.01470474 -0.051332343
-0.068143755 -0.09880191 -0.05027942 -0.027318608 0.08124707 -0.055359337 0.021118522 0.07767902
-0.057975523 0.054539483 0.008151803 -0.006854146 0.06802992 0.0008859767 -0.035344016 -0.03717662
-0.033048306 0.06405353 0.040944297 -0.10524991 0.09085495 -0.05628924 -0.09336103 -0.03806965
-0.052549634 -0.031103473 -0.12189812 -0.05172008 0.032841276 -0.062687926 -0.0747327 -0.08593479
0.07861253 -0.07682594 -0.012557977 0.05698721 -0.05701698 0.018924529 -0.07528871 -0.06110588
-0.07423007 -0.06157442 -0.017058618 -0.02013715 -0.014493363 -0.06754353 0.077658266 -0.06836205
0.09137301 0.01611241 0.0111108795 -0.008449218 -0.031633206 -0.029680355 -0.057903625 0.059881244
-0.087372385 -0.032891415 -0.06756343 -0.06676258 0.006457566 0.026723716 0.012188305 -0.024875814
0.013648786 -0.01260937 0.031999417 -0.074001774 -0.0018686691 0.03400839 0.053202663 0.033047862

embedding.embedding_network.4.bias f4 [64]
00000000: 1aa8 15b8 be05 d136 eb8a 7cb8 5c72 8037
00000010: 1ce6 14b8 d64c 37b6 2247 8eb7 7141 3137
00000020: dd14 9fb7 5852 9fb6 bc01 0b37 7737 f6b4
00000030: b3eb e337 3cd6 0b35 3564 e6b6 5297 95b5
00000040: 9f48 1db7 baa3 c837 38a3 c235 ca1f d7b7
00000050: a6d0 8db7 ac86 8935 f77a 3bb6 6ed1 8b37
00000060: 4c11 95b7 533b 9cb6 e905 75b7 f2a0 b7b6
00000070: 30d1 0c36 fa49 b737 d1de 1037 523a 83b8
00000080: 26f9 ddb6 c275 b3b6 0009 3438 5ceb aeb6
00000090: 9763 d1b6 14bb 4eb8 7652 d437 36e4 7fb6
000000a0: 9894 f936 111f 32b7 3b76 2537 48a0 a636
000000b0: ce5f 13b7 2870 e3b6 c73b 06b8 5ff6 e137
000000c0: e0b0 f2b4 4fca 3db7 89a3 7137 2b1e 7335
000000d0: 41a8 31b8 b48e 21b8 8b00 d736 b2a5 f2b6
000000e0: 24a3 4c37 3f80 53b7 866d 9fb8 fefc 9a37
000000f0: d0be 0d36 1e7c 54b6 cf77 1f36 5504 9fb7
-3.5680925e-05 6.229354e-06 -6.021086e-05 1.5312042e-05 -3.5500256e-05 -2.731385e-06 -1.6960843e-05 1.0565259e-05
-1.8963992e-05 -4.7481553e-06 8.285449e-06 -4.5861427e-07 2.7170265e-05 5.209329e-07 -6.8662e-06 -1.1145405e-06
-9.374838e-06 2.3918099e-05 1.4501629e-06 -2.56448e-05 -1.690567e-05 1.024649e-06 -2.7936746e-06 1.6667615e-05
-1.7770239e-05 -4.6560685e-06 -1.4604514e-05 -5.4725615e-06 2.0983389e-06 2.1849748e-05 8.634947e-06 -6.25743e-05
-6.615318e-06 -5.3483245e-06 4.2923726e-05 -5.2130035e-06 -6.240279e-06 -4.9288457e-05 2.5310768e-05 -3.8130797e-06
7.438077e-06 -1.061686e-05 9.862294e-06 4.9658447e-06 -8.784189e-06 -6.778184e-06 -3.200376e-05 2.6936816e-05
-4.5204706e-07 -1.13123815e-05 1.4402795e-05 9.0568454e-07 -4.2356787e-05 -3.8518294e-05 6.4075625e-06 -7.2314515e-06
1.2197332e-05 -1.260644e-05 -7.602111e-05 1.847604e-05 2.1121705e-06 -3.1662707e-06 2.3762584e-06 -1.8956294e-05

embedding.embedding_network.5.weight f4 [64]
00000000: 261a 723f fa57 703f 10d5 6a3f f73b 693f
00000010: ddd4 653f b2f6 6c3f 3ef1 713f edff 6e3f
00000020: f8d3 6e3f 29d7 6b3f 06b6 713f 2a3d 733f
00000030: 0fea 6d3f 58df 7b3f a413 713f b762 6e3f
00000040: 08d7 6a3f 9c84 703f e668 6b3f 08f0 6a3f
00000050: a02a 6d3f 5ad0 6c3f 2d04 733f 902e 6a3f
00000060: 382f 6f3f 8ca6 6a3f ae48 6a3f 3d8a 693f
00000070: 4fed 6a3f 3f58 6b3f a95b 6d3f d2e5 693f
00000080: bd05 6b3f 34ce 6b3f 7860 6a3f fa8b 673f
00000090: b10b 6f3f f624 6a3f 5464 6d3f 6edc 743f
000000a0: b527 6d3f 39dc 6b3f 408b 703f 6e23 693f
000000b0: c67a 693f 3b79 763f c612 733f 26fe 693f
000000c0: 2f34 733f 3e19 6f3f 8d3e 6f3f 7d0a 6b3f
000000d0: 16fa 713f 1128 693f 90ab 713f 58ee 793f
000000e0: 8d64 663f c47a 6f3f ec16 6e3f 5127 713f
000000f0: d22d 723f cb8f 683f 79fd 6b3f 3441 6a3f
0.9457115 0.9388424 0.9173136 0.91107124 0.8977793 0.9256393 0.9450873 0.9335926
0.9329219 0.92125183 0.9441837 0.95015204 0.9293527 0.9838767 0.94170594 0.93119377
0.9173436 0.93952346 0.9195694 0.9177251 0.92643166 0.9250542 0.94928247 0.914773
0.93431425 0.9166038 0.9151715 0.9122656 0.91768354 0.9193153 0.9271799 0.913663
0.9180563 0.92111516 0.9155345 0.9044796 0.93377215 0.9146265 0.92731214 0.9564885
0.92638713 0.9213291 0.9396248 0.91069686 0.9120296 0.96278733 0.9495052 0.91403425
0.950015 0.9339789 0.9345482 0.9181288 0.94522226 0.9107676 0.9440241 0.9762931
0.8999718 0.935467 0.93003726 0.9420062 0.94601166 0.9084441 0.92183644 0.9150574

embedding.embedding_network.5.bias f4 [64]
00000000: 5df4 09ba f5f5 05bd 61fe 83bc 0bc7 41bd
00000010: f860 74bd a899 16bd b466 9cbb 87f2 09bd
00000020: 30dc a4bc 1586 61bd fce0 83bc 3c23 fabb
00000030: 990f f0bc 0728 473c d766 f2bc a918 abbc
00000040: 1734 24bd d89c a2bc 6e37 46bd 3f98 14bd
00000050: 29d1 8ebc e328 10bd 1660 38bc 29d9 19bd
00000060: df05 02bd faf4 32bd 1ff7 55bd d314 49bd
00000070: 1417 16bd 42b9 0cbd 8fcf 01bd dcd6 36bd
00000080: ff37 1abd 847a 2fbd 06d3 25bd 9799 89bd
00000090: a3a3 00bd 035b 83bd 302a 81bc 77b2 0b3b
000000a0: 3ba1 42bc 4aef 51bd b2be b5bc 8e80 4ebd
000000b0: 4fbf a0bd d603 8439 f7dc 69bc f23b 70bd
000000c0: 8e85 123b 9132 20bd bfba 71bc b559 71bd
000000d0: b706 83bc 81ad 73bd 3e12 b2bc dbd1 35ba
000000e0: 1424 97bd 7900 5ebd a11a f5bc e440 cabc
000000f0: 1327 79bc 6d51 54bd 0841 2dbd d9ab 41bd
-0.0005262548 -0.032705266 -0.016112508 -0.047308963 -0.05966279 -0.03676763 -0.0047729854 -0.033678558
-0.020124525 -0.05505951 -0.016098492 -0.007633595 -0.029304313 0.012155539 -0.029590053 -0.020885782
-0.04008874 -0.01985018 -0.048392706 -0.036278006 -0.01743372 -0.035195243 -0.011253377 -0.037560616
-0.03174388 -0.04369066 -0.052237626 -0.049092125 -0.036643103 -0.034356363 -0.031692084 -0.0446385
-0.03765106 -0.04284145 -0.04048445 -0.06718748 -0.031406056 -0.064138435 -0.015767187 0.002131609
-0.011879261 -0.051253594 -0.022185657 -0.050415568 -0.07848989 0.0002517986 -0.0142738735 -0.05865092
0.0022357437 -0.039110724 -0.014753996 -0.058923442 -0.015994413 -0.059491638 -0.021737214 -0.0006935873
-0.07379928 -0.05419967 -0.029919924 -0.024689145 -0.01520707 -0.051835466 -0.042298347 -0.047283027

embedding.embedding_network.5.running_mean f4 [64]
00000000: f0e6 95be fc49 67bf 8b74 203e 0b23 a93e
00000010: 1a62 84be 7bb6 5dbe 23d7 d03c d189 debe
00000020: ad95 5f3e 9f64 d4bd fc4f a7be b730 803e
00000030: 47e1 34bf a4ca 1cbf 49ac b2be 5e72 48bd
00000040: 0fbf 2cbe 04ed 3fbc 0de2 08bc 3db3 173e
00000050: ca81 c0be 806b bd3e e72a 8dbd 8592 0ebe
00000060: a611 603d d473 12be 1d12 bcbc df83 50bf
00000070: 5f8e b6be 4972 c5be 79f6 c1bd f92a 083c
00000080: 8c72 b8be 3f18 5a3d 3abe f0be 7dd4 973e
00000090: 92af c1be 6056 47be 70c0 193d a439 bbbe
000000a0: 8fdc 88be 9959 b3be 47bb 60be b818 09be
000000b0: b660 2a3e 6fcd 52be 8ca3 9cbe 2b33 d63e
000000c0: 5032 3bbe 3d27 08be 0ae0 26bf 7d65 5ebd
000000d0: 6e55 dbbe 2bfa c9be 2299 453e 8107 4cbf
000000e0: 1414 0ebf c2a2 123f 1ad4 033d 7695 d1bd
000000f0: f96f 8abd 1df6 03bf 8460 2abf 8c7c 9ebe
-0.29277754 -0.90347266 0.15669458 0.33034548 -0.25856096 -0.21651642 0.02549321 -0.4346452
0.2183444 -0.103707545 -0.3267821 0.25037166 -0.70656246 -0.61246705 -0.34897068 -0.048937194
-0.16869758 -0.011714224 -0.008354676 0.14814468 -0.3759902 0.36996078 -0.068929486 -0.1392308
0.05470433 -0.14301997 -0.022957856 -0.8145122 -0.35655496 -0.38563755 -0.09470839 0.008311027
-0.36024892 0.05324578 -0.4702013 0.29654303 -0.37829262 -0.19466543 0.03753704 -0.36567414
-0.26730773 -0.35029295 -0.2194644 -0.13388336 0.16638455 -0.20586179 -0.30593526 0.41835913
-0.18280911 -0.13296218 -0.65185606 -0.054296006 -0.42838615 -0.39448676 0.19296697 -0.7969895
-0.55499387 0.572796 0.032184698 -0.102335855 -0.06759638 -0.51547414 -0.6655352 -0.30954397

embedding.embedding_network.5.running_var f4 [64]
00000000: 392b 643f 47df 133f 52c2 2c3f 807c 123f
00000010: 08fa af3e 540b 323f 93e3 043f c409 ba3e
00000020: 7b70 263f a596 9a3e bc69 ef3e 14e7 b13e
00000030: 3cdf de3e 990c 3e3f ba07 443e 548d 2c3f
00000040: 75ae 0e3f 8d0d d23e e74a f93e 085e d33e
00000050: ad11 653f 2f81 0b3f d4c1 e63e 7f48 253f
00000060: 5c34 133f 1185 9b3e eda4 c03e 64fe f43e
00000070: 605f 3f3f fdb5 253f 6e62 083f 66d5 1c3f
00000080: 10ca 5c3f ffbf c13e e721 203f 0aa3 093f
00000090: 18b6 9d3e ec3b e03e 8233 073f 35d5 223f
000000a0: fa4d 033f afe9 e43e 0b7e d33e 8986 ed3e
000000b0: ef58 f03e 4fdf 143f a066 113f b3e8 b03e
000000c0: bff2 393f da87 b93e b750 673f 06d2 0c3f
000000d0: 2c4e ee3e e057 ea3e 434b 083f 4784 e43e
000000e0: 145e ed3e e0fb d83e cded d23e 31c0 da3e
000000f0: c1d8 0f3f f2e0 313f ac83 da3e f189 0f3f
0.8912845 0.5776257 0.6748401 0.5722122 0.34370446 0.69548535 0.5190975 0.36335576
0.6501538 0.30193058 0.46760356 0.3474661 0.4352969 0.7423797 0.19143572 0.6740315
0.5573495 0.41025963 0.48689958 0.41282678 0.89480096 0.54493994 0.45069754 0.64563745
0.5750177 0.3037496 0.37625828 0.47850335 0.74754906 0.6473082 0.5327519 0.6126312
0.8624582 0.37841794 0.6255173 0.537644 0.3080299 0.43795717 0.5281297 0.6360658
0.5129086 0.44709536 0.413071 0.46391705 0.4694285 0.5815324 0.5679722 0.34552535
0.72636026 0.3623646 0.90357536 0.5500797 0.46544015 0.45770168 0.5323984 0.4463217
0.46360838 0.42379665 0.41197053 0.42724755 0.56190115 0.69483864 0.42678583 0.56069857

embedding.embedding_network.8.weight f4 [5, 64]
00000000: a428 b03d 24c2 0ebd 1466 4c3c 704c 18bd
00000010: beb6 66bd 0b10 803c c26d 85bd e723 45bc
00000020: 2f94 8fbd 5a61 49bd e293 5a3c cee5 fcbb
00000030: bbb0 eb3a 6cc2 12bd 152d 9cbc b9df ac3b
00000040: 5359 7d3d 6d75 3ebc 5eb7 c43b a1fa d23c
00000050: 17e5 6fbd 1e67 b0ba bead da3c 2970 923c
00000060: 90b6 8bbd a089 b53b ed8d fbbc 6a78 8e3c
00000070: 6bb3 433d ca85 983c c3c0 81bc db40 7d3a
00000080: 34ab ae3c 3204 1abd a0d1 263c a5a2 0e3d
00000090: c04b c439 791f 8e3c 7f5b ef3a ef17 8c3c
000000a0: d6f8 8bbd adc2 3ebd 4799 863d 6ab7 7b3d
000000b0: 863f fbb9 d98a 20bd debe 883d ab99 253d
000000c0: 76be 053d d922 713d 6ed4 66bd c8c3 973d
000000d0: d05f c7ba 0ae6 58bd ffaa 39bd 41d5 823c
000000e0: d8a6 623c 9b4e 0cbc 7e05 793a db9f 9e3d
000000f0: 2aae b4bd 9fb6 8c3d 9070 fb3c 6df6 a33d
00000100: 2a53 f7bc 64ff 163c f47e 223d 88ec 89bd
00000110: a06c a73c 7903 9bbc fd4d a63c 06c0 593d
00000120: d08e 6bbd b8d8 89bc 8dad be3c 9b6c 9abc
00000130: 803c e6bc 56e2 153d 8c99 88bc 10fd e9bc
00000140: cb63 36bd 7915 fbbc fa71 88bd 2693 50bd
00000150: 4595 663d 33fd 77bd e234 f93b cfe8 43bd
00000160: 21cd 3f3d 3a05 2fbd a03c 56bc d7f7 253d
00000170: 8b2f fbbc e4eb 863d 052b fdbb b543 8ebd
00000180: 0009 773d 2ad5 c1bb 835a bfbb 311d fc3c
00000190: 2b65 4bbd 9f72 01bd e529 17bd 9c7c 1e3d
000001a0: e9c0 98bb ca11 dcbc 0b1d 74bc 5e37 f0bb
000001b0: 3238 1abd 5458 c33c 467e f03c 3ee8 59bd
000001c0: c852 213d 78fa 0238 2f28 7c3d 7f4b 533d
000001d0: 7a95 533d cd08 923d ac51 48bd c764 3d3d
000001e0: bc43 8c3d 2491 2fbc 6324 19bd 0783 013b
000001f0: 7012 073c c159 1ebd dd70 973d 7b87 8d3d
00000200: 6292 9d3d 1bdb 23bd c544 903d 4190 f93c
00000210: 3131 aa3c 629a 943d 5075 a53d 4d71 d13c
00000220: 0767 21bd e405 dcbc d7db 66bd 907b b53c
00000230: d229 a2bd 2a94 8bbc 667d c4bc 1fe1 6abd
00000240: df78 50bd c851 6bbd 2b87 c43b b887 5e3d
00000250: fc29 96bd 38c6 063d 3f95 893d 9d5b 1f3d
00000260: 6308 013d 64b2 70bd 3da5 403d 8757 85bc
00000270: 841a 043d 6a3d 5ebd 79b6 88bd 8c7a a7bc
00000280: 198c 623d 77a0 1cbc 6082 89bd a0e3 b3bc
00000290: a9d6 71bd 922b 2cbd 5dbc 84bd ebe9 353d
000002a0: 6402 843d fe34 ec3c 117d b3bc daec 313c
000002b0: 8310 0abd 9dc4 3ebd 20ce 9bbc f79d 58ba
000002c0: e1ed 7e3d e298 a8bc 902b 9f3d 2810 4c3d
000002d0: ba43 4f3d 2e02 c7bc eb27 f83c 4119 0f3d
000002e0: 2e77 393c 8beb 3f3d 6796 0dbd 71a0 3b3c
000002f0: 212f b1bc 6de5 89bd a32a 833b 5c63 433d
00000300: d3fd 9e3c b4aa 21bc a5be 6cbc 8702 84bc
00000310: ed26 39bc d876 0d3c 1a14 6e3b d558 83bb
00000320: 0274 f93c e640 d13b 3fc6 943b 988d 243c
00000330: 9918 983c c40f 9dba ea21 8fbb 2bdc 9ebc
00000340: d630 073c 99a8 17bc dd0e af3c eea9 4bb9
00000350: 6732 603b d6b7 2c3b fff9 663b 1b98 5fbc
00000360: bf03 a43a da16 953c 3046 a33c 68d7 fa3c
00000370: a347 0a3d 7925 d43c 8caf 72bc 78df c8bc
00000380: 7170 f9bc bf05 523b 9af2 9638 70a3 afbc
00000390: 966e c13c 99d2 b13b 9a39 ca3c 0807 6d3c
000003a0: 1941 d839 c586 aa3c 24f0 28ba e1ce 41bc
000003b0: 051d cdbb 595a 033c 8b82 9fbb ca5f 573c
000003c0: ce7e 9f3c 7f35 1fb9 0341 27bc cd79 bfbc
000003d0: 5a6e 86bc f8b3 b4b9 a7f3 503a f02a 693c
000003e0: f60a 7dbc 3dc9 85bc a792 033c 188c 4bbb
000003f0: 5db9 873c 5ea9 263d 5ac3 1cbc df07 8abc
0.086015016 -0.034853116 0.012475509 -0.03718227 -0.05632662 0.01563265 -0.06515075 -0.012032486
-0.07010686 -0.049165107 0.013340922 -0.0077178245 0.0017981747 -0.035829946 -0.019064466 0.0052756933
0.061852764 -0.011624676 0.0060033044 0.025754275 -0.058568086 -0.0013458466 0.026694175 0.017875748
-0.068219304 0.005540088 -0.030707324 0.017391402 0.04777853 0.018618483 -0.015838986 0.00096608483
0.02132187 -0.037601657 0.010181814 0.03482308 0.0003744047 0.017348992 0.0018261521 0.017101256
-0.06834571 -0.046572376 0.06572204 0.061454214 -0.0004792178 -0.039194915 0.0667703 0.040429752
0.03265234 0.058871124 -0.056354932 0.07410389 -0.001521105 -0.052953757 -0.04532909 0.015970828
0.013833724 -0.008563663 0.00094994146 0.07745334 -0.08822282 0.0687077 0.030693322 0.08005986
-0.030191023 0.009216163 0.039671853 -0.06734568 0.020437539 -0.018922554 0.02030086 0.053161643
-0.057509243 -0.016826972 0.023276115 -0.018850615 -0.02810502 0.036592804 -0.01667478 -0.028563052
-0.044528764 -0.030649887 -0.06662364 -0.05092158 0.0562947 -0.060544204 0.007605181 -0.047829445
0.046826486 -0.042729594 -0.013075978 0.04051956 -0.030662319 0.06587961 -0.0077260756 -0.06946508
0.060311317 -0.0059153037 -0.0058396473 0.030775638 -0.04965703 -0.03160345 -0.036905188 0.038693056
-0.0046616686 -0.026863951 -0.0148995025 -0.007330819 -0.03765125 0.02384583 0.029357087 -0.0532
0.039385587 3.1227682e-05 0.06156176 0.05158567 0.051656224 0.07130585 -0.048906013 0.046238687
0.06848857 -0.010715757 -0.037388217 0.0019761936 0.008244142 -0.038659815 0.07394574 0.069106065
0.07693936 -0.040003877 0.07044367 0.030464293 0.02077541 0.07256009 0.08079016 0.025566721
-0.039404895 -0.026858278 -0.056362 0.022153646 -0.07918133 -0.017038424 -0.023985576 -0.0573436
-0.05089652 -0.05745104 0.0059975586 0.05432865 -0.07332227 0.03290388 0.067179196 0.03890573
0.03150214 -0.058763877 0.047032584 -0.016277088 0.03225185 -0.054257788 -0.06675429 -0.020444177
0.05530939 -0.009559742 -0.0671432 -0.021959126 -0.059042607 -0.04203374 -0.0648124 0.044412535
0.064457685 0.028833862 -0.021910222 0.0108596925 -0.033707153 -0.046574224 -0.019019186 -0.00082632847
0.062238578 -0.020580713 0.07771981 0.049820095 0.0506017 -0.024293032 0.030292472 0.034936193
0.011319919 0.04685549 -0.034567263 0.011451826 -0.021628918 -0.067332126 0.0040028854 0.04770218
0.019408142 -0.009867359 -0.01444975 -0.016114486 -0.011300785 0.008634292 0.00363279 -0.0040083923
0.030450825 0.0063859103 0.0045402343 0.010043524 0.018566417 -0.0011982848 -0.0043680565 -0.019392094
0.0082513895 -0.009256505 0.021369392 -0.00019422892 0.003420973 0.0026354692 0.0035244224 -0.013647105
0.0012513323 0.018199373 0.019930929 0.030620292 0.033759724 0.025896775 -0.014812361 -0.02452062
-0.030449124 0.0032046882 7.1977454e-05 -0.021440238 0.023612302 0.0054267165 0.02468567 0.014467008
0.00041247232 0.020816216 -0.0006444475 -0.011829109 -0.006259563 0.008017146 -0.004867857 0.0131453965
0.019469645 -0.0001518335 -0.010208371 -0.023373509 -0.016410042 -0.00034466363 0.00079708773 0.0142314285
-0.015444508 -0.01633131 0.00803057 -0.0031058844 0.01656788 0.040688865 -0.00956806 -0.016849456

embedding.embedding_network.8.bias f4 [5]
00000000: b783 3fbc 46e8 d9bd 81f3 923d 64d2 86bd
00000010: 6272 c73d
-0.011689118 -0.10640006 0.07175351 -0.065830976 0.09738614

exp_avg f4 [5, 5]
00000000: 0000 0000 0000 0000 0000 0000 0000 0000
00000010: 0000 0000 0000 0000 0000 0000 0000 0000
00000020: 0000 0000 0000 0000 0000 0000 0000 0000
00000030: 0000 0000 0000 0000 0000 0000 0000 0000
00000040: 0000 0000 0000 0000 0000 0000 0000 0000
00000050: 0000 0000 0000 0000 0000 0000 0000 0000
00000060: 0000 0000
0.0 0.0 0.0 0.0 0.0 0.0 0.0 0.0
0.0 0.0 0.0 0.0 0.0 0.0 0.0 0.0
0.0 0.0 0.0 0.0 0.0 0.0 0.0 0.0
0.0

exp_avg_sq f4 [5, 5]
00000000: 0000 0000 0000 0000 0000 0000 0000 0000
00000010: 0000 0000 0000 0000 0000 0000 0000 0000
00000020: 0000 0000 0000 0000 0000 0000 0000 0000
00000030: 0000 0000 0000 0000 0000 0000 0000 0000
00000040: 0000 0000 0000 0000 0000 0000 0000 0000
00000050: 0000 0000 0000 0000 0000 0000 0000 0000
00000060: 0000 0000
0.0 0.0 0.0 0.0 0.0 0.0 0.0 0.0
0.0 0.0 0.0 0.0 0.0 0.0 0.0 0.0
0.0 0.0 0.0 0.0 0.0 0.0 0.0 0.0
0.0
