results/checkpoints/model_epoch_5_step_315.pt (torch, 208486 bytes, 37 tensors)

embedding.metric f4 [5, 5]
0	0xbf800000	-1.0
1	0x00000000	0.0
2	0x00000000	0.0
3	0x00000000	0.0
4	0x00000000	0.0
5	0x00000000	0.0
6	0x3f800000	1.0
7	0x00000000	0.0
8	0x00000000	0.0
9	0x00000000	0.0
10	0x00000000	0.0
11	0x00000000	0.0
12	0x3f800000	1.0
13	0x00000000	0.0
14	0x00000000	0.0
15	0x00000000	0.0
16	0x00000000	0.0
17	0x00000000	0.0
18	0x3f800000	1.0
19	0x00000000	0.0
20	0x00000000	0.0
21	0x00000000	0.0
22	0x00000000	0.0
23	0x00000000	0.0
24	0x3f800000	1.0

embedding.embedding_network.0.weight f4 [128, 55]
0	0xbd8838be	-0.06651448
1	0xbe1a779b	-0.15084688
2	0x3d4e7d53	0.050412487
3	0x3ba868c0	0.0051394403
4	0xbd46f4ac	-0.04857318
5	0xbdb65d05	-0.08904461
6	0xbe05867d	-0.13039584
7	0x3d1e7304	0.038683906
8	0x3d1e90d9	0.038712356
9	0x3cbc8878	0.023014292
10	0x3d5e0544	0.05420424
11	0xbd7bdab0	-0.061487854
12	0x3e129a89	0.14316763
13	0x3d90eb55	0.07076136
14	0xbdcf40ed	-0.101198055
15	0xbd63182e	-0.05544298
16	0x3bcd3f8f	0.0062636803
17	0x3d33965b	0.043844562
18	0xbc596992	-0.013269799
19	0xbdabf1fa	-0.08395763
20	0xbdbf19e5	-0.09331111
21	0xbdc1f8ea	-0.09471305
22	0x3cb70e07	0.022345556
23	0x3d65da79	0.056116555
24	0x3d5b6798	0.05356559
25	0xbdbbbb67	-0.091666035
26	0x3de337ef	0.11094653
27	0xbdb70262	-0.08936001
28	0x3df2b7a3	0.11851432
29	0xbdd88f5d	-0.105742194
30	0x3dd7bfb7	0.105346136
31	0x3b96c1f1	0.0046007563
32	0xbc04428e	-0.0080725085
33	0xbd05c46c	-0.032658026
34	0x3b559afa	0.0032593594
35	0xbd0fe5d6	-0.035131298
36	0xbcd51c51	-0.026014479
37	0xbd1712e5	-0.036883254
38	0x3cc3e6ea	0.02391382
39	0x3c777dc2	0.015105667
40	0xbda910c9	-0.08255155
41	0x3d82bf46	0.06384139
42	0xbccbf858	-0.024898693
43	0xbd709aea	-0.058741488
44	0x3ddb4250	0.107060075
45	0xbdd97bcd	-0.10619316
46	0x3d32fab2	0.043696113
47	0x3cc7518a	0.024330873
48	0x3d96ec74	0.073693186
49	0x3c58138d	0.013188255
50	0xbd724b8c	-0.05915408
51	0xbdb645c9	-0.08900029
52	0xbc1b2c66	-0.009471035
53	0x3dc03777	0.09385579
54	0xbc8a60c6	-0.016891848
55	0x3d7f2d14	0.06229885
56	0x3e0be1b1	0.13660313
57	0xbde0989a	-0.109666064
58	0xbc95727a	-0.018243063
59	0xbd22c8e2	-0.039742358
60	0xbc40c19a	-0.011764908
61	0x3d9e5456	0.077309296
62	0x3bbdf062	0.005796478
63	0xbdb842c1	-0.08997107
64	0xbdcc2c18	-0.09969348
65	0xbe002125	-0.12512644
66	0xbcd82f7d	-0.026389832
67	0xbdfe310d	-0.124116994
68	0xbd11ffa2	-0.03564418
69	0x3d9a4bc6	0.07533984
70	0x3cb83bb6	0.02248941
71	0xbdae0325	-0.084966935
72	0x3d360b63	0.044444453
73	0x3dc4ad88	0.09603411
74	0xbcdbfff6	-0.02685545
75	0xbde4a64f	-0.11164533
76	0x3e13a4e8	0.14418375
77	0x3ddd5db6	0.108088896
78	0xbd9f519e	-0.07779239
79	0xbd91d5ab	-0.07120832
80	0xbc417b0f	-0.011809125
81	0xbd6af3de	-0.057361476
82	0xbc797128	-0.015224732
83	0xbd9dd527	-0.07706671
84	0xbcc84925	-0.02444894
85	0x3da7a0ec	0.0818499
86	0xbd469254	-0.048479393
87	0x3d085d8b	0.033292335
88	0xbce583eb	-0.028017005
89	0x3dd34be8	0.10317212
90	0x3d3b12da	0.045672275
91	0xbc4f07b3	-0.012636113
92	0x3cd18085	0.025573978
93	0x3d61ef1e	0.05515968
94	0xbdd6822b	-0.10474046
95	0xbd4e4edf	-0.050368186
96	0xbcb28002	-0.021789555
97	0x3def4891	0.11683763
98	0x3cc63426	0.024194788
99	0x3d36c842	0.044624574
100	0xbe16e3ec	-0.14735383
101	0xbd395714	-0.04524906
102	0x3cfe4f94	0.031043805
103	0x3c93145e	0.017954048
104	0xbd727891	-0.059197012
105	0xbdd1ccaf	-0.102441184
106	0xbdb90952	-0.09034981
107	0xbda798e9	-0.08183462
108	0x3cf418d1	0.02979699
109	0xbd842221	-0.06451822
110	0xbe09e6e6	-0.13466987
111	0xbd738f14	-0.05946262
112	0xbd688053	-0.056763005
113	0x3dde99cf	0.108691804
114	0x3e00073e	0.12502763
115	0xbd5c6e7a	-0.053816296
116	0x3d3874f5	0.045033414
117	0x3c5700ba	0.013122732
118	0x3dbf5202	0.093418136
119	0x3d1739b3	0.03692026
120	0xbd9d804d	-0.07690487
121	0x3dd138a9	0.10215885
122	0x3d6e7c47	0.05822399
123	0x3cca6635	0.02470694
124	0xbdd8fa74	-0.10594645
125	0x3e0828b8	0.13296783
126	0x3d3bae50	0.045820534
127	0x3bf04b8c	0.0073332246
128	0x3e079bc4	0.13243014
129	0xbb9eee44	-0.004850181
130	0xbe0394e7	-0.1284977
131	0xbd240b4e	-0.040049843
132	0xbd6bf529	-0.05760685
133	0xbcdd74fa	-0.027033318
134	0xbdb43729	-0.087995835
135	0x3dfa2497	0.1221401
136	0xbda2868a	-0.079358175
137	0xbdb88c90	-0.09011185
138	0x3dc93cc9	0.09826047
139	0xbd7978d2	-0.06090624
140	0xbcd282e7	-0.025697185
141	0xbcb4ba3e	-0.022061463
142	0x3dfef00c	0.12448129
143	0xbd74ad83	-0.059735786
144	0x3c0bb486	0.008526927
145	0xbc92f903	-0.017941004
146	0xbcf1269d	-0.029437358
147	0x3c1cb696	0.009565016
148	0xbdbfed9a	-0.09371491
149	0xbdea5533	-0.11442032
150	0xbd3b4cb0	-0.04572743
151	0xbc7378a4	-0.014860306
152	0x3cc3df0d	0.02391007
153	0xbcbf355a	-0.02334087
154	0x3dcb0973	0.09913912
155	0x3d665c1e	0.056240194
156	0xbd59df61	-0.053191546
157	0xbdc054a5	-0.09391145
158	0x3e099903	0.13437276
159	0xbd8e16fc	-0.06937978
160	0x3e03f881	0.12887765
161	0xbdb8e94e	-0.09028874
162	0x3d5631ea	0.052293696
163	0xbb516d22	-0.0031955917
164	0x3de5dae7	0.11223393
165	0xbcf775e8	-0.03020759
166	0x3c893d61	0.0167529
167	0xbe1f8151	-0.15576674
168	0x3da9a08e	0.082825765
169	0xbdaeac72	-0.08528985
170	0x3cd58477	0.02606414
171	0x3da05c97	0.0783016
172	0x3c7706e5	0.015077327
173	0x3de0cf0a	0.109769896
174	0xbdb611ce	-0.08890115
175	0xbd8d2f31	-0.06893767
176	0x3c273486	0.010205394
177	0xbc25f37a	-0.01012885
178	0xbcab15db	-0.020884445
179	0x3c7e9521	0.015538485
180	0x3dbe8956	0.093035385
181	0x3dd34aac	0.10316977
182	0x3c284335	0.01026993
183	0x3dc34ca4	0.095361024
184	0x3bd7bef1	0.0065840413
185	0xbe08f4c9	-0.13374628
186	0x3d6feacf	0.05857354
187	0x3df72537	0.12067645
188	0x3bd20bb9	0.006410089
189	0x3da6d17c	0.08145425
190	0x3ca12e84	0.0196755
191	0x3da3ce37	0.07998317
192	0xbd88c82b	-0.06678804
193	0xbdea3329	-0.11435539
194	0x3b270784	0.0025486657
195	0xbde78d38	-0.11306232
196	0x3dd8fc7f	0.10595035
197	0x3ba74195	0.0051042535
198	0x3dd23282	0.1026354
199	0x3d37cd84	0.04487373
200	0x3cd5ff92	0.026122842
201	0xbda03a30	-0.078235984
202	0x3def3844	0.11680654
203	0xbcc6fdd3	-0.024290955
204	0x3d80fb66	0.062979504
205	0xbd6bf8cc	-0.057610318
206	0x3dd7ba11	0.10533536
207	0x3dd0a79b	0.10188218
208	0x3d1df032	0.038559146
209	0xbcd4cc21	-0.025976242
210	0xbb289943	-0.0025726117
211	0xbde9872b	-0.11402734
212	0xbd20e1fa	-0.039278008
213	0xbcdb346a	-0.026758391
214	0xbdabfab8	-0.0839743
215	0xbcafe532	-0.021471594
216	0xbc617757	-0.013761363
217	0xbdb7a5d0	-0.08967173
218	0xbdabb1a4	-0.08383492
219	0x3e0d473c	0.13796705
220	0xbd2e2436	-0.042515002
221	0x3d9309b6	0.071795866
222	0xbd97d141	-0.07412959
223	0xbdbf861e	-0.09351753
224	0x3dced8aa	0.10099919
225	0x3dda97cc	0.10673484
226	0x3d3349fa	0.04377172
227	0xbdd753b3	-0.10514011
228	0x3dfd22d0	0.123601556
229	0xbc7a59ad	-0.015280169
230	0x3e034dc8	0.1282264
231	0xb9eb002c	-0.0004482282
232	0x3ddabdf5	0.10680763
233	0xbd702534	-0.05862923
234	0x3d2012c4	0.039080396
235	0x3d7c7218	0.061632246
236	0xbdc041b3	-0.09387531
237	0x3dfbe6bd	0.12299869
238	0x3e132d7f	0.14372824
239	0xbdb4bd33	-0.088251494
240	0xbdd7309c	-0.105073184
241	0x3df2f337	0.11862796
242	0xbdae9e07	-0.08526235
243	0x3d825a77	0.06364911
244	0x3e047ede	0.12939021
245	0x3cb8f600	0.02257824
246	0xbd8cdc9b	-0.06878015
247	0x3c0d45bf	0.008622586
248	0x3dc6ef7e	0.09713648
249	0x3d8f2fc7	0.06991535
250	0x3dd5ea35	0.10445062
251	0xbdb66b88	-0.08907229
252	0xbcf119c8	-0.029431239
253	0x3e058c61	0.13041832
254	0x3d09d6f6	0.03365227
255	0xbdf16315	-0.117864765

embedding.embedding_network.0.bias f4 [128]
0	0x38a9b99f	8.0931226e-05
1	0xb7df911e	-2.6651247e-05
2	0x382eda45	4.1688112e-05
3	0xb88ac9b7	-6.617925e-05
4	0x385ff13a	5.3392003e-05
5	0x3890d4e2	6.9061076e-05
6	0xb8e79072	-0.000110418434
7	0xb75f0abd	-1.3294336e-05
8	0xb7dedb12	-2.6566475e-05
9	0xb902d24d	-0.00012476109
10	0xb7f42e64	-2.9108669e-05
11	0x3705e923	7.981699e-06
12	0x3a8015c0	0.0009772107
13	0xb910d418	-0.00013811921
14	0x3904f645	0.00012680244
15	0x3a4ad23e	0.0007737017
16	0xb8269258	-3.9713777e-05
17	0xb912d377	-0.00014002422
18	0x38847e5a	6.317785e-05
19	0x3848f55e	4.7912232e-05
20	0xba35d518	-0.00069363555
21	0x374f542e	1.2357761e-05
22	0x36e5f37a	6.8530762e-06
23	0x37a5250b	1.9686782e-05
24	0x39a04dd9	0.0003057558
25	0xb8296ea1	-4.039577e-05
26	0x374adb10	1.2091143e-05
27	0xb8c5581e	-9.410105e-05
28	0xb8eb4bda	-0.00011219802
29	0xba22dec8	-0.00062130066
30	0xb87bbe16	-6.0020095e-05
31	0x382067dc	3.82437e-05
32	0xba66827c	-0.00087932474
33	0xb7d991f6	-2.5936384e-05
34	0xb7a999ac	-2.0217929e-05
35	0xba8f884f	-0.0010950657
36	0xb93c280b	-0.00017943994
37	0x368822f2	4.057184e-06
38	0xb858ecfc	-5.1719122e-05
39	0xb8a8d16b	-8.0498714e-05
40	0xb92cdc29	-0.00016485214
41	0xb81620da	-3.5793382e-05
42	0xba30ccab	-0.0006744365
43	0x37604c2f	1.3369178e-05
44	0x3ab4e766	0.0013801872
45	0xb85e209c	-5.2959294e-05
46	0xb8464a1b	-4.7275895e-05
47	0x37f9a261	2.9758727e-05
48	0xb7d020ec	-2.4810863e-05
49	0xb601d7f9	-1.934821e-06
50	0xb74c6364	-1.2182489e-05
51	0x3877d5ba	5.9088437e-05
52	0x380c84e5	3.350237e-05
53	0x3a2c737d	0.00065784884
54	0x3808d6ce	3.262498e-05
55	0xb7f4dd11	-2.9190009e-05
56	0x394c77ee	0.00019499633
57	0x38634dd3	5.4193497e-05
58	0x3a1301ff	0.00056079024
59	0xba8e2059	-0.0010843381
60	0xb8bde86a	-9.055513e-05
61	0x38fd7c8f	0.00012087181
62	0xb6cde94c	-6.1366354e-06
63	0x38085c73	3.2511027e-05
64	0x389c6717	7.457862e-05
65	0x394d5d6d	0.00019585127
66	0xb8bd7eca	-9.0358386e-05
67	0x38a7fb47	8.0099846e-05
68	0xb8072e82	-3.2229822e-05
69	0x3a56f309	0.0008199667
70	0xb8776141	-5.8979964e-05
71	0xb70a1a76	-8.231602e-06
72	0x37306b2f	1.0515373e-05
73	0x3a0a4c17	0.00052756205
74	0xb821c658	-3.8570113e-05
75	0xb65f721e	-3.3296014e-06
76	0xb88bf87e	-6.674322e-05
77	0xb987dc8e	-0.00025913533
78	0x38a33289	7.7818586e-05
79	0xb90c9621	-0.00013407368
80	0x37bf10fa	2.277688e-05
81	0xb87bdcb8	-6.0048624e-05
82	0x38299185	4.0428265e-05
83	0x37510163	1.2457694e-05
84	0xb3348d80	-4.203821e-08
85	0xb7e221cf	-2.6957043e-05
86	0x37961e3a	1.7895469e-05
87	0xb77457cc	-1.4563975e-05
88	0x372b9a76	1.02283575e-05
89	0x3826dd74	3.978373e-05
90	0xba01f973	-0.00049581303
91	0x399b40e6	0.00029612257
92	0x37291b70	1.0079573e-05
93	0x38875bad	6.4543776e-05
94	0xb75f6f58	-1.331776e-05
95	0x38371daa	4.3658227e-05
96	0x382a00f3	4.0532042e-05
97	0xb8a646a2	-7.928653e-05
98	0x3903df91	0.00012576419
99	0x35937da6	1.0988922e-06
100	0xb81a0616	-3.672213e-05
101	0x3836a5f5	4.354674e-05
102	0x37e639a6	2.7444981e-05
103	0x38748b09	5.830362e-05
104	0xb7b067d8	-2.1029191e-05
105	0xb740243d	-1.1452529e-05
106	0xb8bff38a	-9.1529524e-05
107	0x3a6d9704	0.00090633356
108	0x37d048d6	2.482945e-05
109	0x377dd32e	1.5129144e-05
110	0xba1ab231	-0.00059011864
111	0x39bf7416	0.0003651685
112	0xb8e649ac	-0.00010980977
113	0x38e09b98	0.00010710134
114	0xb801cc1f	-3.09461e-05
115	0xb742166a	-1.156852e-05
116	0xb80681a9	-3.2068845e-05
117	0xb7522b34	-1.2527034e-05
118	0x39123efe	0.00013947111
119	0xb7b8b8a8	-2.2020497e-05
120	0xb82be6ae	-4.0984414e-05
121	0xb8eb4e44	-0.00011220251
122	0x384d7426	4.898398e-05
123	0x38f25d2e	0.00011556815
124	0x37f0dce7	2.8713095e-05
125	0x386022a7	5.3438034e-05
126	0x393175ea	0.00016923962
127	0x37916ec9	1.7336935e-05

embedding.embedding_network.1.weight f4 [128]
0	0x3f818832	1.0119689
1	0x3f8326ac	1.0246177
2	0x3f7e6fe1	0.99389464
3	0x3f79bcfd	0.97554
4	0x3f768913	0.9630291
5	0x3f7e5ab6	0.99357164
6	0x3f7f2364	0.99663377
7	0x3f805dda	1.0028641
8	0x3f80ae74	1.0053239
9	0x3f82da6d	1.0222908
10	0x3f7c90b3	0.98658293
11	0x3f80b82f	1.0056208
12	0x3f7d7d02	0.9901887
13	0x3f80de9e	1.0067937
14	0x3f78dfad	0.972163
15	0x3f814f87	1.0102395
16	0x3f7b218c	0.98098063
17	0x3f8105d1	1.00799
18	0x3f7e69bf	0.99380106
19	0x3f805a8e	1.0027635
20	0x3f7acfca	0.9797331
21	0x3f7cf2a5	0.98807746
22	0x3f7c2648	0.9849591
23	0x3f7f8595	0.99813205
24	0x3f82b874	1.0212541
25	0x3f818882	1.0119784
26	0x3f79588d	0.9740074
27	0x3f803340	1.001564
28	0x3f7e88fb	0.99427766
29	0x3f7cea2f	0.98794836
30	0x3f807afe	1.0037534
31	0x3f7e1b73	0.99260634
32	0x3f8142ec	1.0098548
33	0x3f7bdea1	0.9838658
34	0x3f830f5a	1.023906
35	0x3f7dcd34	0.9914124
36	0x3f813157	1.0093182
37	0x3f82eb83	1.0228122
38	0x3f7926c4	0.97324777
39	0x3f7c626a	0.9858767
40	0x3f834735	1.0256106
41	0x3f8186e4	1.011929
42	0x3f7a22d2	0.9770938
43	0x3f84c087	1.0371255
44	0x3f805e0e	1.0028703
45	0x3f8232d5	1.0171763
46	0x3f7e7c31	0.9940825
47	0x3f827cfd	1.0194393
48	0x3f7dd58e	0.99153984
49	0x3f804f99	1.0024291
50	0x3f80b443	1.0055012
51	0x3f80cb80	1.0062103
52	0x3f815713	1.0104698
53	0x3f7f2600	0.9966736
54	0x3f7aa46b	0.9790713
55	0x3f7c5a36	0.9857515
56	0x3f78f797	0.9725279
57	0x3f7a7305	0.97831756
58	0x3f79f9d7	0.9764685
59	0x3f7e7b49	0.9940687
60	0x3f800abb	1.0003275
61	0x3f7cbe4b	0.98727864
62	0x3f8050c8	1.0024652
63	0x3f7ec330	0.9951658
64	0x3f7d5a66	0.9896606
65	0x3f7e09a4	0.9923346
66	0x3f802931	1.0012571
67	0x3f7c9a16	0.98672616
68	0x3f81fc87	1.015519
69	0x3f818617	1.0119046
70	0x3f840970	1.031538
71	0x3f810fd1	1.0082952
72	0x3f8171e2	1.0112879
73	0x3f7fe473	0.9995796
74	0x3f7e6633	0.99374694
75	0x3f788290	0.9707422
76	0x3f80be9b	1.0058168
77	0x3f76b676	0.96372163
78	0x3f81234a	1.0088894
79	0x3f82ef39	1.0229255
80	0x3f809d88	1.0048075
81	0x3f7f1715	0.99644595
82	0x3f836c1f	1.0267371
83	0x3f81a9fd	1.0130001
84	0x3f81eeea	1.0151036
85	0x3f7b95cb	0.9827544
86	0x3f807980	1.0037079
87	0x3f7ad25d	0.9797724
88	0x3f7770a5	0.96656257
89	0x3f8090a6	1.0044143
90	0x3f815475	1.0103899
91	0x3f872564	1.0558286
92	0x3f7fade4	0.9987471
93	0x3f81e9f2	1.014952
94	0x3f77804c	0.9668014
95	0x3f8014b6	1.000632
96	0x3f820713	1.0158409
97	0x3f82b4a6	1.021138
98	0x3f7d008a	0.9882895
99	0x3f841b7f	1.0320891
100	0x3f755495	0.95832187
101	0x3f7d09ce	0.98843086
102	0x3f811bbf	1.0086592
103	0x3f7d4ac1	0.9894219
104	0x3f80ec42	1.00721
105	0x3f7d2148	0.9887891
106	0x3f7f14b7	0.99640983
107	0x3f808b99	1.0042602
108	0x3f7b0ae5	0.980635
109	0x3f819f26	1.0126693
110	0x3f8093c7	1.0045098
111	0x3f7cc9c1	0.9874535
112	0x3f810636	1.008002
113	0x3f7f7dfe	0.99801624
114	0x3f7d16cd	0.98862916
115	0x3f7da514	0.99080014
116	0x3f7add93	0.97994345
117	0x3f851b11	1.0398885
118	0x3f7ef547	0.99593014
119	0x3f80961a	1.0045807
120	0x3f823c61	1.0174676
121	0x3f7b3e8a	0.981423
122	0x3f7e8b6e	0.994315
123	0x3f81851e	1.0118749
124	0x3f7da9eb	0.990874
125	0x3f7e670f	0.99376005
126	0x3f801c42	1.0008624
127	0x3f83db2b	1.030126

embedding.embedding_network.1.bias f4 [128]
0	0x3cb95fc1	0.022628667
1	0x3cb01e3e	0.021498796
2	0x3b5e7fa0	0.0033950582
3	0xbcaffeb6	-0.02148376
4	0xbcb9fd7a	-0.022703875
5	0xbbf5fbab	-0.007506808
6	0x3bc112d3	0.0058921366
7	0x3c3d1e3d	0.011542854
8	0x3b84b1f8	0.004049536
9	0x3cee9556	0.029123943
10	0xbbff001e	-0.0077819964
11	0x3c832604	0.016009338
12	0x3c0cc6e8	0.008592345
13	0x3cb8037a	0.022462595
14	0xbd0614d2	-0.0327347
15	0x3c7271ef	0.014797672
16	0xbba0836c	-0.004898479
17	0x3bc9441e	0.0061421534
18	0x3c28e7d5	0.010309179
19	0x3c95516b	0.0182273
20	0xbc8511f1	-0.016243907
21	0x3a284b3f	0.0006419904
22	0xbc89509d	-0.016762072
23	0x3bc06b0f	0.0058721374
24	0x3cca42f3	0.024690127
25	0x3c8fdae1	0.017560424
26	0xbca08c95	-0.019598285
27	0x3c67ebac	0.01415531
28	0x3c461297	0.012089393
29	0xbc28e717	-0.010309002
30	0x3baf06b2	0.0053413743
31	0xbbc4d8bc	-0.006007282
32	0x3cc63a61	0.02419776
33	0x3c57d4ed	0.013173324
34	0x3c500045	0.012695377
35	0xbb063e83	-0.0020484037
36	0x3cf33946	0.029690396
37	0x3cf3799b	0.029721072
38	0xbc9fb0aa	-0.01949342
39	0xbc9df681	-0.019282581
40	0x3cd82cda	0.026388574
41	0x3c551c91	0.013007299
42	0xbc6d13f3	-0.014470088
43	0x3d0283f8	0.031864136
44	0xbc2ea0ff	-0.010658502
45	0x3d0697f5	0.03285976
46	0xbb1e4343	-0.0024148978
47	0x3d10f3ee	0.03538888
48	0x3c2a8be5	0.01040933
49	0x3bafd443	0.0053658797
50	0x3c8c4564	0.017122932
51	0x3b19703c	0.0023412844
52	0x3c07088c	0.008241784
53	0x3c0aebd1	0.008479075
54	0xbc762212	-0.015022771
55	0xbbee9c65	-0.0072818273
56	0xbcaf8427	-0.02142532
57	0xbcadf056	-0.021232765
58	0xba955aaf	-0.0011394824
59	0x3c988a53	0.018620646
60	0x3b971572	0.004610711
61	0xbc84a67b	-0.016192665
62	0x3c7aeb99	0.01531496
63	0xbbc57afb	-0.0060266233
64	0xbbd4bac7	-0.006491992
65	0xbb84d421	-0.004053608
66	0x3ad478be	0.00162103
67	0xbc917979	-0.017758118
68	0x3cd9de10	0.026595145
69	0x3c9f64e6	0.019457292
70	0x3d0dc2f7	0.03460976
71	0xbab97d6b	-0.0014151757
72	0x3c7ee39f	0.015557199
73	0x3cc054f3	0.023478007
74	0x3cac7fd1	0.021057041
75	0xbca40426	-0.02002151
76	0x3c8720e7	0.016495181
77	0xbd1af460	-0.03783071
78	0x3bace086	0.0052757887
79	0x3d04a029	0.032379303
80	0xb8c9ff62	-9.6319956e-05
81	0xbab2951a	-0.0013624758
82	0x3cee3d4f	0.029081969
83	0x3c53c03a	0.012924248
84	0x3c1063f8	0.008812897
85	0xba828e8b	-0.0009960694
86	0x3d028fd6	0.031875454
87	0xbc9a6969	-0.018849092
88	0xbcbe920a	-0.023262996
89	0x3c3d5670	0.011556253
90	0x3c257570	0.0100988
91	0x3d742c14	0.05961235
92	0x3c816e64	0.015799709
93	0x3d13ef29	0.036116753
94	0xbcdfa51d	-0.027300412
95	0x3bb8427a	0.005623159
96	0x3cf6d0c0	0.030128837
97	0x3d2b7486	0.041859172
98	0xbb33f7e7	-0.0027460994
99	0x3d0b6c43	0.034038793
100	0xbd4c9c6e	-0.04995387
101	0x3bd773b0	0.0065750703
102	0x3ba9ef44	0.0051859934
103	0x3b144842	0.0022626077
104	0x3c9dbee9	0.019256072
105	0x3a6f9f64	0.00091408775
106	0x3bde743a	0.0067887576
107	0x3cae5753	0.021281874
108	0xbc092417	-0.008370421
109	0x3caace5f	0.020850359
110	0x3bdae6c6	0.0066803424
111	0x3c2de787	0.010614282
112	0x3ca88e52	0.020575676
113	0x3ca14d97	0.019690318
114	0xbc287de1	-0.010283918
115	0xbc0e709e	-0.008693842
116	0xbcdcef9a	-0.02696972
117	0x3d528040	0.05139184
118	0x3c068936	0.008211425
119	0x3cbda204	0.023148544
120	0x3bf8be55	0.0075910487
121	0x3b22209b	0.0024738673
122	0x3ccce3dc	0.025010996
123	0x3cd1c9ae	0.025608864
124	0x3bb259ff	0.0054428573
125	0xbb78f34f	-0.003798682
126	0xbbeeacf8	-0.007283803
127	0x3d021b6f	0.031764444

embedding.embedding_network.1.running_mean f4 [128]
0	0x3b8fac5a	0.0043845596
1	0xbc0f6c9c	-0.008753922
2	0x3c375e20	0.011191875
3	0xbbc86170	-0.006115131
4	0x3a8dbd8e	0.0010813938
5	0xbb7fa0d1	-0.0039005766
6	0x3a503dbf	0.0007943771
7	0xbc0b4f9c	-0.008502867
8	0xbb8e9b8c	-0.0043520387
9	0xbb138426	-0.0022509187
10	0xbbca160b	-0.0061671785
11	0x3bb9ba2a	0.0056679444
12	0x3a70f37e	0.00091915566
13	0x3c0dd950	0.008657768
14	0xbb5e1613	-0.003388767
15	0xbb84c524	-0.0040518213
16	0x3ba36132	0.004985952
17	0xbc3b4f11	-0.011432425
18	0xbb5961ca	-0.003316986
19	0xbc325da2	-0.010886582
20	0x3bbab17a	0.0056974264
21	0xbc318d2c	-0.010836881
22	0x3c108113	0.008819836
23	0x3af42eb3	0.001862964
24	0x3c165e36	0.009177735
25	0xbc437c86	-0.011931544
26	0x3b900693	0.004395315
27	0xbb7a8079	-0.0038223548
28	0xbbad0dd5	-0.00528119
29	0xbb16a2e1	-0.0022985267
30	0x3b8d0628	0.0043037124
31	0x3b14d43c	0.002270951
32	0xbc10b718	-0.008832715
33	0x3b71a8de	0.0036874334
34	0x3ba70a0a	0.0050976323
35	0xbbf9519e	-0.0076086065
36	0x3c857700	0.016292095
37	0x3b97880a	0.0046243714
38	0x3ac9da3a	0.001540012
39	0xba49d3f7	-0.0007699127
40	0x3b2106b0	0.0024570636
41	0xbb0ac36f	-0.0021173616
42	0x3c2d9dbc	0.010596689
43	0xbbedf353	-0.0072616725
44	0x3ab61b44	0.0013893624
45	0xbc2f2400	-0.010689735
46	0xbb634458	-0.0034678187
47	0x3bf55344	0.0074867327
48	0x3bc6efda	0.006071073
49	0xbb867f40	-0.004104525
50	0x3c05ebf8	0.008173935
51	0xbc579168	-0.013157226
52	0x3bc08641	0.0058753793
53	0x3bdb7be0	0.0066981167
54	0xbb377226	-0.0027991622
55	0x3c2ef04f	0.010677411
56	0xbbddcf2c	-0.0067690816
57	0xbb1d15ec	-0.0023969365
58	0x3c4a9447	0.012364454
59	0xbadb3595	-0.0016724343
60	0xbb969d78	-0.0045964085
61	0x3bfbb7be	0.007681816
62	0xbc1188a7	-0.008882678
63	0xbb9a4195	-0.004707525
64	0xbb4f8af3	-0.0031668514
65	0x3baca203	0.0052683367
66	0xbc044b66	-0.008074617
67	0xbaaa1092	-0.0012974909
68	0x3c7655fb	0.015035148
69	0x3c118837	0.008882574
70	0x3c42c9eb	0.011888961
71	0x3a5e6904	0.00084842765
72	0x3c15cb3c	0.009142693
73	0x3b9cc3dc	0.0047840904
74	0xb93b629b	-0.00017870443
75	0x3c0bb5f2	0.008527266
76	0x3b4cb335	0.0031234745
77	0x3994475b	0.00028281924
78	0x3bd73fe8	0.0065688975
79	0x3c12214f	0.008919074
80	0xbb4bd4df	-0.0031102223
81	0xbc144593	-0.009049791
82	0xbb4f286b	-0.0031609784
83	0x3c324f91	0.010883228
84	0xbb355fc3	-0.0027675487
85	0xbba69950	-0.0050841942
86	0xba5f9146	-0.00085284223
87	0x3be94997	0.0071193683
88	0xbbbe7465	-0.005812215
89	0xbb8ef759	-0.004362982
90	0x3ae9d13e	0.0017838848
91	0x3c5680f4	0.013092268
92	0x3bbd26e1	0.005772457
93	0xbb406b56	-0.0029360852
94	0xbb8d456c	-0.0043112542
95	0x3af94454	0.0019017556
96	0x3613941d	2.199092e-06
97	0x3c19ac92	0.009379523
98	0xb9a296ba	-0.00031011348
99	0x3bec6cf7	0.007215138
100	0xbc01a955	-0.007913907
101	0x3a470229	0.00075915694
102	0xbbdaa261	-0.006672189
103	0x3b12e18c	0.0022412268
104	0xbc05d3d0	-0.008168176
105	0xbb865ec2	-0.0041006515
106	0x3c06d5b7	0.0082296645
107	0x3b9f6eb4	0.0048654918
108	0x3b897c02	0.004195691
109	0x3b370197	0.0027924532
110	0xbb3fc982	-0.0029264395
111	0xbc120651	-0.008912639
112	0xbb2b56d6	-0.0026144288
113	0xbbd813a4	-0.006594138
114	0xbc06876c	-0.008210998
115	0x3c22d633	0.009938764
116	0xbaa9bbef	-0.0012949685
117	0xbb993b27	-0.004676241
118	0xbab6eb07	-0.0013955542
119	0xbb614c33	-0.0034377694
120	0x3c2b0941	0.010439218
121	0x3bc299a4	0.0059387255
122	0x3aa9be42	0.0012950378
123	0xb95c496b	-0.00021008185
124	0xbc37ed32	-0.011225985
125	0xbc2abee4	-0.010421488
126	0x3b3650db	0.002781919
127	0x3b352b19	0.0027644096

embedding.embedding_network.1.running_var f4 [128]
0	0x3c14a16a	0.009071687
1	0x3c6de934	0.014520932
2	0x3c129254	0.00894602
3	0x3c66e8df	0.014093607
4	0x3c10f785	0.008848076
5	0x3c93d6f7	0.01804684
6	0x3c265925	0.01015309
7	0x3c4d0e54	0.012515623
8	0x3c30bf05	0.01078773
9	0x3c03eef9	0.008052581
10	0x3c053c7d	0.008132097
11	0x3c0e21dd	0.008675066
12	0x3c63dff6	0.013908377
13	0x3c55db84	0.013052825
14	0x3c779c89	0.0151130045
15	0x3bdb20cd	0.00668726
16	0x3c282064	0.010261629
17	0x3c80ac37	0.015707118
18	0x3c85897c	0.01630091
19	0x3c656bd1	0.014002756
20	0x3c610ebe	0.013736425
21	0x3c5399c6	0.01291508
22	0x3c1bfaa8	0.00952021
23	0x3bbc74d8	0.0057512335
24	0x3c945ef2	0.01811168
25	0x3c9d1386	0.019174349
26	0x3c73ea0a	0.014887342
27	0x3bdf71a4	0.006818967
28	0x3c2a3e55	0.010390838
29	0x3c1f4c0b	0.00972272
30	0x3c46476c	0.012101989
31	0x3bcf7e1c	0.006332172
32	0x3c67c27b	0.014145489
33	0x3c5c7336	0.013455203
34	0x3c69e16f	0.014274939
35	0x3c2da7ed	0.010599119
36	0x3c126903	0.00893617
37	0x3c5487a2	0.0129717905
38	0x3c80bf6d	0.015716279
39	0x3bcf9593	0.0063349693
40	0x3c93ae22	0.018027369
41	0x3c41b8ad	0.011823815
42	0x3c660b5a	0.014040792
43	0x3c138745	0.009004419
44	0x3c4d8614	0.012544174
45	0x3c894b6d	0.016759599
46	0x3c084ef9	0.00831961
47	0x3c2bc86b	0.010484795
48	0x3c2ec094	0.010666031
49	0x3c3bd3d8	0.011464082
50	0x3c55d9b2	0.013052391
51	0x3c3d4383	0.011551741
52	0x3c321745	0.010869806
53	0x3c894501	0.016756536
54	0x3bafb4d5	0.005362133
55	0x3c91efeb	0.017814597
56	0x3bd8aae9	0.006612171
57	0x3b56621a	0.0032712282
58	0x3bfaf6d0	0.007658817
59	0x3c0609cc	0.008181047
60	0x3c19d749	0.009389707
61	0x3c15534e	0.0091141
62	0x3c1f0f6c	0.009708267
63	0x3c3b280e	0.011423124
64	0x3c4b47a0	0.012407213
65	0x3c3967e7	0.011316276
66	0x3c04e875	0.008112063
67	0x3c264f49	0.010150739
68	0x3c3f890a	0.0116903875
69	0x3c8b3523	0.016993111
70	0x3c6698b4	0.014074493
71	0x3c6d25a9	0.014474311
72	0x3bccc8f2	0.0062495405
73	0x3bf78d5c	0.007554693
74	0x3c2a27bb	0.010385449
75	0x3be5e2c6	0.007015559
76	0x3bfc17fe	0.00769329
77	0x3bcf5c34	0.00632813
78	0x3c8d6083	0.017257934
79	0x3c38a638	0.011270098
80	0x3c45a78a	0.01206387
81	0x3c3e87a8	0.011629023
82	0x3c00dd43	0.007865253
83	0x3c3701d8	0.011169873
84	0x3bf324ad	0.0074201436
85	0x3c0090c7	0.007847018
86	0x3c3dc0d8	0.011581622
87	0x3c917ec5	0.017760644
88	0x3beb0e56	0.00717334
89	0x3c1cdb09	0.009573706
90	0x3be735a4	0.007055955
91	0x3c97d6d9	0.018535065
92	0x3c8429f3	0.016133284
93	0x3c1f196f	0.009710654
94	0x3bb2106b	0.005434086
95	0x3c92a341	0.017900111
96	0x3c10f033	0.00884633
97	0x3c200450	0.009766653
98	0x3c1d18bf	0.009588419
99	0x3c8077cf	0.01568213
100	0x3ba2c52a	0.0049673514
101	0x3bf5f586	0.0075060753
102	0x3c38ab20	0.011271268
103	0x3bc717e8	0.006075848
104	0x3c43f92f	0.0119612655
105	0x3c5a2545	0.01331455
106	0x3beb5804	0.007182123
107	0x3c6e5be1	0.014548273
108	0x3bf59492	0.0074945176
109	0x3c72161a	0.014775777
110	0x3c0c62d0	0.008568481
111	0x3bd105cd	0.0063788653
112	0x3c2ec8d9	0.010668003
113	0x3c06bc6f	0.008223637
114	0x3c0f7268	0.008755304
115	0x3c817ebf	0.015807508
116	0x3c17afe2	0.009258242
117	0x3c1f51ce	0.009724094
118	0x3bc8eb66	0.0061315773
119	0x3c88dc05	0.016706476
120	0x3c86f178	0.016472563
121	0x3c6f5aa2	0.014609011
122	0x3c6c200e	0.014411939
123	0x3c8f620b	0.017502805
124	0x3c1e8c9f	0.009677081
125	0x3c5ba9ce	0.013407184
126	0x3c3bfb7f	0.011473536
127	0x3c01ac44	0.0079146065

embedding.embedding_network.4.weight f4 [64, 128]
0	0xbd491a84	-0.049097553
1	0x3da85d86	0.08220963
2	0x3dac09a5	0.08400277
3	0xbd84d0d3	-0.064851426
4	0xbcfd15a1	-0.030894103
5	0x3dbbd071	0.091706164
6	0x3d2e8b8c	0.04261355
7	0x3cb10700	0.021609783
8	0xbd38fe05	-0.045164127
9	0xbda48193	-0.08032527
10	0xbd4b2edb	-0.04960523
11	0x3d5286ae	0.05139797
12	0xbd3a1a0f	-0.045435008
13	0x3c8efdb1	0.017454954
14	0xbcc8bd99	-0.02450447
15	0x3d52ff10	0.051512778
16	0x3d8c2e3d	0.06844757
17	0x3cb82662	0.02247924
18	0x3c107a16	0.00881817
19	0xbd761d1a	-0.060086347
20	0xbdd019a7	-0.10161143
21	0xbaedfb71	-0.00181566
22	0x3d094e78	0.0335221
23	0x3cb072ee	0.021539178
24	0xbb2e58d1	-0.0026603232
25	0x3d59eba7	0.05320325
26	0x3d501928	0.05080524
27	0x3d6ebc70	0.058285177
28	0xbd881acb	-0.06645735
29	0x3d455dbe	0.048185103
30	0xbd659ca9	-0.056057606
31	0xbb896c02	-0.0041937837
32	0xbd518d0e	-0.05115991
33	0x3cd41250	0.025887638
34	0xbdb64e05	-0.089016
35	0xbd9ad9d2	-0.07561077
36	0x3d4dc4fa	0.05023668
37	0xbd03bd7e	-0.032163136
38	0xbe00fc37	-0.12596212
39	0x3d7db702	0.061942108
40	0x3da19b23	0.07890918
41	0xbcae62bc	-0.021287315
42	0xbd0f5426	-0.03499236
43	0x3d7c7d37	0.06164285
44	0x3d93389c	0.07188532
45	0xbb5cbc97	-0.0033681744
46	0xbc66a2bc	-0.014076885
47	0xbbb42314	-0.0054973457
48	0xbc29c727	-0.010362423
49	0xbdcdedc3	-0.10055115
50	0x3c48d6cf	0.012258246
51	0x3c6dde6b	0.014518361
52	0xbd97503d	-0.07388351
53	0xbdc61f62	-0.096739545
54	0x3cecb5b3	0.028895235
55	0x3c8b6444	0.017015584
56	0x3d43a1f6	0.04776188
57	0xbd4d9b0c	-0.050196692
58	0x3d6cc552	0.057805367
59	0x3cb318b8	0.021862373
60	0xbd372eb2	-0.044722266
61	0xbdaf1235	-0.085483946
62	0xbd95ae50	-0.07308638
63	0x3d287dc8	0.04113558
64	0xbd40e62e	-0.047094516
65	0x3d48c4bb	0.04901574
66	0x3c33d096	0.010975024
67	0x3d8edfc7	0.06976276
68	0xbd8eef1a	-0.06979199
69	0x3dc842bf	0.09778356
70	0x3d741fa6	0.059600495
71	0xbc14eb94	-0.009089369
72	0x3da28b38	0.0793671
73	0x3d74cc22	0.05976499
74	0x3d49153d	0.04909252
75	0x3d9092eb	0.070592724
76	0x3d96595f	0.07341265
77	0x3cd770ea	0.026298959
78	0x3d356d4e	0.044293694
79	0xbd901b29	-0.070364304
80	0x3d4cf21d	0.050035585
81	0xbca37c59	-0.019956755
82	0xbe03b519	-0.12862052
83	0xbc6b03b7	-0.014344147
84	0x3b1762c8	0.002309965
85	0x3c22ea0b	0.0099434955
86	0xbd7e160b	-0.06203274
87	0x3d66e117	0.056367006
88	0x3d8dbcf1	0.06920803
89	0xbd5450cb	-0.051834863
90	0xbda0ebf9	-0.07857508
91	0xbd1519fa	-0.036401726
92	0xbd8187a2	-0.06324698
93	0x3d92e974	0.07173434
94	0xbda2f203	-0.07956316
95	0xbc2ffc8f	-0.010741367
96	0x3c2e550a	0.010640392
97	0xbda55917	-0.08073633
98	0x3ca70c19	0.02039151
99	0xbd64bea2	-0.055845864
100	0x3d47fe14	0.048826292
101	0x3bc6497d	0.006051241
102	0x3db70206	0.08935933
103	0x3d29773b	0.041373473
104	0x3d859f47	0.0652452
105	0xbdb6e20d	-0.089298345
106	0xbb984dfe	-0.0046479693
107	0xbd2334ea	-0.039845385
108	0x3d164b4f	0.036692914
109	0x3d428de9	0.047498617
110	0x3d8e3957	0.069445305
111	0x385ca674	5.260711e-05
112	0xbdd5ae57	-0.10433643
113	0x3d5d79e5	0.054071326
114	0xbcdacc28	-0.026708677
115	0x3d19b2f9	0.037524197
116	0x3d23cbcd	0.03998928
117	0x3c726b82	0.01479614
118	0x3d042952	0.03226597
119	0x3b857389	0.0040726108
120	0x3d9aba9c	0.07555124
121	0xbd466df2	-0.048444696
122	0x3dd33876	0.103135034
123	0x3d40d0e2	0.047074206
124	0xbcb6af02	-0.022300247
125	0xbcb36d13	-0.021902597
126	0xbccd4fd5	-0.025062481
127	0xbda97287	-0.082737975
128	0x3cc8997a	0.024487246
129	0xbc560d50	-0.013064697
130	0x3c427959	0.011869752
131	0x3bc63c48	0.0060496666
132	0xbd718ea5	-0.058973927
133	0x3d22657f	0.039647575
134	0xbd8a4ac4	-0.06752542
135	0x3c97337f	0.018457172
136	0x3b856ead	0.0040720315
137	0xbd9fa817	-0.077957325
138	0xbd3c8c0f	-0.046032008
139	0xbd1591bd	-0.03651594
140	0x3de0ef8a	0.109831885
141	0x3cf840c9	0.03030433
142	0x3d3294e9	0.043599043
143	0x3ccd8ec8	0.025092497
144	0xbdb7aad4	-0.0896813
145	0xbd8ea79d	-0.069655634
146	0x3d0364d3	0.032078575
147	0x3d662488	0.056187183
148	0x3d5196ea	0.051169313
149	0xbd96cf00	-0.07363701
150	0x3dc4a44b	0.09601649
151	0x3d38552a	0.045003094
152	0x3cf4104f	0.029792933
153	0xbd00e32b	-0.031466644
154	0xbd699dc9	-0.05703524
155	0xbd0a9869	-0.033836756
156	0x3d581868	0.05275765
157	0x3d4d3031	0.050094787
158	0x3c354236	0.011063149
159	0x3d9d6d85	0.07686905
160	0x3d6fe96a	0.05857221
161	0x3c945498	0.018106744
162	0xbd23fa7e	-0.04003381
163	0x3dad6636	0.08466761
164	0xbd452186	-0.048127674
165	0x3bdfcb0b	0.0068296245
166	0xbc3830c9	-0.0112421
167	0x3d8a27af	0.0674585
168	0x3a6be8c7	0.0008999225
169	0xbd137f65	-0.036010165
170	0xbd271f9d	-0.040801633
171	0x3d25e79f	0.040504094
172	0x3d1a46be	0.03766512
173	0x3b75c4ae	0.0037501263
174	0xbdab00ad	-0.08349738
175	0x3dbbceaf	0.09170281
176	0x3ca0f918	0.019650027
177	0xba83cb5c	-0.0010055113
178	0x3bc9ea44	0.00616196
179	0x3d28470d	0.041083384
180	0xbd928fbd	-0.07156322
181	0xbd4dff6d	-0.05029242
182	0x3d20d0f6	0.03926178
183	0x3d5e8379	0.0543246
184	0xbdb9c544	-0.090708286
185	0x3c7627d8	0.015024148
186	0x3d80f12d	0.06296001
187	0x3d4fed0f	0.050763186
188	0xbc536573	-0.012902605
189	0xbb964899	-0.004586291
190	0x3d609252	0.054827042
191	0xbd5f4d4e	-0.054517083
192	0x3c102ded	0.008800012
193	0xbd5da401	-0.054111484
194	0x3d1dfa04	0.03856851
195	0x3d80e448	0.06293541
196	0x3dd4719c	0.10373232
197	0xbc856825	-0.016285012
198	0x3d19ac0e	0.0375176
199	0x3bc5ddaf	0.0060383896
200	0xbdb08b09	-0.08620269
201	0xbce635e2	-0.028101865
202	0x3acd42be	0.001566015
203	0xbb3d94e3	-0.0028927855
204	0x3c9d3208	0.019188896
205	0xbd119b6f	-0.035548624
206	0xbdb25d3e	-0.08709191
207	0xbd6c7d98	-0.057736963
208	0x3d554d95	0.05207594
209	0xbce2d23c	-0.027688138
210	0x3cdd9e4e	0.027053025
211	0xbd1c0f47	-0.038100507
212	0xbdba396e	-0.09092985
213	0x3d86ba97	0.06578558
214	0x3d2949dd	0.041330207
215	0x3c915781	0.01774192
216	0xbd997698	-0.07493323
217	0x3de3c25b	0.11121055
218	0xbd9ba9e3	-0.07600763
219	0xbd2b495a	-0.041818
220	0x3cc70854	0.024295963
221	0xbd12d26c	-0.035845205
222	0x3d2140b4	0.039368346
223	0xbcecdb29	-0.028913097
224	0x3dc8333f	0.097753994
225	0xbc513e46	-0.012771195
226	0xbcda83f4	-0.026674248
227	0xbd83afe6	-0.06430034
228	0x3c6fb21a	0.014629865
229	0xbd5d72b9	-0.054064486
230	0x3d9b2eb8	0.0757727
231	0xbcf257f6	-0.029582959
232	0x3d4de8cb	0.050270837
233	0xbc253885	-0.010084276
234	0x3c914b55	0.017736116
235	0xbcac9f08	-0.021071926
236	0xbce51480	-0.027963877
237	0x3d3cf75c	0.046134338
238	0xbcd758a0	-0.026287377
239	0xbd4722b5	-0.048617084
240	0xb925a3f5	-0.00015796705
241	0xbd88a836	-0.06672709
242	0xbd941ff6	-0.072326586
243	0xbd16f920	-0.036858678
244	0xbd884b5f	-0.06655001
245	0xba902e5e	-0.0011000147
246	0xbd62966c	-0.055319235
247	0x3bf0ae1e	0.007344975
248	0x3b16c37f	0.0023004708
249	0x3d1e2992	0.038613863
250	0x3d67287f	0.056435104
251	0xbd252aa4	-0.04032387
252	0xbd9da68d	-0.07697783
253	0xbd00f242	-0.031481035
254	0x3d8a7d18	0.06762141
255	0xbcd51631	-0.026011558

embedding.embedding_network.4.bias f4 [64]
0	0x380f86ba	3.421933e-05
1	0x3656ede8	3.2026965e-06
2	0xb768cdcc	-1.3876193e-05
3	0x36356eb8	2.7035549e-06
4	0xb7249a67	-9.811111e-06
5	0xb73eb88d	-1.1367852e-05
6	0x379ca42c	1.8673098e-05
7	0x3739b610	1.1069249e-05
8	0xb7ceccd7	-2.46525e-05
9	0x3574f212	9.124934e-07
10	0x37a9fed5	2.0265035e-05
11	0xb5441483	-7.304554e-07
12	0xb51bb720	-5.800848e-07
13	0xb6ce5d46	-6.150137e-06
14	0xb7b76d80	-2.186629e-05
15	0xb7c4f8f4	-2.3480949e-05
16	0x37a124f2	1.92099e-05
17	0xb6d460a5	-6.3293433e-06
18	0xb7d827c2	-2.576772e-05
19	0x37c49a03	2.3436738e-05
20	0x37302cd4	1.0500855e-05
21	0xb6d3f042	-6.3162597e-06
22	0x378f54da	1.708644e-05
23	0xb6ba8e74	-5.5598157e-06
24	0x37a89023	2.009428e-05
25	0xb739daee	-1.1077833e-05
26	0x37503206	1.2409413e-05
27	0x37b52d06	2.1597847e-05
28	0x372086d1	9.568133e-06
29	0xb7a44f3d	-1.9587222e-05
30	0xb5b9eda7	-1.385274e-06
31	0x3736776a	1.0875849e-05
32	0x37bb50ef	2.2329825e-05
33	0xb6a61cd3	-4.950541e-06
34	0x37399666	1.1061877e-05
35	0x37ccc10c	2.440859e-05
36	0xb6fd63f9	-7.551626e-06
37	0xb7e8c059	-2.7746124e-05
38	0xb83d4ed8	-4.513454e-05
39	0xb7a9ecb1	-2.0256588e-05
40	0x3799a140	1.831411e-05
41	0xb61d0f82	-2.340385e-06
42	0x37788aac	1.4814239e-05
43	0x361c3a9b	2.3279924e-06
44	0x37516133	1.2480002e-05
45	0x3893ccf5	7.0476824e-05
46	0xb77fa9a9	-1.52386865e-05
47	0x365056e0	3.1044983e-06
48	0x37957352	1.7815884e-05
49	0xb689f7e1	-4.111775e-06
50	0xb7245393	-9.79462e-06
51	0xb7979b48	-1.8072911e-05
52	0xb66f76c9	-3.5682917e-06
53	0xb671dcc0	-3.6040292e-06
54	0x382a37eb	4.0583236e-05
55	0xb76e36cc	-1.4198664e-05
56	0x37ced5e6	2.4656718e-05
57	0xb80e823e	-3.3976736e-05
58	0x36eca68f	7.052738e-06
59	0xb61aa91e	-2.3046227e-06
60	0xb78e8730	-1.699067e-05
61	0xb6fccf38	-7.5343087e-06
62	0xb8333fef	-4.273647e-05
63	0x3819842e	3.6601145e-05

embedding.embedding_network.5.weight f4 [64]
0	0x3f676419	0.9038711
1	0x3f704c4f	0.9386644
2	0x3f74b9d0	0.9559603
3	0x3f6edb85	0.9330371
4	0x3f6c0453	0.921941
5	0x3f766459	0.9624687
6	0x3f68f08e	0.9099206
7	0x3f675afd	0.9037321
8	0x3f7b6485	0.98200256
9	0x3f6ac9ae	0.9171399
10	0x3f690d28	0.910357
11	0x3f6d6bb1	0.9274245
12	0x3f6e3d5f	0.93062395
13	0x3f6d8c3e	0.9279212
14	0x3f6bdfbf	0.92138284
15	0x3f6e147e	0.9300002
16	0x3f6df516	0.92952096
17	0x3f6a4d9f	0.9152469
18	0x3f6c34ed	0.9226826
19	0x3f721b80	0.9457321
20	0x3f682f69	0.9069734
21	0x3f6de50d	0.9292763
22	0x3f6fa20c	0.9360664
23	0x3f713481	0.9422074
24	0x3f75845a	0.9590508
25	0x3f6ff12c	0.93727374
26	0x3f718c31	0.9435454
27	0x3f6dd367	0.929007
28	0x3f737d45	0.9511302
29	0x3f741704	0.9534762
30	0x3f7487d8	0.9551978
31	0x3f6cb021	0.9245625
32	0x3f6bcae7	0.9210648
33	0x3f6e08c2	0.92982113
34	0x3f67948e	0.9046105
35	0x3f723b00	0.94621277
36	0x3f759847	0.9593548
37	0x3f6f505e	0.93482006
38	0x3f6daefd	0.92845136
39	0x3f757e60	0.9589596
40	0x3f6c808f	0.92383665
41	0x3f756dc6	0.95870626
42	0x3f7248f9	0.946426
43	0x3f6fc6dd	0.93662816
44	0x3f6ed1cc	0.93288875
45	0x3f6d848a	0.92780364
46	0x3f6c4118	0.92286825
47	0x3f6c01cb	0.92190236
48	0x3f6b072e	0.9180783
49	0x3f69630f	0.91166776
50	0x3f78d867	0.97205204
51	0x3f754aa7	0.95817035
52	0x3f65270a	0.89512694
53	0x3f70ca55	0.94058734
54	0x3f6ebfd3	0.9326145
55	0x3f74b647	0.95590633
56	0x3f6cf684	0.92563653
57	0x3f6c8612	0.92392075
58	0x3f668b62	0.9005643
59	0x3f770e60	0.9650631
60	0x3f6b6353	0.9194843
61	0x3f6e48a3	0.93079585
62	0x3f670f84	0.9025805
63	0x3f721fba	0.9457966

embedding.embedding_network.5.bias f4 [64]
0	0xbd965481	-0.073403366
1	0xbc87bd1b	-0.016569665
2	0xbca8e450	-0.02061668
3	0xbcb72976	-0.022358637
4	0xbd52d0a5	-0.05146851
5	0x3c69cf68	0.014270641
6	0xbd1d4cfb	-0.038403492
7	0xbd6e8df8	-0.05824086
8	0x3c437a00	0.011930943
9	0xbd648295	-0.055788595
10	0xbd452f97	-0.04814109
11	0xbc78018e	-0.015137089
12	0xbd396e72	-0.045271344
13	0xbcf32104	-0.029678829
14	0xbd3e000e	-0.04638677
15	0xbcd74a19	-0.02628045
16	0xbd170fb4	-0.03688021
17	0xbd728588	-0.059209377
18	0xbd52eb35	-0.051493842
19	0xbca20068	-0.019775584
20	0xbd859bec	-0.0652388
21	0xbd4572a3	-0.04820503
22	0xbcd36883	-0.025806671
23	0xbd121d27	-0.035672333
24	0xbc7b3a58	-0.015333734
25	0xbceb0ba7	-0.02869208
26	0xbd0b7c18	-0.034053892
27	0xbcc55124	-0.024086542
28	0xbc5e7a3f	-0.01357895
29	0xbc1df2be	-0.009640394
30	0xbc129752	-0.00894721
31	0xbd6a49a1	-0.057199124
32	0xbd1d8c09	-0.038463626
33	0xbd114eeb	-0.035475653
34	0xbd5270c5	-0.051377077
35	0xbc92db9b	-0.017926982
36	0x3be852d0	0.00708995
37	0xbc839982	-0.01606441
38	0xbd1b7ab1	-0.037958805
39	0xbc2c5828	-0.010519065
40	0xbd3d5a38	-0.046228617
41	0xbc50dab2	-0.0127474535
42	0xbc8f5cc4	-0.017500289
43	0xbd18f43f	-0.037342306
44	0xbd02e635	-0.031957824
45	0xbd0f5c47	-0.035000112
46	0xbd1d9f28	-0.03848186
47	0xbcf23909	-0.029568212
48	0xbd5708ae	-0.052498512
49	0xbd806aab	-0.06270345
50	0x3a817b88	0.0009878734
51	0x3a2a0a67	0.00064865354
52	0xbdb0e08b	-0.08636578
53	0xbc822e2e	-0.01589116
54	0xbc88f8a3	-0.016720122
55	0x3a1246e4	0.00055800215
56	0xbccb6407	-0.02482797
57	0xbcd7c1d8	-0.02633755
58	0xbd5e61b5	-0.0542924
59	0x3b92d1c6	0.0044805733
60	0xbcf9c8b5	-0.030491212
61	0xbd1a67da	-0.037696697
62	0xbd6fac15	-0.05851372
63	0xbaa58ba5	-0.0012630118

embedding.embedding_network.5.running_mean f4 [64]
0	0x3d12b07f	0.03581285
1	0xbc0f012e	-0.008728309
2	0x3c712f54	0.014720757
3	0xbeadc23f	-0.3393726
4	0xbda31283	-0.07962515
5	0xbee3a40a	-0.4446109
6	0xbe9426f3	-0.28935966
7	0xbec51725	-0.3849422
8	0xbdf4f241	-0.11960269
9	0xbf22f622	-0.6365682
10	0xbedfac35	-0.4368607
11	0xbed927d7	-0.42413208
12	0xbd7448f4	-0.059639886
13	0xbedb0428	-0.42776608
14	0xbe8944dc	-0.26810348
15	0xbf2be3c9	-0.6714445
16	0xbea5c528	-0.3237698
17	0xbdba67f1	-0.091018565
18	0xbd20bbf2	-0.03924174
19	0xbedab9b2	-0.427198
20	0x3d8847a3	0.066542886
21	0x3e4025c6	0.1876441
22	0xbd77c7db	-0.06049333
23	0xbdedd772	-0.116133586
24	0xbeefb370	-0.46816587
25	0xbd6a7f88	-0.05725053
26	0xbd780842	-0.06055475
27	0xbd48bedf	-0.049010154
28	0x3e0fbae1	0.14036132
29	0xbdfc431b	-0.12317487
30	0xbead4a72	-0.3384586
31	0xbe9a2bb5	-0.3011147
32	0x3cb9e732	0.02269325
33	0x3e4253fe	0.18977353
34	0x3dbe5d3c	0.09295127
35	0xbeb93cb4	-0.36179125
36	0xbee556fe	-0.44792932
37	0xbeecdd91	-0.46262792
38	0xbf315518	-0.6927047
39	0xbec3d4cf	-0.38248298
40	0xbdce3704	-0.10069087
41	0x3dad99e9	0.08476622
42	0xbf0287fd	-0.5098875
43	0xbf0f6b8d	-0.56023484
44	0x3eaba240	0.33522224
45	0xbed4f80d	-0.41595498
46	0x3e1fde50	0.15612149
47	0xbc67f775	-0.014158119
48	0xbdd69f61	-0.10479618
49	0xbe6e28dd	-0.23257776
50	0xbe8dd95b	-0.27704892
51	0xbdf256db	-0.118329726
52	0xbe74e5e2	-0.23915818
53	0xbe5361d9	-0.20642795
54	0xbe5035c4	-0.2033301
55	0xbf680062	-0.90625584
56	0xbd991c9e	-0.074761614
57	0xbf12c4c6	-0.573315
58	0xbe882b9b	-0.26595768
59	0xbe65d647	-0.22445022
60	0xbdb106fa	-0.08643909
61	0xbc6a5387	-0.014302141
62	0xbe71be7e	-0.23607823
63	0xbd84c200	-0.06482315

embedding.embedding_network.5.running_var f4 [64]
0	0x3f367552	0.71272767
1	0x3e6718e9	0.22568096
2	0x3e5b657a	0.21425429
3	0x3f0af913	0.5428631
4	0x3ee5b4f1	0.4486461
5	0x3f172fc6	0.5905727
6	0x3f27f417	0.65606827
7	0x3f219126	0.63112104
8	0x3f41aaf0	0.75651455
9	0x3ed112ad	0.4083456
10	0x3f11bc42	0.56927884
11	0x3f40fe55	0.7538808
12	0x3e8b3f2d	0.27196637
13	0x3ec93a80	0.39302444
14	0x3ebbb392	0.3666044
15	0x3f29c081	0.6630936
16	0x3eb69bd6	0.35665768
17	0x3efabb4d	0.48971024
18	0x3e721776	0.23641762
19	0x3ef05627	0.4694073
20	0x3f060d9b	0.5236451
21	0x3f14b17a	0.5808331
22	0x3ee662d4	0.44997275
23	0x3ee98b29	0.45613983
24	0x3eeea8ac	0.4661306
25	0x3f3ed65d	0.7454584
26	0x3f230ae2	0.6368848
27	0x3f6344b5	0.88776714
28	0x3f025f39	0.5092655
29	0x3eaeb6a7	0.34123728
30	0x3f01f740	0.507679
31	0x3eb4aebd	0.35289565
32	0x3f1f53a0	0.62236977
33	0x3ef3c6c4	0.47612584
34	0x3f005cec	0.5014179
35	0x3f1bb9d6	0.6083044
36	0x3f26851f	0.65046877
37	0x3f76c613	0.9639599
38	0x3ee3dfb6	0.44506615
39	0x3f12e376	0.5737833
40	0x3f220ebf	0.6330375
41	0x3ecf73b9	0.40517977
42	0x3eede4dc	0.46463668
43	0x3f053c6a	0.5204531
44	0x3ecbc6a5	0.3979999
45	0x3f373bb0	0.7157545
46	0x3f11b0d7	0.5691046
47	0x3f1189f7	0.5685114
48	0x3f1c8f96	0.61156595
49	0x3e90208c	0.2814983
50	0x3ef6e699	0.48222807
51	0x3f7957b1	0.9739943
52	0x3ea9c04c	0.33154523
53	0x3e9f1bdc	0.31075943
54	0x3ef7d3d0	0.48403788
55	0x3f250b86	0.6447071
56	0x3eced327	0.4039547
57	0x3f6dffe6	0.92968595
58	0x3edd158e	0.43180507
59	0x3f0e1dea	0.55514395
60	0x3eb53c6c	0.3539766
61	0x3f1015e9	0.5628343
62	0x3f3b0c8b	0.73066014
63	0x3f113baf	0.56731695

embedding.embedding_network.8.weight f4 [5, 64]
0	0xbcf33592	-0.02968863
1	0xbd1b2bd3	-0.03788359
2	0xbcaf27d9	-0.021381306
3	0xbd0e3f48	-0.03472832
4	0x3be690e4	0.0070363153
5	0xbd6a76ab	-0.057242077
6	0x3d0d4018	0.034484953
7	0xbc2159c3	-0.009848061
8	0xbc4bc277	-0.012436501
9	0xbd798040	-0.060913324
10	0x3d142703	0.036170017
11	0x3d8575ec	0.065166324
12	0x3c4c0c4a	0.012454102
13	0xbd47e4a5	-0.048802037
14	0x3d22877d	0.039679993
15	0x3d7e543c	0.06209205
16	0xbce9881a	-0.028507281
17	0xbccea5e5	-0.025225589
18	0x3ceb2a74	0.028706767
19	0x3a8d89b0	0.001079848
20	0xbca7645d	-0.0204336
21	0xbd7728f7	-0.0603418
22	0xbd505366	-0.050860785
23	0x3d837479	0.064187
24	0xbc745787	-0.014913446
25	0x3d1b65e3	0.037938964
26	0xbc887d59	-0.016661333
27	0xbd01d550	-0.03169757
28	0xbc57cfa4	-0.013172064
29	0x3cb2b89b	0.021816542
30	0xbccaad91	-0.024740966
31	0xbd10002e	-0.03515642
32	0xbd56f5a6	-0.052480362
33	0x3d41cbc0	0.04731345
34	0x3d42e90c	0.047585532
35	0x398f3fbe	0.00027322577
36	0xbd0a6a01	-0.0337925
37	0x3d84c1c1	0.06482268
38	0x3d89a4f5	0.06720916
39	0xbd248780	-0.040168285
40	0x3d0288d1	0.03186876
41	0xbccc1b04	-0.024915226
42	0xbc85b087	-0.016319526
43	0x3d009d86	0.031400226
44	0x3cc3af0b	0.023887178
45	0x3d7122a6	0.058870934
46	0xbd6fae1d	-0.058515657
47	0x3d32f7e7	0.04369345
48	0x3d494aed	0.04914372
49	0xbd22511d	-0.039628137
50	0x3d0fb645	0.035085935
51	0x3c8507ea	0.016239125
52	0x3d0691b2	0.03285379
53	0xbcf7db5b	-0.030255964
54	0xbd53c6df	-0.05170333
55	0xbd73e5e7	-0.059545424
56	0xbcc3f168	-0.023918822
57	0xbcbfa15c	-0.023392372
58	0x3d3b0b81	0.045665268
59	0xbd840ca9	-0.06447727
60	0x3cd64db3	0.026160097
61	0xbccb5d3c	-0.024824731
62	0xbbad2829	-0.0052843285
63	0xbd6a0d69	-0.057141695
64	0x3d4984aa	0.049198784
65	0x3b804a64	0.003915118
66	0x3c9e1dee	0.019301381
67	0x3cb3af11	0.021934064
68	0x3d2e5929	0.0425655
69	0x3c8e36c3	0.017360097
70	0x3d85c9e6	0.0653265
71	0xbd796e60	-0.060896277
72	0x3d653885	0.055962104
73	0xbd04925d	-0.032366145
74	0x3d15b578	0.036550015
75	0xbd31a0e9	-0.043366347
76	0x3b67a482	0.0035345857
77	0x3d26e3d9	0.040744636
78	0x3cb0b115	0.021568814
79	0xbd6a3bae	-0.05718582
80	0xbd1aaf7d	-0.037765015
81	0xbd1503c9	-0.036380563
82	0x3d012901	0.031533245
83	0x3d4de38f	0.050265845
84	0xbcf49596	-0.029856484
85	0x3cd6beb8	0.026213989
86	0xbb86185b	-0.004092259
87	0xbb03e357	-0.0020124519
88	0xbca01870	-0.019542903
89	0xbd6fdc95	-0.058559973
90	0x3c0fb11e	0.008770255
91	0xbda778ae	-0.08177315
92	0xbd30fedc	-0.043211803
93	0x3d4cc668	0.049993902
94	0xbc816d85	-0.015799293
95	0xbd3330b0	-0.043747604
96	0x3c90d2a2	0.017678563
97	0x3d06d74b	0.032920163
98	0x3d8b954b	0.06815585
99	0x3da963c2	0.082709804
100	0x3c9e061e	0.019290026
101	0xbd91a89e	-0.07112239
102	0xbd4f3162	-0.050584204
103	0xbd48f4ab	-0.04906146
104	0x3d7f3612	0.062307425
105	0xbd41da71	-0.047327463
106	0x3c9a7b37	0.018857582
107	0x3b963069	0.0045834077
108	0x3d7e018b	0.06201319
109	0x3d7d683f	0.061866995
110	0x3c472ed7	0.012157164
111	0xbc65c79e	-0.014024643
112	0x3d16647b	0.03671692
113	0x3d0eebb1	0.03489274
114	0xbd3eaa2c	-0.046549007
115	0xbc4d6f2a	-0.012538711
116	0x3ca2db4d	0.019879961
117	0x3c9f3444	0.019434102
118	0x3cfd126a	0.03089257
119	0x3bb0142b	0.005373498
120	0xbd145785	-0.036216278
121	0xbafd7aea	-0.0019338999
122	0x3cc4faf2	0.024045441
123	0xbb04c7fb	-0.00202608
124	0xbcc41302	-0.023934845
125	0xbcf7b9f5	-0.030240038
126	0xbd1a010f	-0.037598666
127	0xbc95ccdf	-0.018286167
128	0x3d2674cc	0.04063873
129	0xbc0d37f1	-0.0086192945
130	0x3cbd0d9f	0.023077784
131	0xbda3169d	-0.079632975
132	0x3d3edaa8	0.046595246
133	0xbd607348	-0.05479744
134	0x3d89eba6	0.067343995
135	0xbd560ea3	-0.052260052
136	0xbd20af87	-0.039229896
137	0x3c8051fc	0.015664093
138	0xbd9d517b	-0.07681557
139	0xbdc0e128	-0.09417945
140	0xbcf9a0a3	-0.030472105
141	0x3d8afe97	0.067868404
142	0xbcadc6ba	-0.021212924
143	0xbd10e232	-0.035371967
144	0x3d232abc	0.039835677
145	0x3cb8160e	0.022471454
146	0xbcb37a26	-0.02190883
147	0xbdb32eff	-0.08749198
148	0x3cc4493c	0.023960702
149	0xbd6372a7	-0.055529263
150	0x3d9c5691	0.07633699
151	0x3ccf18f2	0.02528045
152	0xbd51c822	-0.051216252
153	0xbd2eae1d	-0.042646516
154	0x3d70d009	0.058792148
155	0x3d260247	0.040529516
156	0x3c76acd4	0.015055854
157	0xbcc511a6	-0.024056267
158	0xbd38c12b	-0.045106094
159	0x3d020422	0.031742223
160	0x3d5e4438	0.054264277
161	0xbc898f11	-0.016791852
162	0x38b08594	8.417215e-05
163	0xbcca0ef4	-0.024665333
164	0xbd80be70	-0.06286323
165	0x3d61056a	0.054936804
166	0xbccab3c8	-0.02474393
167	0xbd15a7f0	-0.03653711
168	0xbd1b86c0	-0.037970304
169	0xbc24db05	-0.010061984
170	0x3d948b63	0.072531484
171	0x3d08b803	0.033378612
172	0x3ca4ece2	0.020132486
173	0x3d868018	0.06567401
174	0x3d6648d4	0.056221798
175	0x3d818b78	0.0632543
176	0xbce2e428	-0.027696684
177	0x3beda331	0.00725212
178	0xbd28c875	-0.041206796
179	0x3d9ccf89	0.07656772
180	0xbcca322a	-0.024682123
181	0x3a68afa0	0.0008876268
182	0xbda8d9c9	-0.08244664
183	0x3c91a77e	0.017780062
184	0xbd19f702	-0.03758908
185	0xbd8dce38	-0.06924099
186	0x3c89ce86	0.01682211
187	0xbd3f9dde	-0.046781413
188	0xbd035da6	-0.032071732
189	0x3d49c244	0.04925753
190	0xbd797f98	-0.0609127
191	0xbd97c9f5	-0.07411567
192	0xbc941e45	-0.01808084
193	0xbc421744	-0.011846367
194	0xbb371681	-0.0027936997
195	0x3cad8493	0.02118138
196	0x3c12d6d4	0.008962352
197	0xba6cec22	-0.0009037872
198	0x3a92da74	0.001120402
199	0x3c933bc2	0.01797283
200	0x3ba5b545	0.0050570094
201	0x3c42c112	0.011886852
202	0xbcbc3685	-0.022975216
203	0xbc4e8906	-0.012605911
204	0xbc1e2162	-0.009651514
205	0x3b8be6a8	0.0042694397
206	0x3cd65244	0.026162274
207	0xbcff63eb	-0.031175574
208	0x3a747703	0.00093255955
209	0x3c88d3b1	0.016702505
210	0x3b56d08c	0.0032778112
211	0xbb16dd45	-0.002302007
212	0xbc8fe28e	-0.017564084
213	0xba131397	-0.0005610524
214	0x3b8da98a	0.004323189
215	0x3c0a7009	0.008449563
216	0x3b363651	0.0027803371
217	0x3c9ab08f	0.018883018
218	0xbacf490c	-0.0015814616
219	0xbab75435	-0.0013986888
220	0xba804ae0	-0.000978794
221	0xbbbff766	-0.0058583496
222	0x3bbda9b6	0.0057880534
223	0xbba289ed	-0.0049602897
224	0x3beac7a7	0.0071649137
225	0xbb97aaec	-0.00462853
226	0x3c8ef0ec	0.017448865
227	0xbc5fed8f	-0.013667478
228	0xbb700972	-0.0036626724
229	0xbb921503	-0.004458071
230	0xbc6bc73b	-0.014390762
231	0x3bb33bda	0.0054697813
232	0x3ba61254	0.005068103
233	0xbc177ec6	-0.009246534
234	0x3b555871	0.0032553936
235	0x3c343940	0.010999978
236	0xbad2a402	-0.0016070607
237	0x3bc88ea1	0.0061205183
238	0x3a394cae	0.0007068616
239	0xbba95151	-0.0051671644
240	0xbc3c31cc	-0.011486482
241	0x3c6955b2	0.014241623
242	0x3c1e1669	0.009648898
243	0xbbe45407	-0.0069680247
244	0xbc5ea243	-0.013588491
245	0x3c29f098	0.010372303
246	0xbb584645	-0.0033000868
247	0xbc477e9a	-0.01217618
248	0x3c42ff34	0.0119016655
249	0x3c75c663	0.015000912
250	0x3c0ce294	0.008598942
251	0xbc0cb998	-0.008589171
252	0xbc36bca5	-0.011153375
253	0xbc50d9a3	-0.012747201
254	0xbd0379bd	-0.03209852
255	0x3c67bfdc	0.014144864

embedding.embedding_network.8.bias f4 [5]
0	0x3d92ff28	0.071775734
1	0xbd434ca8	-0.047680527
2	0x3dce45ef	0.100719325
3	0x3bc8c7c3	0.006127329
4	0xbca5d23e	-0.020241853

exp_avg f4 [5, 5]
0	0x00000000	0.0
1	0x00000000	0.0
2	0x00000000	0.0
3	0x00000000	0.0
4	0x00000000	0.0
5	0x00000000	0.0
6	0x00000000	0.0
7	0x00000000	0.0
8	0x00000000	0.0
9	0x00000000	0.0
10	0x00000000	0.0
11	0x00000000	0.0
12	0x00000000	0.0
13	0x00000000	0.0
14	0x00000000	0.0
15	0x00000000	0.0
16	0x00000000	0.0
17	0x00000000	0.0
18	0x00000000	0.0
19	0x00000000	0.0
20	0x00000000	0.0
21	0x00000000	0.0
22	0x00000000	0.0
23	0x00000000	0.0
24	0x00000000	0.0

exp_avg_sq f4 [5, 5]
0	0x00000000	0.0
1	0x00000000	0.0
2	0x00000000	0.0
3	0x00000000	0.0
4	0x00000000	0.0
5	0x00000000	0.0
6	0x00000000	0.0
7	0x00000000	0.0
8	0x00000000	0.0
9	0x00000000	0.0
10	0x00000000	0.0
11	0x00000000	0.0
12	0x00000000	0.0
13	0x00000000	0.0
14	0x00000000	0.0
15	0x00000000	0.0
16	0x00000000	0.0
17	0x00000000	0.0
18	0x00000000	0.0
19	0x00000000	0.0
20	0x00000000	0.0
21	0x00000000	0.0
22	0x00000000	0.0
23	0x00000000	0.0
24	0x00000000	0.0
