paths_on_manifold/results/checkpoints/model_epoch_20_step_1.pt (torch, 208379 bytes, 37 tensors)

embedding.metric f4 [5, 5]
-1.0 0.0 0.0 0.0 0.0 0.0 1.0 0.0
0.0 0.0 0.0 0.0 1.0 0.0 0.0 0.0
0.0 0.0 1.0 0.0 0.0 0.0 0.0 0.0
1.0
00000000: 0000 80bf 0000 0000 0000 0000 0000 0000
00000010: 0000 0000 0000 0000 0000 803f 0000 0000
00000020: 0000 0000 0000 0000 0000 0000 0000 0000
00000030: 0000 803f 0000 0000 0000 0000 0000 0000
00000040: 0000 0000 0000 0000 0000 803f 0000 0000
00000050: 0000 0000 0000 0000 0000 0000 0000 0000
00000060: 0000 803f

embedding.embedding_network.0.weight f4 [128, 55]
-0.09887815 -0.04755763 0.07243536 -0.12144206 -0.12897219 -0.0015677286 -0.05947919 -0.014887669
-0.14826982 0.06666767 -0.07985772 -0.03365232 0.05032283 -0.031566594 0.03699121 -0.035242945
-0.036724217 0.112205386 -0.10280631 -0.07171629 0.08005319 -0.09143997 -0.13441445 0.07856375
-0.039418742 -0.05030399 0.12635778 0.001346686 -0.105170965 0.06949917 0.014384757 0.11477102
0.12928484 -0.02529493 -0.07916378 -0.019885419 0.08087623 -0.012457544 -0.06492506 -0.076942734
-0.05097597 -0.08548817 -0.11386445 0.11828903 -0.10439772 -0.009892174 0.072945476 -0.04137659
0.111817695 0.09511055 0.060599532 0.03179352 0.023488527 0.0727675 0.05092662 -0.18974891
-0.13041212 -0.12784643 0.068160854 0.019799856 -0.120381236 -0.07592119 -0.04279608 -0.017899908
0.10568694 0.0019061443 0.116996236 0.034139175 -0.0579387 0.030399024 0.08477268 -0.021137627
0.059050363 -0.1329689 -0.019522538 0.04302347 0.11854365 -0.0905921 0.10090396 0.040737927
0.08184402 0.07975691 -0.03803434 -0.046005238 0.042009894 -0.028412648 0.0757691 0.039789345
-0.035223976 0.11859251 0.045613542 -0.027466433 -0.09856768 -0.004545571 0.02059092 -0.11091994
0.039430074 -0.02367152 0.15035132 -0.06960666 0.122555666 0.05634166 -0.09479588 -0.11082094
0.09761871 0.012961956 -0.0103307925 0.045494456 -0.08624647 -0.030054275 -0.007061329 0.16424635
0.03344274 0.021600556 0.09350943 -0.082890466 -0.08564495 0.074807204 0.034315363 -0.05103422
-0.09026237 0.026210556 -0.05669833 -0.040597256 0.13188599 -0.058161404 0.05823481 -0.10912049
-0.09948078 -0.16338937 -0.08879376 0.047074165 0.09071682 0.042571347 -0.075275 0.037873328
0.036106482 0.034896214 -0.11520571 -0.027480427 -0.041843046 -0.117376454 -0.025082882 0.0128545705
-0.0894212 -0.112168275 -0.083136566 -0.020490361 0.028221115 -0.08226581 -0.06240598 0.15903112
-0.107095964 0.018714719 -0.045485295 -0.024390846 -0.03998073 0.03242862 0.0995201 0.13210626
-0.085534886 0.06489967 0.1486521 0.019293945 0.09447496 0.032869738 0.19425748 -0.006437708
0.051697705 0.07297084 -0.053519513 0.048416723 -0.024747057 -0.007592919 -0.0024587528 0.06926171
-0.014350123 -0.044573124 -0.017191669 -0.15840188 -0.023564326 0.047145925 -0.0048555187 0.05775755
0.04493504 -0.067889065 0.058220662 -0.02112993 0.09116332 -0.007977215 -0.046676278 -0.05164508
0.059700783 -0.04262828 -0.113290235 -0.13982236 0.060545456 -0.10625519 -0.047817916 0.07275431
0.007208203 0.04732428 -0.11900917 -0.08287266 0.08492492 0.07263245 -0.1069025 0.07183908
-0.06611461 -0.039585274 0.042259216 0.13970752 0.1333502 0.0764147 0.026437858 -0.08429758
-0.04261873 0.11590055 -0.07007733 -0.007055771 -0.1482558 0.07014263 0.0048826654 0.06426251
-0.09057497 -0.114552155 0.10170208 0.006834146 -0.010753151 0.07385773 -0.061430067 -0.040718857
0.047307886 0.060342144 0.066688895 -0.11024906 -0.013564755 0.06602306 0.12390462 -0.07992144
0.009035202 -0.021678243 0.01838085 0.0023834456 0.15453754 -0.109527364 -0.12728283 0.08099924
0.019450968 0.041489087 -0.02640807 0.0695775 0.111958876 -0.084091574 0.01696247 0.0389628
00000000: a180 cabd cacb 42bd fd58 943d 9db6 f8bd
00000010: 4911 04be 3e7c cdba 73a0 73bd 69eb 73bc
00000020: 0bd4 17be 0f89 883d 728c a3bd 04d7 09bd
00000030: 501f 4e3d f94b 01bd 1884 173d e85a 10bd
00000040: 226c 16bd f0cb e53d 1d8c d2bd fedf 92bd
00000050: edf2 a33d e144 bbbd f1a3 09be 08e6 a03d
00000060: 8c75 21bd 8e0b 4ebd ef63 013e 4983 b03a
00000070: e063 d7bd 9555 8e3d 0bae 6b3c 120d eb3d
00000080: 3f63 043e 5037 cfbc 9f20 a2bd bfe6 a2bc
00000090: 70a2 a53d ba1a 4cbc 6ef7 84bd 2794 9dbd
000000a0: 2ecc 50bd 6c14 afbd c431 e9bd 8541 f23d
000000b0: 79ce d5bd c912 22bc 7064 953d 807a 29bd
000000c0: ad00 e53d 52c9 c23d 3737 783d ec39 023d
000000d0: 036b c03c 2107 953d 6e98 503d 8a4d 42be
000000e0: c18a 05be 2dea 02be eb97 8b3d 4f33 a23c
000000f0: 708a f6bd 927c 9bbd f14a 2fbd d4a2 92bc
00000100: 6572 d83d 97d7 f93a b99b ef3d 85d5 0b3d
00000110: 2151 6dbd 6007 f93c 4d9d ad3d d128 adbc
00000120: cbde 713d 0029 08be bbed 9fbc 6139 303d
00000130: 03c7 f23d 5a88 b9bd bca6 ce3d d0dc 263d
00000140: d69d a73d 9757 a33d e5c9 1bbd fd6f 3cbd
00000150: 9112 2c3d a4c1 e8bc d42c 9b3d 27fa 223d
00000160: 0447 10bd a1e0 f23d 44d5 3a3d 4901 e1bc
00000170: dadd c9bd 03f3 94bb 4aae a83c fe29 e3bd
00000180: 6e81 213d c7ea c1bc b2f5 193e f08d 8ebd
00000190: 77fe fa3d 83c6 663d 5824 c2bd 17f6 e2bd
000001a0: 51ec c73d 625e 543c 7c42 29bc 6558 3a3d
000001b0: fda1 b0bd 6234 f6bc b962 e7bb 3230 283e
000001c0: 41fb 083d a6f3 b03c df81 bf3d 7ac2 a9bd
000001d0: 9f66 afbd 8534 993d 448e 0c3d 4209 51bd
000001e0: 7adb b8bd 85b7 d63c 823c 68bd 4f49 26bd
000001f0: 1f0d 073e a73a 6ebd a087 6e3d 907a dfbd
00000200: 94bc cbbd 8b4f 27be 81d9 b5bd d7d0 403d
00000210: bdc9 b93d 4b5f 2e3d c729 9abd 1021 1b3d
00000220: 64e4 133d 55ef 0e3d f9f0 ebbd a21e e1bc
00000230: 9d63 2bbd 1163 f0bd 9e7a cdbc fa9b 523c
00000240: 7622 b7bd 7bb8 e5bd 8143 aabd 67db a7bc
00000250: f82f e73c fa7a a8bd 6a9d 7fbd 0ed9 223e
00000260: 2155 dbbd 9c4f 993c ca4e 3abd 50cf c7bc
00000270: d5c2 23bd dfd3 043d 32d1 cb3d dd46 073e
00000280: ea2c afbd 1eea 843d 4238 183e 560e 9e3c
00000290: 167c c13d 6ba2 063d 6feb 463e 69f3 d2bb
000002a0: f9c0 533d bc71 953d 4737 5bbd 9d50 463d
000002b0: 57ba cabc 05ce f8bb 0723 21bb 15d9 8d3d
000002c0: c71c 6bbc 4f92 36bd 8bd5 8cbc 1a34 22be
000002d0: f909 c1bc 161c 413d 0b1b 9fbb 2e93 6c3d
000002e0: ce0d 383d 6c09 8bbd ca78 6e3d ad18 adbc
000002f0: d6b3 ba3d ddb2 02bc a02f 3fbd cb89 53bd
00000300: cf88 743d fe9a 2ebd b604 e8bd 982d 0fbe
00000310: 83fe 773d 529c d9bd b8dc 43bd 3600 953d
00000320: ca32 ec3b 1bd7 413d 14bb f3bd 24b9 a9bd
00000330: 1eed ad3d 52c0 943d b3ef dabd 5e20 933d
00000340: 1967 87bd 2b24 22bd 0018 2d3d 7d0f 0f3e
00000350: f48c 083e 4f7f 9c3d 3594 d83c 36a4 acbd
00000360: fa90 2ebd 445d ed3d b484 8fbd 1934 e7bb
00000370: 5ed0 17be f0a6 8f3d c4fe 9f3b 109c 833d
00000380: 5f7f b9bd 529a eabd 2e49 d03d f9f0 df3b
00000390: fc2d 30bc b942 973d 189e 7bbd d1c8 26bd
000003a0: eac5 413d 5329 773d 3094 883d 42ca e1bd
000003b0: b53e 5ebc 1937 873d b5c1 fd3d daad a3bd
000003c0: 6208 143c 9296 b1bc 7093 963c 9533 1c3b
000003d0: 173f 1e3e e24f e0bd 6e56 02be eee2 a53d
000003e0: a357 9f3c 76f0 293d bd55 d8bc a67e 8e3d
000003f0: b24a e53d 3438 acbd e1f4 8a3c 7597 1f3d

embedding.embedding_network.0.bias f4 [128]
-7.6389166e-05 -3.2513606e-05 -4.070643e-06 -6.831121e-05 -2.8524326e-05 -3.35438e-05 2.9744342e-05 8.685973e-06
2.5117157e-05 -8.927662e-06 -3.1139643e-06 7.966704e-05 1.6355829e-05 -8.014347e-06 -6.9724438e-06 -1.8563028e-06
-5.3169893e-05 2.5960395e-05 -9.011342e-07 1.6940226e-05 1.6843751e-05 -2.439614e-05 6.0529972e-05 -1.1650154e-05
-3.398197e-05 1.5127822e-05 2.8317703e-05 0.0001438023 -3.311568e-05 -0.00013831134 4.9832546e-05 5.411031e-06
3.7239646e-05 8.14924e-05 -3.563741e-05 -5.130761e-05 -1.7536107e-05 2.3433897e-05 6.764836e-05 2.1746771e-05
6.717488e-05 -1.3381925e-05 -3.89855e-05 8.22159e-06 0.00012392091 -8.872399e-05 -4.5680936e-05 -9.2671085e-05
-2.6835336e-05 -0.00011323283 4.782668e-05 5.126615e-06 4.1516167e-05 -7.694082e-05 -6.4830856e-05 -3.173306e-05
-1.8101122e-05 -1.0577826e-06 8.758511e-06 3.0275522e-05 -4.1757965e-05 2.9400671e-05 -3.9436585e-05 -4.5954534e-05
5.195173e-05 1.663806e-05 8.835545e-05 8.594245e-06 9.717607e-06 -4.035628e-05 -2.7703965e-05 2.0612943e-05
-4.0368213e-05 1.2548355e-05 -2.6823676e-05 1.1060227e-05 -5.330117e-05 -1.6394297e-05 -5.9420905e-05 7.919803e-05
5.18544e-06 -1.3857205e-05 2.7460823e-05 1.4873134e-06 -6.513812e-05 -1.547964e-05 2.3134051e-05 -2.5421597e-05
7.080361e-05 1.4000085e-05 -4.4177476e-05 -6.0575658e-05 -1.3318501e-05 8.858622e-06 -3.9156468e-05 -4.8913822e-05
2.3149332e-05 -8.263998e-05 1.41578585e-05 3.8298276e-07 -4.180153e-05 3.7002945e-07 -2.8932527e-05 0.00013448729
2.0515792e-05 -8.282987e-06 -8.916347e-05 1.3747945e-06 -1.1896034e-05 -1.5927995e-05 2.0169482e-05 -3.6565558e-05
1.5417623e-06 -8.590214e-06 3.871561e-05 4.9349837e-06 -1.8924766e-05 1.6042204e-05 1.9328098e-05 1.5560454e-05
5.2457963e-06 -4.6680638e-05 -9.729755e-06 3.0768927e-06 -3.3798526e-05 -4.5741395e-05 -3.259534e-05 3.2060725e-05
00000000: 1f33 a0b8 385f 08b8 8f96 88b6 4d42 8fb8
00000010: 8647 efb7 62b1 0cb8 7d83 f937 f8b9 1137
00000020: afb2 d237 04c8 15b7 80f9 50b6 eb12 a738
00000030: e033 8937 5c75 06b7 d6f4 e9b6 1426 f9b5
00000040: bd02 5fb8 86c5 d937 78e5 71b5 dc1a 8e37
00000050: ae4b 8d37 50a6 ccb7 90e1 7d38 0875 43b7
00000060: dd87 0eb8 80cd 7d37 ce8b ed37 a3c9 1639
00000070: b1e5 0ab8 ab07 11b9 4a03 5138 6790 b536
00000080: c431 1c38 e6e6 aa38 6179 15b8 2033 57b8
00000090: 811a 93b7 e993 c437 70de 8d38 d66c b637
000000a0: 3de0 8c38 ee82 60b7 5d84 23b8 76ef 0937
000000b0: c4f0 0139 5411 bab8 8899 3fb8 6958 c2b8
000000c0: 721c e1b7 6a77 edb8 8299 4838 4a05 ac36
000000d0: a521 2e38 4a5b a1b8 cdf5 87b8 1d19 05b8
000000e0: ddd7 97b7 22f9 8db5 85f1 1237 30f8 fd37
000000f0: 4625 2fb8 76a1 f637 b668 25b8 4ebf 40b8
00000100: bfe6 5938 f691 8b37 794b b938 0030 1037
00000110: ce08 2337 3a44 29b8 d065 e8b7 f5e9 ac37
00000120: 0a51 29b8 c686 5237 6803 e1b7 508f 3937
00000130: b28f 5fb8 7c86 89b7 b63a 79b8 1e17 a638
00000140: 97fe ad36 3e7c 68b7 ab5b e637 b39f c735
00000150: c39a 88b8 46da 81b7 ff0f c237 7740 d5b7
00000160: 667c 9438 e8e1 6a37 344b 39b8 9e12 7eb8
00000170: 8772 5fb7 7e9f 1437 f03b 24b8 d128 4db8
00000180: d030 c237 004f adb8 8a87 6d37 c09c cd34
00000190: 0d54 2fb8 76a8 c634 21b4 f2b7 2805 0d39
000001a0: 5419 ac37 29f7 0ab7 46fd bab8 9485 b835
000001b0: 1495 47b7 1c9d 85b7 a231 a937 f85d 19b8
000001c0: 8dee ce35 b01e 10b7 9262 2238 3097 a536
000001d0: a0c0 9eb7 5f92 8637 c622 a237 d287 8237
000001e0: 0c05 b036 f4ca 43b8 fb3c 23b7 9d7c 4e36
000001f0: e4c2 0db8 73da 3fb8 fbb6 08b8 f178 0638

embedding.embedding_network.1.weight f4 [128]
0.98808473 1.0333467 0.9767743 1.0033437 0.97621244 1.0185618 0.94733936 1.0064701
0.9820741 0.97748643 0.9834363 0.9677389 1.0068223 0.99897796 0.9809518 0.9938356
1.0330446 0.99069196 1.0309727 0.9950899 1.0223888 1.0126616 1.0094565 0.96629936
0.9893611 0.9695482 1.027318 1.0298423 0.9800047 0.98142153 1.0038506 0.9648648
0.96303964 0.98637503 0.9569054 0.99768955 1.0239295 1.0057737 1.0096816 0.97299564
0.99246746 1.0409281 1.0058037 0.9866846 0.99555486 1.0210469 1.0362152 1.0454446
0.95327646 1.0274122 1.0321448 1.0044688 0.99366766 0.99622697 1.0053746 1.0145062
0.96470815 0.96378404 0.93342763 1.0099001 1.0416677 1.027519 1.0030934 1.0176401
0.97174615 0.9469662 0.96647227 0.9987798 0.9706665 1.0199188 0.9906582 1.0393198
1.070174 0.94783807 0.97207433 1.025497 0.94042385 0.9920349 1.0185174 1.0197572
1.000128 0.9827147 1.0305952 1.0252831 1.0238909 1.0015315 0.9592358 0.9899334
1.0206052 0.9814217 1.0095475 1.0031695 0.9817066 0.93860334 0.95652217 0.9959641
1.0036403 1.0045092 1.0215112 1.0426078 0.98967683 1.0310749 1.0327222 1.0081208
0.9571148 0.9990916 1.0246378 0.98239005 1.0041144 0.9739423 1.0109838 1.0177218
0.9968655 0.96735203 0.93573314 0.99310464 1.0301952 1.0089716 1.0159025 1.020795
0.946516 1.0440484 0.94173896 0.9786609 1.0119174 0.9673872 0.9747912 0.9802823
00000000: 1ff3 7c3f b444 843f e10d 7a3f 916d 803f
00000010: 0fe9 793f 3c60 823f d584 723f 03d4 803f
00000020: 3569 7b3f 8d3c 7a3f 7bc2 7b3f bdbd 773f
00000030: 8edf 803f 05bd 7f3f a81f 7b3f 036c 7e3f
00000040: ce3a 843f fd9d 7d3f eaf6 833f 36be 7e3f
00000050: a3dd 823f e59e 813f df35 813f 655f 773f
00000060: c546 7d3f 5034 783f 287f 833f dfd1 833f
00000070: 97e1 7a3f 713e 7b3f 2d7e 803f 6101 773f
00000080: c489 763f 1383 7c3f c1f7 743f 9568 7f3f
00000090: 1f10 833f 31bd 803f 3f3d 813f 3e16 793f
000000a0: 5912 7e3f 223d 853f 2dbe 803f 5d97 7c3f
000000b0: afdc 7e3f aab1 823f b3a2 843f 21d1 853f
000000c0: ed09 743f 3e82 833f 521d 843f 6f92 803f
000000d0: 0161 7e3f bb08 7f3f 1db0 803f 57db 813f
000000e0: 1df7 763f 8dba 763f 1df5 6e3f 6844 813f
000000f0: 5e55 853f be85 833f 5d65 803f 0842 823f
00000100: 5bc4 783f 606c 723f ba6a 773f 08b0 7f3f
00000110: 9a7d 783f b38c 823f c79b 7d3f 6e08 853f
00000120: 76fb 883f 84a5 723f ddd9 783f 7c43 833f
00000130: 9ebf 703f 00f6 7d3f c75e 823f 6787 823f
00000140: 3204 803f 3193 7b3f 8bea 833f 7a3c 833f
00000150: db0e 833f 2f32 803f 7a90 753f 466c 7d3f
00000160: 31a3 823f 743e 7b3f da38 813f dc67 803f
00000170: 2051 7b3f 4f48 703f a3de 743f 81f7 7e3f
00000180: 4977 803f c293 803f e1c0 823f 2c74 853f
00000190: 765b 7d3f 43fa 833f 3e30 843f 1a0a 813f
000001a0: 7a05 753f 78c4 7f3f 5527 833f ea7d 7b3f
000001b0: d286 803f 4854 793f eb67 813f b544 823f
000001c0: 9432 7f3f 62a4 773f 358c 6f3f 1b3c 7e3f
000001d0: 70dd 833f fb25 813f 1809 823f 69a9 823f
000001e0: df4e 723f 61a3 853f ce15 713f 8589 7a3f
000001f0: 8286 813f b0a6 773f eb8b 793f c8f3 7a3f

embedding.embedding_network.1.bias f4 [128]
0.011175542 0.03780942 0.0036610938 0.052706614 0.021588879 0.049576443 -0.04137924 0.057986822
0.027566515 0.03749544 0.029724 -0.013837569 0.03970662 0.03804727 0.02467842 0.01346353
0.058594305 0.0042427187 0.05061911 0.038455218 0.03333487 0.02882483 0.013872771 -0.0027376702
0.01994012 0.0032068181 0.04332317 0.070298314 -0.01229707 0.0082342895 0.040258516 -0.0004080615
-0.021816907 0.023144787 0.011821957 0.023388512 0.03936884 0.010520903 0.04002049 0.010772465
0.023373077 0.06423224 0.045926966 -0.017909205 0.02180937 0.06726388 0.04624877 0.06292781
-0.02853712 0.049249392 0.049945466 0.03394941 0.04058969 0.06445145 0.031666536 0.031584818
0.007326373 -0.01680405 -0.051550552 0.038035836 0.01935583 0.04982596 0.043271925 -0.0016482302
0.008103688 -0.00049951614 -0.010373745 0.033078987 -0.004543634 0.054966215 0.038398065 0.07718628
0.08976937 0.0027285244 -0.0063304086 0.05277664 -0.019456197 0.027625663 0.07918199 0.023288423
0.015491279 -0.003974617 0.08180145 0.010466147 0.07403191 0.0486398 -0.007076581 0.021703666
0.0049969824 0.013010256 0.023813128 0.04373142 -0.008151199 -0.014318798 -0.011619941 0.047309067
0.053283818 0.020552384 0.055103697 0.091372125 5.1062147e-05 0.034911867 0.015784247 0.028881181
-0.015878089 0.018097773 0.064973295 -0.015141146 0.046263307 -0.004592681 0.002601907 0.075100385
0.029676268 -0.014673859 -0.047452226 0.0063743936 0.0629076 0.04043519 0.05101101 0.02151316
-0.034639165 0.059359577 -0.045867577 -0.0011906065 0.06581345 0.0189576 0.005034436 0.00968813
00000000: 9f19 373c 0dde 1a3d f6ee 6f3b e4e2 573d
00000010: 29db b03c ab10 4b3d 477d 29bd 9783 6d3d
00000020: 2cd3 e13c d294 193d bf7f f33c f9b6 62bc
00000030: 69a3 223d 74d7 1b3d 662a ca3c 2396 5c3c
00000040: 9500 703d 8106 8b3b fc55 4f3d 3883 1d3d
00000050: 258a 083d 0d22 ec3c 9e4a 633c 7c6a 33bb
00000060: 7659 a33c 7b29 523b a373 313d 90f8 8f3d
00000070: a679 49bc 1de9 063c 1de6 243d 16f1 d5b9
00000080: 5fb9 b2bc 239a bd3c e2b0 413c 4499 bf3c
00000090: 3941 213d de5f 2c3c 86ec 233d fe7e 303c
000000a0: e578 bf3c 318c 833d ea1d 3c3d 53b6 92bc
000000b0: 90a9 b23c a5c1 893d 5a6f 3d3d 4ce0 803d
000000c0: aec6 e9bc bbb9 493d 9e93 4c3d 890e 0b3d
000000d0: 6041 263d 1fff 833d c5b4 013d 155f 013d
000000e0: 1212 f03b a6a8 89bc ac26 53bd 77cb 1b3d
000000f0: 1e90 9e3c 4e16 4c3d e73d 313d 6e09 d8ba
00000100: 55c5 043c f6f1 02ba a4f6 29bc d57d 073d
00000110: c4e2 94bb 4124 613d 4a47 1d3d d713 9e3d
00000120: 01d9 b73d 0bd1 323b 516f cfbb 512c 583d
00000130: 9a62 9fbc 374f e23c 2b2a a23d 5dc7 be3c
00000140: 22cf 7d3c 813d 82bb 8587 a73d 347a 2b3c
00000150: 0b9e 973d 873a 473d aae2 e7bb e3cb b13c
00000160: babd a33b f828 553c c013 c33c b81f 333d
00000170: 9b8c 05bc 6499 6abc 9161 3ebc 27c7 413d
00000180: 2240 5a3d 795d a83c 6ab4 613d 4f21 bb3d
00000190: 902b 5638 bfff 0e3d f74d 813c 3a98 ec3c
000001a0: c412 82bc c841 943c b810 853d 9212 78bc
000001b0: 987e 3d3d 337e 96bb c184 2a3b 3bce 993d
000001c0: a51b f33c a06a 70bc 445d 42bd 4ae0 d03b
000001d0: b3d5 803d 5f9f 253d ecf0 503d 5e3c b03c
000001e0: cce1 0dbd 0723 733d a4df 3bbd 200e 9cba
000001f0: 34c9 863d f84c 9b3c e9f7 a43b f6ba 1e3c

embedding.embedding_network.1.running_mean f4 [128]
0.00053659594 0.005768007 -0.0024398295 0.005377071 0.006380787 0.003950695 -0.0033693265 0.008440185
0.0045304773 -0.0045451405 -0.001136049 -0.00014647788 -0.00018817274 -0.00082411413 -0.008705207 -0.0015924941
-0.0036126813 0.0014943023 0.0026592358 -0.0057923673 0.00637824 -0.00477501 -0.0017326835 -0.00019695064
-0.003961783 0.0037171824 0.0032581359 -0.000822086 -0.002483873 -0.0069676214 -0.007157311 0.00012117114
-0.00041485668 -0.012089175 0.0018783226 0.0010514777 -0.0053093107 0.004946418 0.0016874514 0.0019095625
-0.0033057176 0.0060166884 0.008703419 -0.00020687579 -0.004572676 0.004672826 0.008304434 -0.00024917256
0.0004976737 0.00434805 -0.002873273 -0.008638722 0.00018000382 0.0048497044 -0.006424241 0.0008915778
-0.0017259277 -0.00016050973 -0.002834631 -0.0012890202 0.0028055187 -0.0042947987 -0.0020272136 0.0021422424
0.00039311178 0.0010387573 -0.0009976379 0.004901583 0.0023299472 0.0058675283 -0.009029291 -0.004203722
-0.0035119266 0.0006637524 0.0020171143 -0.008669637 -0.001372468 0.002385984 0.0012441067 0.0035502925
-0.00494072 -0.002309783 0.00464687 -0.008123733 0.0014510603 -0.0042738533 0.0005912461 -0.00095027377
0.00019486451 0.0060657114 -0.001156333 -0.0031034385 -0.0036652605 0.00041996897 0.0048789373 -0.0033117312
0.0021728117 0.0032953795 -0.0051183403 -0.006826954 0.001998187 -0.0011338387 -0.00030619177 0.0027608941
-0.000990897 -0.0021799235 0.002195004 0.0053793686 0.0024052663 -0.0047825114 0.0055752867 0.0024674614
-0.0054727327 0.0035491018 -0.0015904099 0.007341154 0.0029375316 -0.002970145 -0.0051077097 -0.003664787
-0.0053659207 0.0075286613 -0.0040827156 0.00094384665 -0.0036834602 -0.005007743 0.0018282689 0.00048796614
00000000: 58aa 0c3a 8d01 bd3b 8ce5 1fbb 2432 b03b
00000010: ec15 d13b d574 813b ebcf 5cbb b448 0a3c
00000020: 6674 943b 67ef 94bb 7be7 94ba db97 19b9
00000030: 3c50 45b9 5d09 58ba 49a0 0ebc 3cbb d0ba
00000040: bcc2 6cbb 77dc c33a 9346 2e3b e6cd bdbb
00000050: 8e00 d13b b077 9cbb 361b e3ba 8984 4eb9
00000060: d8d1 81bb f99b 733b 7386 553b 4281 57ba
00000070: 79c8 22bb a550 e4bb e087 eabb 431d fe38
00000080: 1f81 d9b9 ad11 46bc 0c32 f63a bdd1 893a
00000090: baf9 adbb 9015 a23b 792d dd3a 494a fa3a
000000a0: bda4 58bb a427 c53b c998 0e3c ccec 58b9
000000b0: 63d6 95bb 811e 993b 520f 083c 60a3 82b9
000000c0: 5176 023a 167a 8e3b 864d 3cbb 6d89 0dbc
000000d0: 68bf 3c39 45ea 9e3b 7082 d2bb c6b8 693a
000000e0: 8638 e2ba 814e 28b9 37c5 39bb 57f4 a8ba
000000f0: cbdc 373b 62bb 8cbb 00db 04bb dd64 0c3b
00000100: 921a ce39 e926 883a 2cc3 82ba 759d a03b
00000110: 07b2 183b 6544 c03b 97ef 13bc 60bf 89bb
00000120: 5a28 66bb abff 2d3a 9031 043b 180b 0ebc
00000130: 62e4 b3ba 2b5e 1c3b 4b11 a33a 06ac 683b
00000140: c3e5 a1bb ba5f 17bb c544 983b 6819 05bc
00000150: 8131 be3a ae0b 8cbb dbfd 1a3a cb1b 79ba
00000160: 8b54 4c39 e0c2 c63b 1990 97ba 0f63 4bbb
00000170: de34 70bb 482f dc39 7edf 9f3b a109 59bb
00000180: bb65 0e3b 4bf7 573b c0b7 a7bb a4b4 dfbb
00000190: 04f4 023b 509d 94ba 5d88 a0b9 1ef0 343b
000001a0: fce0 81ba 0cdd 0ebb 0eda 0f3b 6a45 b03b
000001b0: aca1 1d3b 9db6 9cbb e5b0 b63b 22b5 213b
000001c0: 9c54 b3bb 0c98 683b 4d75 d0ba 108e f03b
000001d0: 9a83 403b c4a6 42bb 935e a7bb ec2c 70bb
000001e0: 9bd4 afbb fdb2 f63b 4dc8 85bb 7a6c 773a
000001f0: 3566 71bb fe17 a4bb 86a2 ef3a b5d5 ff39

embedding.embedding_network.1.running_var f4 [128]
0.01017068 0.026302528 0.009457351 0.011021104 0.009506377 0.01552209 0.008580195 0.012177005
0.006758924 0.011587129 0.018019494 0.0058723493 0.01201095 0.0124754105 0.013488892 0.019689325
0.021051211 0.007342911 0.017569842 0.013820914 0.014515853 0.011946777 0.0128513975 0.008616092
0.018154267 0.011801803 0.023284698 0.013008522 0.022200024 0.016933724 0.012262843 0.013439453
0.010485973 0.010787503 0.0079204785 0.013301954 0.012660297 0.013181322 0.011960207 0.012004966
0.009395275 0.022781251 0.020811075 0.016956104 0.015788104 0.016047994 0.022576537 0.020176223
0.009057734 0.014140469 0.018594382 0.018370507 0.010522228 0.011631086 0.015892096 0.018416587
0.012978077 0.010645325 0.008035013 0.014040512 0.018283172 0.016692191 0.012757596 0.015213278
0.012494049 0.01016935 0.008258448 0.014772864 0.01163563 0.013817225 0.010031919 0.01919766
0.026090967 0.008436447 0.019970467 0.019236494 0.00786395 0.0050640316 0.016225448 0.01828602
0.017190551 0.012611207 0.019178959 0.017037613 0.011142917 0.015642608 0.018398382 0.016147561
0.023267984 0.011597883 0.013585967 0.016180027 0.013986079 0.008475121 0.015351218 0.009534211
0.011647149 0.011315714 0.013540898 0.012400272 0.013381352 0.018671848 0.020378795 0.0137939565
0.013266833 0.010742998 0.021811 0.012916599 0.019942105 0.015213089 0.01937581 0.011302999
0.015266014 0.014381641 0.008120966 0.017147038 0.017969197 0.017176326 0.015818495 0.0143694235
0.008107031 0.029852657 0.011458249 0.008995717 0.013644857 0.01146945 0.0065508424 0.01118375
00000000: eca2 263c 6678 d73c 01f3 1a3c dc91 343c
00000010: a3c0 1b3c 5d50 7e3c f293 0c3c 1082 473c
00000020: f779 dd3b f1d7 3d3c 9e9d 933c d66c c03b
00000030: 93c9 443c aa65 4c3c 8300 5d3c 824b a13c
00000040: 9773 ac3c cd9c f03b a1ee 8f3c 1d71 623c
00000050: e6d3 6d3c 6abc 433c ab8e 523c 822a 0d3c
00000060: 42b8 943c 595c 413c 8dbf be3c b221 553c
00000070: d3dc b53c 98b8 8a3c 17ea 483c 2731 5c3c
00000080: 5ccd 2b3c 11be 303c e5c4 013c 70f0 593c
00000090: 226d 4f3c 79f6 573c bef4 433c 7ab0 443c
000000a0: a4ee 193c bf9f ba3c fd7b aa3c 87e7 8a3c
000000b0: 0e56 813c 1577 833c 6ef2 b83c 9b48 a53c
000000c0: e466 143c 6dad 673c 3f53 983c bf7d 963c
000000d0: 6c65 2c3c 4f90 3e3c 2430 823c 62de 963c
000000e0: 00a2 543c bb69 2e3c 4aa5 033c 2d0a 663c
000000f0: 97c6 953c 10be 883c 3c05 513c 1d41 793c
00000100: d7b3 4c3c 589d 263c 714e 073c e209 723c
00000110: 5fa3 3e3c a461 623c eb5c 243c 6944 9d3c
00000120: b9bc d53c 0639 0a3c 1b99 a33c da95 9d3c
00000130: ccd7 003c 2df0 a53b 3beb 843c 90cc 953c
00000140: 33d3 8c3c 3c9f 4e3c 311d 9d3c 7792 8b3c
00000150: c890 363c ed24 803c 34b8 963c e447 843c
00000160: 809c be3c 0c05 3e3c ad97 5e3c fa8b 843c
00000170: de25 653c 3cdb 0a3c ad83 7b3c 6135 1c3c
00000180: afd3 3e3c 8b65 393c a5da 5d3c 832a 4b3c
00000190: 753d 5b3c b4f5 983c 6ef1 a63c 0c00 623c
000001a0: 215d 593c 6603 303c fbac b23c 25a0 533c
000001b0: a05d a33c 5240 793c 05ba 9e3c 3730 393c
000001c0: 4e1e 7a3c f9a0 6b3c cd0d 053c f277 8c3c
000001d0: 2334 933c 5eb5 8c3c ca95 813c bb6d 6b3c
000001e0: 5ad3 043c 8f8d f43c 61bb 3b3c c662 133c
000001f0: ae8e 5f3c 5cea 3b3c 73a8 d63b 0c3c 373c

embedding.embedding_network.4.weight f4 [64, 128]
-0.011832455 0.07013846 0.009330955 -0.044714086 0.052242666 -0.12534404 -0.028789071 0.03137037
-0.101102546 0.02008189 -0.02850009 0.043653917 0.05457653 0.032247316 0.041589227 0.09036543
-0.01613646 0.025492685 -0.018702513 -0.05663243 0.07851046 -0.013460902 -0.12384053 -0.11144271
0.024892882 0.057236247 0.04492046 -0.0064588687 -0.08382371 -0.05348212 0.026101138 -0.032890115
-0.07993334 -0.003988539 -0.02485466 0.0993081 -0.031480417 -0.025728839 0.06579234 0.05330471
-0.068709366 -0.044765327 0.04681719 0.023491938 -0.1088903 -0.035675414 -0.012620182 0.020790527
0.054162096 0.04206436 -0.027543077 -0.03187719 -0.08193248 -0.036831394 0.06551915 -0.08823291
-0.0906079 0.06698974 0.0020448733 0.027079089 0.014041166 0.019658225 0.0676124 -0.029864836
0.09332214 -0.017102225 0.06775245 0.07419291 -0.025130004 -0.084429994 -0.092971906 0.0009411017
-0.010884461 0.020510294 0.044967283 -0.020305991 -0.01387539 -0.056309745 0.015234807 0.026898164
0.018073559 0.036017455 -0.029023796 -0.0049061854 0.04774128 0.022865262 -0.027208261 0.12690781
-0.069413014 0.03467361 -0.072739385 0.032055512 0.026637278 0.042280443 0.070530005 0.06477579
0.050227456 -0.08926924 0.07293225 0.02224562 0.019875525 0.0035217686 0.03329871 0.020844758
-0.077493064 -0.10247707 0.042591307 0.07564195 -0.04404927 -0.04853523 -0.059676085 -0.10210853
0.06309394 -0.03416468 0.0013414412 0.08254274 0.051905807 -0.046267413 -0.09354727 0.06402582
0.0647619 0.024799757 -0.05364171 0.011386875 0.036201477 0.084715195 -0.0011893034 0.06769629
0.035226863 0.0052968455 -0.095200956 0.029638244 0.02422151 0.008600626 0.09065881 0.030561097
-0.038908385 0.017500058 -0.026908755 0.085198864 -0.00090791617 -0.028473519 0.05761834 -0.030856458
-0.07427441 0.022925764 -0.027810356 0.014439915 -0.02110266 -0.06586254 -0.035602827 -0.094694026
-0.062891245 0.015571738 -0.092644244 0.0067336555 0.029189952 -0.020748565 0.03036727 -0.016613467
0.033582095 0.0932033 0.07273278 -0.07410267 0.022720668 -0.0801823 -0.088582665 -0.001609901
-0.040562183 -0.09580053 -0.10334487 -0.13580239 -0.06513268 -0.13831784 -0.13979554 -0.006965456
0.05093082 0.05254464 0.07192125 -0.005686954 -0.038055096 0.031058578 -0.010729914 -0.07569015
-0.026265007 -0.055719722 0.031230832 0.08842086 -0.08160431 0.03421979 0.063844144 -0.07355241
0.013560173 -0.027316697 0.09374623 -0.026083177 -0.031633053 -0.0426761 0.0055702897 -0.05748227
-0.025055708 -0.0027528265 0.030378055 0.010441004 -0.0051996377 -0.07947217 0.03176685 0.02484728
0.007563337 -0.009358698 -0.083897635 -0.08092432 0.007851397 -0.019003574 -0.03221545 0.04522693
-0.024000805 0.038609393 0.0041534915 -0.0436309 0.020667236 0.017355286 0.032026783 -0.082070455
0.037694257 0.056096837 0.09213711 -0.022145225 -0.075159125 -0.04295978 0.017908545 -0.042553402
-0.03903274 -0.05343192 -0.03699726 -0.082213566 0.016001845 0.016747888 0.031825863 -0.04470816
0.07855404 -0.041185748 -0.06250287 -0.05415147 0.08306904 -0.11616765 -0.06221004 -0.035836723
-0.046423618 -0.05582143 0.08521151 0.06810021 -0.05348182 -0.0008447492 -0.06395346 0.010840365
00000000: eadc 41bc c1a4 8f3d dde0 183c 1e26 37bd
00000010: 68fc 553d 305a 00be 0fd7 ebbc 387e 003d
00000020: da0e cfbd c782 a43c 0579 e9bc 73ce 323d
00000030: a48b 5f3d c315 043d 7759 2a3d 8311 b93d
00000040: 9c30 84bc 09d6 d03c 0336 99bc 68f7 67bd
00000050: 18ca a03d 1d8b 5cbc 1ba0 fdbd 133c e4bd
00000060: 28ec cb3c 8e70 6a3d 84fe 373d eba4 d3bb
00000070: c4ab abbd 1110 5bbd 0ed2 d53c c9b7 06bd
00000080: 17b4 a3bd 4ab2 82bb 009c cbbc 0c62 cb3d
00000090: 9cf1 00bd 49c5 d2bc 22be 863d 0a56 5a3d
000000a0: 7fb7 8cbd d95b 37bd 62c3 3f3d 2a72 c03c
000000b0: e101 dfbd 6220 12bd e1c4 4ebc e550 aa3c
000000c0: 13d9 5d3d ae4b 2c3d 05a2 e1bc a891 02bd
000000d0: 37cc a7bd 84dc 16bd e72e 863d 75b3 b4bd
000000e0: a290 b9bd eb31 893d 4803 063b f7d4 dd3c
000000f0: eb0c 663c 490a a13c 5f78 8a3d 1aa7 f4bc
00000100: ae1f bf3d f719 8cbc ccc1 8a3d 74f2 973d
00000110: 70dd cdbc a2e9 acbd 0e68 bebd 44b4 763a
00000120: bd54 32bc 3405 a83c 9d2f 383d c058 a6bc
00000130: 9b55 63bc 0ca5 66bd 699b 793c 8a59 dc3c
00000140: 000f 943c 0a87 133d 50c3 edbc 11c4 a0bb
00000150: 5c8c 433d ee4f bb3c dce3 debc 1ff4 013e
00000160: 6928 8ebd ea05 0e3d 63f8 94bd a44c 033d
00000170: 6c36 da3c 422e 2d3d 0972 903d 2ba9 843d
00000180: 4ebb 4d3d cbd2 b6bd 815d 953d 723c b63c
00000190: ffd1 a23c 79cd 663b 3a64 083d a0c2 aa3c
000001a0: afb4 9ebd 80df d1bd 3974 2e3d 2bea 9a3d
000001b0: 026d 34bd e1cc 46bd e96e 74bd 471e d1bd
000001c0: 6537 813d 43f0 0bbd 4cd3 af3a 2b0c a93d
000001d0: 2f9b 543d e682 3dbd b695 bfbd f81f 833d
000001e0: e3a1 843d dc28 cb3c 69b7 5bbd 0490 3a3c
000001f0: 0048 143d 297f ad3d 66e2 9bba 5aa4 8a3d
00000200: 0b4a 103d 2991 ad3b b8f8 c2bd e7cb f23c
00000210: 306c c63c a4e9 0c3c 54ab b93d 445b fa3c
00000220: 665e 1fbd 485c 8f3c c06f dcbc be7c ae3d
00000230: 3901 6eba 4c41 e9bc 3501 6c3d afc6 fcbc
00000240: 2f1d 98bd d0ce bb3c 8bd2 e3bc 6595 6c3c
00000250: 7cdf acbc f0e2 86bd 45d4 11bd f1ee c1bd
00000260: 20cd 80bd 9a20 7f3c 44bc bdbd ffa5 dc3b
00000270: c41f ef3c e5f8 a9bc c8c4 f83c f718 88bc
00000280: 618d 093d 5fe1 be3d ecf4 943d 24c3 97bd
00000290: b220 ba3c 9e36 a4bd d46a b5bd 5003 d3ba
000002a0: 8824 26bd 1133 c4bd 7aa6 d3bd c80f 0bbe
000002b0: 4864 85bd 31a3 0dbe 9026 0fbe 7b3e e4bb
000002c0: d69c 503d 0c39 573d 734b 933d a159 babb
000002d0: a9df 1bbd 8f6e fe3c 85cc 2fbc 7003 9bbd
000002e0: b629 d7bc 5d3a 64bd cdd7 ff3c ff15 b53d
000002f0: 2920 a7bd 0d2a 0c3d b8c0 823d a5a2 96bd
00000300: 7d2b 5e3c 44c7 dfbc 06fe bf3d 63ac d5bc
00000310: a991 01bd 22cd 2ebd fa86 b63b 8772 6bbd
00000320: a141 cdbc c468 34bb 66db f83c bf10 2b3c
00000330: b961 aabb 4ec2 a2bd f51d 023d 868c cb3c
00000340: dfd5 f73b 3955 19bc 86d2 abbd a6bb a5bd
00000350: 25a3 003c 62ad 9bbc 59f4 03bd e03f 393d
00000360: 569d c4bc e224 1e3d 031a 883b 51b6 32bd
00000370: 564e a93c ac2c 8e3c 842e 033d 8e14 a8bd
00000380: 4b65 1a3d ccc5 653d 62b2 bc3d e769 b5bc
00000390: 07ed 99bd 98f6 2fbd f1b4 923c 7a4c 2ebd
000003a0: cbe0 1fbd 6edb 5abd 708a 17bd 965f a8bd
000003b0: 4d16 833c de32 893c d65b 023d e71f 37bd
000003c0: f1e0 a03d 63b2 28bd 8101 80bd efcd 5dbd
000003d0: 1a20 aa3d 4ee9 edbd f4cf 7ebd 87c9 12bd
000003e0: b126 3ebd 03a5 64bd 5f83 ae3d 1f78 8b3d
000003f0: c10f 5bbd 2972 5dba 08fa 82bd c99b 313c

embedding.embedding_network.4.bias f4 [64]
1.5662434e-05 -1.2578264e-06 1.9474732e-05 4.813644e-06 -7.982193e-06 6.4395044e-07 -2.1126205e-06 -1.17014315e-05
-1.657721e-05 8.512645e-06 -1.6758207e-05 -8.312015e-06 -2.0388385e-05 -9.125244e-06 -1.6731581e-05 -9.754398e-06
1.6124537e-06 -1.1452436e-05 1.0998564e-05 4.9341006e-06 -2.674616e-06 -6.052438e-06 -7.706353e-06 -4.6593777e-06
-3.448839e-06 -1.3326982e-05 -8.961248e-06 7.006452e-05 2.4452605e-05 -6.478399e-08 -1.1976692e-07 4.776148e-05
-1.2780245e-05 -8.583061e-06 9.854617e-06 2.4530516e-05 -1.6683787e-05 -2.7106775e-05 1.7190652e-05 -3.0008247e-05
-5.457707e-07 -5.559402e-05 1.4226035e-05 1.0924412e-05 2.4969622e-05 -2.6870373e-05 1.4431058e-05 -1.2723355e-05
2.6393118e-06 2.2995147e-05 -9.40248e-06 4.1560783e-05 4.5841152e-05 3.0693795e-06 1.3520696e-05 4.5402853e-06
-3.4229831e-06 3.751069e-05 1.0307849e-06 2.6271218e-06 -1.0922741e-05 1.6931837e-05 -1.4474268e-05 -1.6894337e-05
00000000: d262 8337 96d2 a8b5 ab5d a337 e384 a136
00000010: 42eb 05b7 f0db 2c35 8bc6 0db6 4451 44b7
00000020: 4a0f 8bb7 88d1 0e37 fa93 8cb7 d573 0bb7
00000030: b907 abb7 a018 19b7 cc5a 8cb7 d2a6 23b7
00000040: 7d6b d835 d723 40b7 7986 3837 9a8f a536
00000050: 8e7d 33b6 0c16 cbb6 894a 01b7 c057 9cb6
00000060: 9a72 67b6 f496 5fb7 4458 16b7 9aef 9238
00000070: 921f cd37 601f 8bb3 4899 00b4 8053 4838
00000080: bc6a 56b7 f7ff 0fb7 4255 2537 e2c6 cd37
00000090: 29f4 8bb7 5b63 e3b7 a534 9037 38ba fbb7
000000a0: 1481 12b5 a02d 69b8 5bac 6e37 fe47 3737
000000b0: db75 d137 b067 e1b7 ec1c 7237 6576 55b7
000000c0: 081f 3136 b4e5 c037 58bf 1db7 8d51 2e38
000000d0: 9045 4038 8afb 4d36 f2d6 6237 c158 9836
000000e0: 67b6 65b6 cc54 1d38 8059 8a35 9c4d 3036
000000f0: d140 37b7 d808 8e37 82d6 72b7 50b8 8db7

embedding.embedding_network.5.weight f4 [64]
0.87913585 0.87522644 0.8939927 0.88809365 0.88918084 0.9001493 0.89733875 0.8920051
0.9018176 0.88756865 0.8855515 0.87538123 0.93556154 0.89911515 0.9173874 0.919311
0.9384194 0.8832646 0.9033619 0.90967345 0.8939248 0.88133854 0.8853609 0.88813084
0.9384783 0.9312579 0.89410144 0.90057176 0.9083687 0.89163035 0.8862489 0.89892125
0.875552 0.90778 0.89997387 0.89176136 0.8772502 0.88063145 0.9386354 0.9176898
0.8806495 0.8882616 0.89327747 0.90485233 0.9185223 0.8996588 0.8978623 0.8921958
0.9086898 0.93107367 0.907939 0.91326797 0.90511215 0.91822565 0.93827116 0.88158906
0.87325585 0.87450576 0.89900506 0.87294734 0.8917736 0.888312 0.89567614 0.8839442
00000000: 0c0f 613f d70e 603f b5dc 643f 1b5a 633f
00000010: 5ba1 633f 2f70 663f feb7 653f 725a 643f
00000020: 85dd 663f b337 633f 81b3 623f fc18 603f
00000030: f680 6f3f 692c 663f e7d9 6a3f f757 6b3f
00000040: 413c 703f a11d 623f ba42 673f 5ce0 683f
00000050: 41d8 643f 679f 613f 03a7 623f 8b5c 633f
00000060: 1d40 703f eb66 6e3f d5e3 643f df8b 663f
00000070: da8a 683f e341 643f 35e1 623f b41f 663f
00000080: 2d24 603f 4564 683f b064 663f 794a 643f
00000090: 7893 603f 1071 613f 694a 703f b8ed 6a3f
000000a0: 3f72 613f 1d65 633f d5ad 643f 67a4 673f
000000b0: 4724 6b3f 0a50 663f 4eda 653f f266 643f
000000c0: e59f 683f d85a 6e3f b16e 683f eecb 693f
000000d0: 6eb5 673f d610 6b3f 8a32 703f d2af 613f
000000e0: b28d 5f3f 9cdf 5f3f 3225 663f 7a79 5f3f
000000f0: 464b 643f 6a68 633f 084b 653f 2b4a 623f

embedding.embedding_network.5.bias f4 [64]
-0.044744436 -0.00020073744 -0.043886535 -0.037302904 -0.022395452 -0.024336029 0.0011128793 0.014205335
0.02911191 -0.024989203 0.016838722 0.024805065 0.048286907 -0.0046899244 0.039707683 -0.015703697
0.047838744 -0.04216747 0.05706242 0.05134565 -0.014672805 -0.047673415 -0.03280216 0.02278852
0.0798847 0.0066651525 0.015233935 0.025419202 0.050347526 -0.01933734 0.026499359 -0.0025789486
-0.03202094 0.037415717 0.07566379 -0.031242637 -0.011863547 0.023806268 0.04325071 0.036904804
-0.039202753 -0.04688181 0.024042586 -0.030942466 0.042406447 0.013253082 0.043989833 -0.039768104
0.050517295 0.07383593 0.04939248 -0.03292189 0.044040754 -0.010837585 0.014376992 -0.047339566
-0.047542114 0.0042520203 0.039278254 -0.06776157 0.023319814 0.02978663 -0.016984968 -0.024315847
00000000: f145 37bd 0c7d 52b9 5ec2 33bd eeca 18bd
00000010: ab76 b7bc 5a5c c7bc 08de 913a 7ebd 683c
00000020: 1a7c ee3c 28b6 ccbc 5cf1 893c fe33 cb3c
00000030: 7ec8 453d f0ad 99bb 86a4 223d 0aa5 80bc
00000040: 8ff2 433d ccb7 2cbd 49ba 693d d14f 523d
00000050: 3466 70bc 3345 43bd 8f5b 06bd feae ba3c
00000060: 979a a33d 5a67 da3b c197 793c ee3b d03c
00000070: 3539 4e3d 5769 9ebc 2f15 d93c 9403 29bb
00000080: 6428 03bd 3941 193d 9ef5 9a3d 8ff0 ffbc
00000090: 535f 42bc 5d05 c33c a827 313d 7e29 173d
000000a0: 1193 20bd 2407 40bd f5f4 c43c 0e7b fdbc
000000b0: 62b2 2d3d 7423 593c af2e 343d e1e3 22bd
000000c0: 39eb 4e3d 4b37 973d c54f 4a3d 1bd9 06bd
000000d0: 1464 343d 2090 31bc 7a8d 6b3c 22e7 41bd
000000e0: 85bb 42bd 8854 8b3b 3ce2 203d 94c6 8abd
000000f0: 3209 bf3c 1703 f43c 0f24 8bbc 0732 c7bc

embedding.embedding_network.5.running_mean f4 [64]
0.04868824 -0.75334436 -0.33672404 -0.6337873 -0.26206017 -0.42018574 -0.19264501 -0.35021427
-0.6580305 -0.34115115 -0.8514653 -0.7805434 -0.45407683 -0.10149476 -0.48688582 -0.16889703
-0.57226104 -0.3532084 -0.6714685 -0.9141358 -0.5160744 0.114527486 -0.67966694 -0.68490446
-0.68646723 -0.22462499 -0.4740047 -0.7325788 -0.31070495 -0.7082863 -0.371658 -0.56389266
-0.59139675 -0.99914294 -0.77851313 0.26320243 -0.9085144 -0.7144906 -0.579065 -0.76748204
0.12883222 0.01314475 -1.0219136 -0.31885362 -0.26852512 -1.0504766 -0.24270801 -0.4375407
-0.67835194 -0.8908543 -0.7145628 -0.16609028 -1.0349107 -0.5165828 -0.14192736 -0.38591614
0.20167895 -0.9423114 -0.42093533 -0.41205803 -0.55962396 -0.2659923 -0.48483545 -0.6089356
00000000: 526d 473d 2ddb 40bf 1867 acbe e23f 22bf
00000010: c02c 86be 9622 d7be bc44 45be 494f b3be
00000020: b074 28bf 5dab aebe a1f9 59bf b1d1 47bf
00000030: c27c e8be 7cdc cfbd 1949 f9be 58f3 2cbe
00000040: b37f 12bf bbd7 b4be 5ce5 2bbf ce04 6abf
00000050: 741d 04bf 638d ea3d a7fe 2dbf e655 2fbf
00000060: 51bc 2fbf 1804 66be beb0 f2be 498a 3bbf
00000070: b814 9fbe 4052 35bf f549 bebe 455b 10bf
00000080: c765 17bf d5c7 7fbf a34c 47bf 78c2 863e
00000090: 6694 68bf dbe8 36bf 9b3d 14bf b479 44bf
000000a0: 98ec 033e 145d 573c 11ce 82bf c840 a3be
000000b0: 207c 89be 0476 86bf 7388 78be 5605 e0be
000000c0: 79a8 2dbf 070f 64bf 96ed 36bf 9213 2abe
000000d0: f477 84bf c53e 04bf 6855 11be cd96 c5be
000000e0: ed84 4e3e 523b 71bf d684 d7be 45f9 d2be
000000f0: 8443 0fbf 2530 88be 5a3c f8be 34e3 1bbf

embedding.embedding_network.5.running_var f4 [64]
0.7678972 0.7333658 1.32238 1.295241 0.94769025 0.7918233 0.8673811 1.1803043
1.4336364 0.7498041 1.2089937 0.88828886 1.01432 0.9423679 1.3324165 1.0485755
1.1756519 0.6950459 1.8265382 1.828038 1.2845477 0.5373873 1.0858806 0.8560147
1.3407974 0.7238525 1.2122215 1.0693945 1.0306967 1.0994691 1.1898167 1.1827462
1.4293596 1.1804397 1.7722787 0.69580597 0.85449123 1.3428587 1.3671366 1.0545865
0.7474523 0.94761276 1.3664788 0.6827861 1.001266 0.71527845 1.3725783 1.0370831
2.0200856 1.0533417 1.5664003 1.0217167 1.6306968 0.9777554 1.2032479 0.95064497
0.7286981 1.1400341 1.102252 0.5001918 1.0392942 1.4721119 0.88520604 0.7298921
00000000: e994 443f dcbd 3b3f bf43 a93f 75ca a53f
00000010: d49b 723f efb4 4a3f b00c 5e3f 3614 973f
00000020: 6681 b73f 29f3 3f3f 4ec0 9a3f e666 633f
00000030: 3dd5 813f 063f 713f a08c aa3f b937 863f
00000040: c37b 963f 87ee 313f 01cc e93f 26fd e93f
00000050: 0f6c a43f 3792 093f 23fe 8a3f c823 5b3f
00000060: 409f ab3f 664e 393f 132a 9b3f ebe1 883f
00000070: dfed 833f 67bb 8c3f ea4b 983f 3a64 973f
00000080: 41f5 b63f a618 973f 07da e23f 5720 323f
00000090: f0bf 5a3f cbe2 ab3f 55fe ae3f b1fc 863f
000000a0: 0959 3f3f c096 723f c7e8 ae3f 12cb 2e3f
000000b0: 7c29 803f 7d1c 373f a5b0 af3f 24bf 843f
000000c0: 1549 0140 e7d3 863f ce7f c83f 9dc7 823f
000000d0: acba d03f 2e4e 7a3f 0704 9a3f 785d 733f
000000e0: f58b 3a3f a3ec 913f 9816 8d3f 920c 003f
000000f0: 9807 853f 2a6e bc3f dd9c 623f 35da 3a3f

embedding.embedding_network.8.weight f4 [5, 64]
-0.025251923 -0.015107997 -0.060643516 0.018619262 0.05257211 0.0054141744 -0.0077735945 -0.025520273
0.027893394 0.010024118 -0.04398818 -0.013711826 0.041445 -0.013524869 -0.049404055 -0.039473247
0.0052565327 0.008610503 0.04196866 0.04003966 -0.03649277 0.04015491 -0.048854552 -0.030856404
0.006570373 0.057540856 0.023485493 -0.025453167 -0.014395872 0.056455243 0.0014815783 0.021974249
-0.041325253 0.03077563 0.0005130292 0.033283424 -0.012475516 -0.010689265 0.045002516 0.006689496
-0.01079715 -0.06106065 -0.026317663 0.039737135 0.02164545 -0.014208999 -0.043205097 -0.024448035
0.042667955 0.030534675 0.033587635 -0.05817025 -0.019671777 -0.010922027 0.01343955 0.061483584
-0.013830069 -0.03235907 0.031484105 0.024482932 -0.016745012 0.055706844 0.011472645 -0.037972886
-0.03879997 -0.012305161 0.03734108 0.070921466 0.023390457 -0.055852998 0.034376383 0.027929014
-0.016683822 0.056203317 -0.0076960335 0.035188004 -0.009249891 0.050196726 -0.01671693 -0.024197968
-0.036134087 -0.03538159 0.028239934 -0.0067413473 0.009428722 0.004046416 -0.015883224 0.00017874665
-0.022450048 0.0048247213 -0.04799717 -0.034944087 0.03172989 0.0222038 -0.026075827 0.054400433
-0.047758244 -0.025470734 0.014363981 0.037823603 0.041784976 0.03874905 -0.0140475985 -0.027291728
0.016978182 -0.0043797367 -0.0344413 -0.046926353 -0.023964856 0.0032236981 -0.0013930247 -0.048009273
0.006351583 0.009147434 0.026157869 -0.015320795 -0.023196125 0.045415528 -0.051307496 -0.020750912
0.034532417 0.016744029 0.017870713 -0.010212284 0.0008252263 -0.0086881025 -0.047037393 0.042397544
0.0103489235 0.058212753 0.0035059568 -0.020041706 0.02458978 -0.011626667 0.032225244 -0.03689465
0.052882954 -0.019895962 -0.058499143 0.04928775 0.037065268 0.022452338 -0.044034008 0.0072078547
-0.026975194 0.0091813225 -0.042190455 -0.051910292 0.033209242 -0.011537537 0.01503137 -0.045788947
0.048701454 0.010289314 -0.045105726 0.04461767 -0.05222013 0.01714658 0.031958837 -0.032690592
-0.018828146 -0.048230533 0.06488446 0.0192669 -0.042750467 0.065604195 0.035116155 0.053713042
0.028477952 0.013598419 0.050028756 0.0055028726 0.039907776 -0.050896008 0.05314559 -0.022789791
-0.053101763 0.056263834 -0.055871747 -0.00850615 -0.07058366 0.024070263 -0.022287372 0.0050844466
-0.025391374 -0.057853032 0.051802944 0.027726047 0.045553923 -0.040429026 0.016642902 0.013576486
0.00024384251 0.0017053871 -0.0005534205 -0.000502828 -0.0014872815 -0.00063317374 -0.0012736908 0.00012055463
0.00018937078 -0.00039485318 -1.1741722e-06 -0.00011388833 -0.0011895965 -0.0014216318 6.434707e-05 0.0015677884
0.00030569738 0.00034557554 -0.00018628091 -0.00010374257 0.0009833166 -0.0013319531 -0.0018273008 -0.0005116321
-0.00048644363 -0.00039132813 -9.810908e-05 -0.0010200988 0.0012590359 6.0012477e-05 -0.0010911168 -0.0024462745
0.00016186606 -0.0023266398 -0.00014752004 -9.51423e-05 -0.0020951433 -0.0005429336 0.00030490666 0.00019395044
-0.0007362985 -0.0012202641 -0.0014336504 -0.0015723048 0.00051767624 -7.3334086e-05 -0.0013506488 -0.0011262248
-0.00014575722 0.0016245088 -0.002181573 0.0012841222 -0.0023079962 -0.00071083003 0.0007512775 5.700979e-05
-0.0009885996 -0.00071062846 -0.0014751153 -0.0003453914 -0.0019493077 0.000593276 0.00032457482 -0.000955273
00000000: 1fdd cebc 8887 77bc 5665 78bd 6c87 983c
00000010: da55 573d 6369 b13b a3b9 febb e40f d1bc
00000020: b080 e43c 333c 243c f32c 34bd 91a7 60bc
00000030: 3bc2 293d 6a97 5dbc e85b 4abd b3ae 21bd
00000040: fe3e ac3b 1113 0d3c 54e7 2b3d a000 243d
00000050: 7179 15bd 7a79 243d b61b 48bd 92c6 fcbc
00000060: 494c d73b f6af 6b3d a664 c03c 2983 d0bc
00000070: aadc 6bbc 9d3d 673d 8531 c23a 5703 b43c
00000080: ab44 29bd 2d1d fc3c cf7c 063a 3354 083d
00000090: 1b66 4cbc 0722 2fbc 8f54 383d 8f33 db3b
000000a0: 88e6 30bc bb1a 7abd 2498 d7bc 68c3 223d
000000b0: cc51 b13c ddcc 68bc d4f7 30bd 3f47 c8bc
000000c0: 98c4 2e3d db23 fa3c 3093 093d ee43 6ebd
000000d0: b526 a1bc 4df2 32bc 8f31 5c3c 36d6 7b3d
000000e0: 8497 62bc f28a 04bd 7af5 003d 6e90 c83c
000000f0: d62c 89bc dc2c 643d c3f7 3b3c 7589 1bbd
00000100: b8ec 1ebd 969b 49bc f6f2 183d 463f 913d
00000110: 589d bf3c 1dc6 64bd 40ce 0c3d 63cb e43c
00000120: 83ac 88bc 7335 663d 022f fcbb 4c21 103d
00000130: db8c 17bc 159b 4d3d f1f1 88bc d13a c6bc
00000140: 5601 14bd 49ec 10bd 6f57 e73c 85e6 dcbb
00000150: ed7a 1a3c cc97 843b 891d 82bc f06d 3b39
00000160: 2ae9 b7bc b218 9e3b ae98 44bd 8821 0fbd
00000170: 33f7 013d bee4 b53c f99c d5bc fdd2 5e3d
00000180: 269e 43bd 00a8 d0bc e756 6b3c ecec 1a3d
00000190: b926 2b3d 53b7 1e3d e627 66bc e792 dfbc
000001a0: d415 8b3c e583 8fbb 5212 0dbd d935 40bd
000001b0: f251 c4bc ae44 533b 2796 b6ba 5fa5 44bd
000001c0: f120 d03b 1edf 153c 0749 d63c 1204 7bbc
000001d0: cd05 bebc a205 3a3d cf27 52bd d1fd a9bc
000001e0: dd71 0d3d c62a 893c 9a65 923c 6c51 27bc
000001f0: 0054 583a 8b58 0ebc 48aa 40bd 0ca9 2d3d
00000200: 888e 293c 7f70 6e3d 32c4 653b 812e a4bc
00000210: 8270 c93c c77d 3ebc 9efe 033d d81e 17bd
00000220: cc9b 583d dbfc a2bc cc9c 6fbd f4e1 493d
00000230: c0d1 173d f7ed b73c 015d 34bd de2f ec3b
00000240: 15fb dcbc 426d 163c e6cf 2cbd e39f 54bd
00000250: 6a06 083d f007 3dbc 2346 763c 318d 3bbd
00000260: 2d7b 473d 8394 283c c8c0 38bd 05c1 363d
00000270: c6e4 55bd fc76 8c3c 45e7 023d 92e6 05bd
00000280: 7c3d 9abc 618d 45bd 25e2 843d 9ed5 9d3c
00000290: 1d1b 2fbd 7e5b 863d f5d5 0f3d 3502 5c3d
000002a0: 984a e93c e7cb 5e3c f4ea 4c3d 7151 b43b
000002b0: 5676 233d 5578 50bd 31af 593d a8b1 babc
000002c0: 3c81 59bd e874 663d c6d9 64bd 615d 0bbc
000002d0: 2a8e 90bd 002f c53c 0294 b6bc 6e9b a63b
000002e0: 9201 d0bc 4df7 6cbd 532f 543d bc21 e33c
000002f0: c096 3a3d e898 25bd b256 883c e96f 5e3c
00000300: faaf 7f39 4c87 df3a 6c13 11ba 37d0 03ba
00000310: e3f0 c2ba 92fb 25ba f9f1 a6ba 46d2 fc38
00000320: d591 4639 4c04 cfb9 4098 9db5 55d7 eeb8
00000330: 3cec 9bba 0c56 baba 12f2 8638 407e cd3a
00000340: 0246 a039 5d2e b539 6754 43b9 5e90 d9b8
00000350: a1e2 803a ee94 aeba 0a82 efba 0d1f 06ba
00000360: 5c09 ffb9 2c2b cdb9 e9bf cdb8 d6b4 85ba
00000370: 3c06 a53a e8b5 7b38 ce03 8fba ad51 20bb
00000380: 97ba 2939 8a7a 18bb 9caf 1ab9 2287 c7b8
00000390: ac4e 09bb a853 0eba e1db 9f39 2d5f 4b39
000003a0: 2804 41ba 45f1 9fba 53e9 bbba cb15 ceba
000003b0: aab4 073a f0ca 99b8 4108 b1ba d59d 93ba
000003c0: 68d6 18b9 78ed d43a b9f8 0ebb fe4f a83a
000003d0: c041 17bb ff56 3aba 61f1 443a cc1d 6f38
000003e0: e693 81ba 7849 3aba a858 c1ba a615 b5b9
000003f0: ea7f ffba 1486 1b3a b22b aa39 496b 7aba

embedding.embedding_network.8.bias f4 [5]
-0.036138363 0.017134307 -0.06909417 0.0071140877 -0.007349976
00000000: d205 14bd 3f5d 8c3c 3f81 8dbd 4b1d e93b
00000010: 11d8 f0bb

exp_avg f4 [5, 5]
0.0 0.0 0.0 0.0 0.0 0.0 0.0 0.0
0.0 0.0 0.0 0.0 0.0 0.0 0.0 0.0
0.0 0.0 0.0 0.0 0.0 0.0 0.0 0.0
0.0
00000000: 0000 0000 0000 0000 0000 0000 0000 0000
00000010: 0000 0000 0000 0000 0000 0000 0000 0000
00000020: 0000 0000 0000 0000 0000 0000 0000 0000
00000030: 0000 0000 0000 0000 0000 0000 0000 0000
00000040: 0000 0000 0000 0000 0000 0000 0000 0000
00000050: 0000 0000 0000 0000 0000 0000 0000 0000
00000060: 0000 0000

exp_avg_sq f4 [5, 5]
0.0 0.0 0.0 0.0 0.0 0.0 0.0 0.0
0.0 0.0 0.0 0.0 0.0 0.0 0.0 0.0
0.0 0.0 0.0 0.0 0.0 0.0 0.0 0.0
0.0
00000000: 0000 0000 0000 0000 0000 0000 0000 0000
00000010: 0000 0000 0000 0000 0000 0000 0000 0000
00000020: 0000 0000 0000 0000 0000 0000 0000 0000
00000030: 0000 0000 0000 0000 0000 0000 0000 0000
00000040: 0000 0000 0000 0000 0000 0000 0000 0000
00000050: 0000 0000 0000 0000 0000 0000 0000 0000
00000060: 0000 0000
