paths_on_manifold/results/checkpoints/model_epoch_10_step_1.pt (torch, 208379 bytes, 37 tensors)

embedding.metric f4 [5, 5]
-1.0 0.0 0.0 0.0 0.0 0.0 1.0 0.0
0.0 0.0 0.0 0.0 1.0 0.0 0.0 0.0
0.0 0.0 1.0 0.0 0.0 0.0 0.0 0.0
1.0
00000000: 0000 80bf 0000 0000 0000 0000 0000 0000
00000010: 0000 0000 0000 0000 0000 803f 0000 0000
00000020: 0000 0000 0000 0000 0000 0000 0000 0000
00000030: 0000 803f 0000 0000 0000 0000 0000 0000
00000040: 0000 0000 0000 0000 0000 803f 0000 0000
00000050: 0000 0000 0000 0000 0000 0000 0000 0000
00000060: 0000 803f

embedding.embedding_network.0.weight f4 [128, 55]
-0.07554019 -0.027634472 0.07882343 -0.11177399 -0.1221981 -0.009685999 -0.04595834 -0.019559858
-0.13534585 0.07192064 -0.08085613 -0.032149274 0.062242597 -0.02692095 0.0433634 -0.06391517
-0.015462374 0.11646288 -0.0810108 -0.062101707 0.06372986 -0.08777697 -0.12524112 0.09133669
-0.043294396 -0.034980837 0.119074054 -0.004679959 -0.102816574 0.09955346 -0.0073261377 0.10882235
0.12904096 -0.036437683 -0.08658659 -0.03359461 0.084866844 -0.008145442 -0.072082095 -0.081421636
-0.06039261 -0.08324218 -0.09577258 0.0996098 -0.117879905 -0.014711055 0.07955804 -0.018800598
0.14223602 0.09886217 0.06913065 0.049660288 0.042153448 0.10422662 0.030367123 -0.15483491
-0.1408964 -0.11089288 0.065709874 0.009291235 -0.09737767 -0.09477067 -0.023380138 -0.01294287
0.11426777 0.011498253 0.14402393 0.049419068 -0.06234672 0.009481342 0.09215348 -0.0306902
0.095528014 -0.12337862 -0.014193385 0.020569481 0.13347316 -0.08815734 0.10971136 0.03513593
0.08457843 0.10115455 -0.075564854 -0.060188077 0.06972913 -0.029240008 0.08774535 0.03918483
-0.03112131 0.120745964 0.037945922 -0.058638226 -0.092527926 -0.012677716 -0.0015825785 -0.13524444
0.06703439 -0.009458773 0.15006055 -0.05531066 0.11771046 0.086815976 -0.09206726 -0.116080396
0.10604752 0.032698862 -0.025599312 0.06685745 -0.11047785 -0.03611004 0.0036743332 0.13225968
0.001718519 -0.0029275431 0.106297605 -0.091928564 -0.09434916 0.0732175 0.0283256 -0.06539513
-0.09162539 0.017758934 -0.07613404 -0.033078685 0.15021467 -0.06417472 0.06020675 -0.11810758
-0.10909827 -0.1410665 -0.0878208 0.07316291 0.1067804 0.061985254 -0.078807466 0.04396288
0.032285687 0.05123088 -0.12947951 -0.04045448 -0.035437033 -0.11987943 0.0057153245 0.028533904
-0.077630095 -0.1168621 -0.06128074 -0.067572184 0.05805392 -0.07926838 -0.07972935 0.15220644
-0.086332 0.043970965 -0.064304225 -0.0059203375 -0.0533473 0.042023472 0.09874041 0.11736516
-0.08595164 0.07793509 0.1483286 0.02366471 0.09695598 0.038371135 0.16088511 0.013413609
0.056063917 0.072555095 -0.066828474 0.077166535 -0.043371666 -0.01901488 -0.020224761 0.07428003
-0.012338732 -0.059705243 -0.03163565 -0.15318213 -0.04780741 0.056882408 0.0017149484 0.04366554
0.055510387 -0.07661305 0.060264137 -0.028513482 0.12321736 -0.0001571519 -0.04652189 -0.061016727
0.050611068 -0.056682903 -0.111958876 -0.13547686 0.06965602 -0.100788906 -0.045591675 0.0805626
0.011577336 0.05728978 -0.1140355 -0.064929426 0.08793164 0.08728849 -0.102875605 0.058579657
-0.06497976 -0.07305497 0.063569345 0.14385897 0.12680832 0.06922879 0.040199433 -0.10699051
-0.048354983 0.11716207 -0.06757215 -0.02013544 -0.10867672 0.06419839 -0.0050341054 0.03999787
-0.08928941 -0.10454829 0.12821874 -0.0021193358 -0.03607246 0.114567116 -0.05749603 -0.042417124
0.036495462 0.064160526 0.06227261 -0.10856303 -0.01756232 0.058530647 0.12733938 -0.103816316
0.019311339 -0.016960768 0.019110162 0.013152732 0.16560462 -0.097546466 -0.11383995 0.10935676
0.0053373063 0.0547429 -0.037526842 0.051751267 0.111913 -0.08296757 0.057627562 0.040624652
00000000: d1b4 9abd b061 e2bc 2e6e a13d c3e9 e4bd
00000010: ff42 fabd 06b2 1ebc d03e 3cbd ff3b a0bc
00000020: 1a98 0abe 214b 933d e697 a5bd f5ae 03bd
00000030: 18f2 7e3d 5389 dcbc d29d 313d f5e5 82bd
00000040: e655 7dbc 1784 ee3d fee8 a5bd 5c5e 7ebd
00000050: cd84 823d 69c4 b3bd 353f 00be bb0e bb3d
00000060: 7755 31bd 1148 0fbd 19dd f33d 575a 99bb
00000070: 7f91 d2bd afe2 cb3d 1910 f0bb 41de de3d
00000080: 5023 043e ae3f 15bd 4f54 b1bd 809a 09bd
00000090: abce ad3d 7674 05bc c79f 93bd 63c0 a6bd
000000a0: 3e5e 77bd e07a aabd 6a24 c4bd 3900 cc3d
000000b0: 056b f1bd a306 71bc 53ef a23d b603 9abc
000000c0: 52a6 113e 4078 ca3d 5f94 8d3d 9668 4b3d
000000d0: 18a9 2c3d c474 d53d 79c4 f83c 0b8d 1ebe
000000e0: 2547 10be ce1b e3bd e692 863d 443a 183c
000000f0: f26d c7bd 2017 c2bd b487 bfbc 550e 54bc
00000100: 3805 ea3d 2b63 3c3c 027b 133e a66b 4a3d
00000110: 465f 7fbd a157 1b3c f7ba bc3d 046a fbbc
00000120: 31a4 c33d eead fcbd 5f8b 68bc 5481 a83c
00000130: 30ad 083e d68b b4bd 59b0 e03d b1ea 0f3d
00000140: 7537 ad3d 1e2a cf3d bfc1 9abd c687 76bd
00000150: 25ce 8e3d be88 efbc d6b3 b33d 4680 203d
00000160: 1ef2 febc a949 f73d 2f6d 1b3d a32e 70bd
00000170: 487f bdbd 32b6 4fbc 866e cfba 857d 0abe
00000180: 5449 893d f8f8 1abc 79a9 193e 6e8d 62bd
00000190: 2f12 f13d 93cc b13d c28d bcbd 8fbb edbd
000001a0: 712f d93d 3eef 053d a6b5 d1bc 8fec 883d
000001b0: 3642 e2bd 1fe8 13bd 15cd 703b 156f 073e
000001c0: ee3f e13a 06dc 3fbb 8fb2 d93d 0b45 bcbd
000001d0: 223a c1bd 0ef3 953d 170b e83c e2ed 85bd
000001e0: 18a6 bbbd 2f7b 913c 2aec 9bbd 847d 07bd
000001f0: e0d1 193e 096e 83bd 5a9b 763d 63e2 f1bd
00000200: ea6e dfbd bd73 10be 64db b3bd 70d6 953d
00000210: afaf da3d 40e4 7d3d cf65 a1bd 6c12 343d
00000220: ff3d 043d 79d7 513d 4796 04be 99b3 25bd
00000230: 6c26 11bd 5983 f5bd 9e47 bb3b efbf e93c
00000240: 87fc 9ebd 6655 efbd 8301 7bbd 4963 8abd
00000250: f2c9 6d3d 7657 a2bd 2449 a3bd 01dc 1b3e
00000260: d5ce b0bd e61a 343d efb1 83bd 64ff c1bb
00000270: b382 5abd ce20 2c3d 6938 ca3d 255d f03d
00000280: 6a07 b0bd 6f9c 9f3d 74e3 173e 7edc c13c
00000290: db90 c63d 0d2b 1d3d 11bf 243e c1c4 5b3c
000002a0: 47a3 653d c497 943d 5edd 88bd 7d09 9e3d
000002b0: 7da6 31bd 18c5 9bbc 66ae a5bc 2120 983d
000002c0: 6528 4abc 7c8d 74bd 6294 01bd c7db 1cbe
000002d0: b4d1 43bd 87fd 683d 1fc8 e03a a3da 323d
000002e0: dc5e 633d 4ee7 9cbd 87d7 763d 1b95 e9bc
000002f0: 6259 fc3d 24c9 24b9 bd8d 3ebd adec 79bd
00000300: 8d4d 4f3d 552c 68bd b24a e5bd 72ba 0abe
00000310: d1a7 8e3d 6a6a cebd 56be 3abd 01fe a43d
00000320: deae 3d3c b0a8 6a3d 728b e9bd b8f9 84bd
00000330: 8115 b43d 4fc4 b23d 72b0 d2bd 39f1 6f3d
00000340: 1c14 85bd d89d 95bd a530 823d c44f 133e
00000350: 0ada 013e d3c7 8d3d 29a8 243d d71d dbbd
00000360: e00f 46bd abf2 ef3d 4463 8abd 14f3 a4bc
00000370: e691 debd 727a 833d 23f5 a4bb ced4 233d
00000380: 5edd b6bd 6a1d d6bd c64b 033e 8ee4 0abb
00000390: b7c0 13bd 2aa2 ea3d f580 6bbd 94bd 2dbd
000003a0: 447c 153d 9866 833d 9011 7f3d 4b56 debd
000003b0: dbde 8fbc d5bd 6f3d 4165 023e a69d d4bd
000003c0: d032 9e3c 4ff1 8abc ea8c 9c3c 8e7e 573c
000003d0: 4294 293e 71c6 c7bd eb24 e9bd 70f6 df3d
000003e0: 92e4 ae3b 173a 603d bfb5 19bd 23f9 533d
000003f0: a532 e53d e7ea a9bd e10a 6c3d 0966 263d

embedding.embedding_network.0.bias f4 [128]
-3.763481e-06 4.8205886e-05 -1.678774e-05 -3.8990227e-05 -2.7884296e-06 1.2464256e-05 -5.2483567e-05 7.262809e-05
-2.8961309e-05 -5.7260422e-08 -1.9568988e-05 -7.38768e-05 -6.7239096e-05 -8.482304e-06 2.542094e-05 -5.166787e-06
-2.2579708e-05 3.9850223e-05 2.0332152e-08 7.4785574e-05 1.2654403e-05 -2.775615e-05 4.4616172e-05 9.90045e-06
-3.3849417e-05 4.6985086e-05 1.9225332e-05 -6.3394086e-06 -3.0126968e-05 3.6036934e-05 1.50543965e-05 1.7087614e-05
2.3502967e-05 -4.4376516e-06 3.7624377e-05 1.5236918e-05 -4.1952124e-05 2.5704343e-05 -0.00013824343 3.8248992e-05
4.6251425e-05 3.7756585e-05 2.7353026e-05 7.074495e-05 6.896532e-05 -1.4972031e-05 -3.391788e-05 -5.4473053e-06
-6.702643e-05 4.3961878e-05 -1.0715072e-05 1.7680732e-05 1.4924502e-05 0.00011382402 7.457904e-06 -4.006072e-05
3.4898632e-05 -9.520845e-06 -2.4654102e-05 -3.01693e-05 5.4423675e-05 -3.7752657e-06 1.4235054e-06 -1.7686492e-05
3.681068e-06 4.9650403e-06 -2.7246773e-05 -0.0001159304 -2.6550448e-05 -2.5223684e-05 7.4607146e-05 1.6879518e-05
-2.487177e-07 1.182545e-06 -4.08019e-05 2.2988861e-05 2.4119396e-05 -3.560634e-05 3.989924e-05 9.609026e-05
-1.4920206e-05 -3.10879e-05 3.77706e-05 9.262048e-06 -2.483604e-05 -5.883358e-06 5.5156965e-05 4.3116255e-05
-1.1761779e-05 9.507038e-06 2.1725651e-05 4.788214e-05 -1.201863e-05 -2.1106976e-05 1.1545515e-05 -3.10322e-05
-3.0472584e-05 8.513691e-06 -2.1677914e-05 2.9881721e-06 4.0662348e-05 -2.2515618e-05 -4.339554e-05 8.867621e-05
3.3748336e-05 -1.928287e-05 4.3487144e-05 -4.162867e-07 2.5448195e-05 -2.182213e-05 -2.4223895e-05 2.2918692e-05
-1.4938314e-05 1.4864122e-05 2.6451638e-05 -1.679644e-05 -5.1550333e-06 1.9068944e-05 0.00010650622 2.0746287e-05
2.967949e-05 2.093483e-05 2.1118416e-05 1.1719732e-05 -4.909688e-05 -4.729812e-05 7.995056e-06 4.0304647e-05
00000000: 1c90 7cb6 ad30 4a38 66d3 8cb7 7089 23b8
00000010: db20 3bb6 921d 5137 cd21 5cb8 e94f 9838
00000020: f0f1 f2b7 80ee 75b3 1528 a4b7 4eee 9ab8
00000030: b702 8db8 384f 0eb7 0e3f d537 5d5e adb6
00000040: 8e69 bdb7 da24 2738 e0a6 ae32 33d6 9c38
00000050: 3f4e 5437 e1d5 e8b7 4022 3b38 1c1a 2637
00000060: 89f9 0db8 da11 4538 1646 a137 1bb7 d4b6
00000070: 2cb9 fcb7 5d26 1738 2492 7c37 5f57 8f37
00000080: 3d28 c537 23e7 94b6 dece 1d38 11a2 7f37
00000090: c0f5 2fb8 a89f d737 70f5 10b9 8b6d 2038
000000a0: 17fe 4138 d35c 1e38 2d74 e537 e85c 9438
000000b0: 79a1 9038 6230 7bb7 0c43 0eb8 ffc7 b6b6
000000c0: 8a90 8cb8 b563 3838 e2c4 33b7 1551 9437
000000d0: 3f64 7a37 ceb4 ee38 e83e fa36 df06 28b8
000000e0: 1f60 1238 b8bb 1fb7 48d0 ceb7 1414 fdb7
000000f0: fa44 6438 925a 7db6 460f bf35 745d 94b7
00000100: 4408 7736 5f99 a636 0090 e4b7 a91f f3b8
00000110: a7b8 deb7 7397 d3b7 6876 9c38 7d98 8d37
00000120: 8087 85b4 f0b7 9e35 b522 2bb8 34d8 c037
00000130: 0254 ca37 0458 15b8 7c59 2738 1184 c938
00000140: cc51 7ab7 6164 02b8 df6b 1e38 3164 1b37
00000150: fd56 d0b7 a969 c5b6 5758 6738 bad7 3438
00000160: 7554 45b7 6b80 1f37 7b3f b637 0ed5 4838
00000170: 9fa3 49b7 e30e b1b7 9cb3 4137 9228 02b8
00000180: 609f ffb7 06d6 0e37 f7d8 b5b7 6888 4836
00000190: dd8c 2a38 ecdf bcb7 9b03 36b8 aef7 b938
000001a0: 008d 0d38 a6c1 a1b7 f765 3638 027e dfb4
000001b0: 9579 d537 ab0e b7b7 6b34 cbb7 8441 c037
000001c0: 929f 7ab7 eb60 7937 76e4 dd37 15e6 8cb7
000001d0: 66f9 acb6 3ff6 9f37 175c df38 5008 ae37
000001e0: 38f8 f837 359d af37 7427 b137 de9f 4437
000001f0: 60ed 4db8 f861 46b8 8122 0637 c90c 2938

embedding.embedding_network.1.weight f4 [128]
0.97225213 1.0268252 0.9709664 1.0201997 0.99295896 1.015642 0.9793046 1.005573
1.0010037 1.0007002 0.9967068 0.9847119 1.0120254 1.018379 1.0197291 0.9958574
1.0272762 0.9926405 1.0326554 0.9857825 1.032539 1.0032622 1.0142909 0.9672484
0.98049474 0.99084914 1.004414 1.0361801 0.9917456 0.9838283 1.0212594 0.97093046
0.97984564 0.98952705 0.97145015 1.0067611 1.0072281 1.0161422 1.0200274 0.9648913
0.9815829 1.0245005 1.0109754 1.0063932 0.98876685 1.0172702 1.0237204 1.0406964
0.95989764 1.004614 1.0187896 1.0041988 0.9962797 1.0053241 1.0074109 1.0037376
0.9773686 0.97619915 0.9714827 0.9949664 1.0418586 1.0232023 1.0101135 1.0035683
0.98724055 0.95424163 0.97451967 0.9936179 0.9944085 1.0213633 1.0046105 1.0330746
1.0534087 0.9675612 0.96610725 1.0134014 0.9441337 0.99100834 1.0268037 1.0039897
0.9844201 0.97930175 1.0120903 0.99752045 1.0164789 0.9876613 0.97968334 1.0050278
1.030883 0.9733086 1.0176251 1.0076956 0.98653924 0.9478011 0.9658273 1.0091848
0.9998076 1.0029602 1.0173903 1.0331864 0.990918 1.0171709 1.0290431 1.0084268
0.9570397 0.99137115 1.0233088 0.9896454 1.0022792 0.9873334 1.0160717 1.0202907
0.9977936 0.98543817 0.95519054 0.9940233 1.02394 1.0110865 1.0075053 1.0259502
0.960607 1.0255903 0.9524988 0.994912 1.0140796 0.97204256 0.97544974 0.9873768
00000000: 84e5 783f 026f 833f 4191 783f e795 823f
00000010: 8f32 7e3f 8f00 823f b5b3 7a3f 9eb6 803f
00000020: e420 803f f216 803f 2d28 7f3f 1416 7c3f
00000030: 0c8a 813f 3e5a 823f 7c86 823f 83f0 7e3f
00000040: c97d 833f b01d 7e3f 0d2e 843f 3e5c 7c3f
00000050: 3d2a 843f e56a 803f 49d4 813f 979d 773f
00000060: b401 7b3f 4aa8 7d3f a390 803f 8da1 843f
00000070: 0ae3 7d3f 2cdc 7b3f a1b8 823f e68e 783f
00000080: 2ad7 7a3f a551 7d3f f5b0 783f 8cdd 803f
00000090: daec 803f f310 823f 4290 823f 1e03 773f
000000a0: 0449 7b3f d522 833f a467 813f 7ed1 803f
000000b0: d31f 7d3f e935 823f 4509 833f 8a35 853f
000000c0: dabb 753f 3197 803f b367 823f 9689 803f
000000d0: 300c 7f3f 76ae 803f d7f2 803f 797a 803f
000000e0: d434 7a3f 30e8 793f 17b3 783f 1eb6 7e3f
000000f0: 9f5b 853f 4bf8 823f 664b 813f ed74 803f
00000100: ccbb 7c3f 2e49 743f 1f7a 793f be5d 7e3f
00000110: 8e91 7e3f 08bc 823f 1497 803f ca3b 843f
00000120: 19d6 863f 17b2 773f ce52 773f 23b7 813f
00000130: bfb2 713f b9b2 7d3f 4e6e 833f bc82 803f
00000140: f502 7c3f 85b3 7a3f 2d8c 813f 805d 7f3f
00000150: fb1b 823f 5fd7 7c3f 87cc 7a3f c0a4 803f
00000160: f9f3 833f c12a 793f 8a41 823f 2bfc 803f
00000170: d68d 7c3f 18a3 723f 7540 773f f82c 813f
00000180: 64f3 7f3f 0061 803f d839 823f 743f 843f
00000190: cdac 7d3f a832 823f afb7 833f 2114 813f
000001a0: 8e00 753f 80ca 7d3f c8fb 823f 6759 7d3f
000001b0: af4a 803f e2c1 7c3f a30e 823f e398 823f
000001c0: 676f 7f3f ad45 7c3f 5e87 743f 5078 7e3f
000001d0: 7710 833f 486b 813f eff5 803f 5652 833f
000001e0: 57ea 753f 8b46 833f f6d6 733f 8eb2 7e3f
000001f0: 5ccd 813f c8d7 783f 13b7 793f bac4 7c3f

embedding.embedding_network.1.bias f4 [128]
-0.00935088 0.05418804 -0.014885441 0.048307035 0.02895458 0.021751605 -0.019835163 0.031672455
0.0070004296 0.026506077 0.024400923 0.0014955759 0.029563665 0.03929087 0.032094695 0.0054708095
0.03361749 -0.0057269987 0.029627232 0.018656136 0.03911814 0.022710111 0.027781766 -0.01675942
-0.01164072 0.022275658 0.016172552 0.057606004 0.0013302796 -0.0036259694 0.050204277 0.000783891
-0.00012692377 0.023302391 -0.012420241 0.019430878 0.02776782 0.018350367 0.035037123 -0.011219885
0.0071595483 0.051004667 0.041904654 0.010028516 -0.00442694 0.05058906 0.040608704 0.044718727
-0.007879456 0.022530617 0.026786147 0.028725557 0.018146334 0.03623395 0.01931113 0.011633963
0.007926023 -0.0018487369 -0.02287929 0.011028949 0.025743406 0.053812183 0.020730482 -0.008689758
0.008874331 -0.011284155 -0.025153011 0.011210659 0.0071492395 0.04078384 0.031669542 0.05358204
0.067431115 0.0022136446 -0.014127076 0.036746964 -0.027583411 0.010105938 0.05378791 0.021731356
0.005834584 -0.0102781085 0.05648369 0.0020997305 0.041975223 0.022076352 -0.0077849478 0.021016408
0.025378887 -0.0073874933 0.01392957 0.04219882 -0.019314427 -0.022755545 -0.012052304 0.037035868
0.03283338 0.023069637 0.024806406 0.06269006 -0.009506723 0.01910149 0.021492312 0.035952393
-0.024186706 0.0038809408 0.048211996 -0.017009974 0.024744265 0.0032095267 0.016035896 0.044638142
0.018120488 0.0119073875 -0.031714123 -0.0065540317 0.032229003 0.03148589 0.027708197 0.020902693
-0.01617628 0.037109468 -0.04799392 0.0030900973 0.043794394 0.0011848115 0.009548098 0.008493759
00000000: 6f34 19bc 47f4 5d3d 11e2 73bc 99dd 453d
00000010: 2832 ed3c 6c30 b23c 5a7d a2bc faba 013d
00000020: dc63 e53b 4623 d93c 72e4 c73c 3307 c43a
00000030: 802f f23c 77ef 203d ba75 033d 7a44 b33b
00000040: 7eb2 093d 8ca9 bbbb cfb4 f23c c1d4 983c
00000050: 583a 203d 8e0a ba3c 9696 e33c 0d4b 89bc
00000060: b8b8 3ebc 717b b63c 4d7c 843c 46f4 6b3d
00000070: c75c ae3a aca1 6dbb 00a3 4d3d 097e 4d3a
00000080: d716 05b9 a8e4 be3c 447e 4bbc 812d 9f3c
00000090: 5779 e33c 8253 963c 1683 0f3d 9cd3 37bc
000000a0: a59a ea3b 45ea 503d 37a4 2b3d a54e 243c
000000b0: dd0f 91bb 7936 4f3d 5055 263d fc2a 373d
000000c0: d518 01bc 2192 b83c 9f6e db3c dc51 eb3c
000000d0: 9fa7 943c 0d6a 143d 6032 9e3c 619c 3e3c
000000e0: 26dc 013c 5151 f2ba 596d bbbc c4b2 343c
000000f0: d6e3 d23c 2a6a 5c3d f9d2 a93c 7d5f 0ebc
00000100: a465 113c 2de1 38bc b00d cebc e9ac 373c
00000110: 2b44 ea3b f50c 273d ecb7 013d d778 5b3d
00000120: 5319 8a3d cb12 113b 4075 67bc fc83 163d
00000130: 9bf6 e1bc 6093 253c b650 5c3d f505 b23c
00000140: 0a30 bf3b 8365 28bc 715b 673d a29b 093b
00000150: 36ee 2b3d 77d9 b43c e018 ffbb 9a2a ac3c
00000160: 62e7 cf3c c912 f2bb da38 643c abd8 2c3d
00000170: 4a39 9ebc d669 babc 0777 45bc ecb2 173d
00000180: 4b7c 063d 89fc bc3c ce36 cb3c a563 803d
00000190: 16c2 1bbc ba7a 9c3c a510 b03c d142 133d
000001a0: 3323 c6bc 6257 7e3b f179 453d 8058 8bbc
000001b0: 7cb4 ca3c ec56 523b b65d 833c 7cd6 363d
000001c0: 6b71 943c 3417 433c abe6 01bd 34c3 d6bb
000001d0: 8f02 043d 59f7 003d 4dfc e23c 203c ab3c
000001e0: 1e84 84bc 1900 183d 4695 44bd 3b83 4a3b
000001f0: c061 333d ad4b 9b3a a06f 1c3c 6829 0b3c

embedding.embedding_network.1.running_mean f4 [128]
-0.009037964 -0.0008437367 -0.0055948836 -0.0023441464 -0.007981346 0.00013834047 -0.0070730103 -0.0053001447
0.0067719133 -0.0056109913 -0.006512367 -0.00045907983 -0.01149056 0.0054081962 -0.0056375344 -0.0033468006
-0.0030467357 0.0037479394 0.002902773 -0.014247036 -0.0049241986 -0.009219882 0.0016072023 -0.0059582866
0.0044529526 -0.000917201 0.0013068565 -0.00618358 -0.01326646 -0.008227786 -0.0053056404 -0.0034452942
0.010831346 -0.0076333983 -0.0037312675 -0.0005882942 0.00433506 0.005069876 -0.0019202459 0.0005914573
-0.00046328866 -0.0023820712 0.012501167 0.00020714472 0.005975663 0.010102424 0.015189331 -0.006319557
0.00074037537 -0.002285381 -0.007680961 0.0022209745 0.0006887874 -0.004349884 -0.0063581276 0.010951027
-0.005555435 -0.007556184 -0.004139923 0.010942466 0.0075923014 -0.010777777 0.0018170439 0.004820437
-0.0024065254 -0.002706288 -0.010675185 0.0029552612 0.010259922 -0.006351905 0.00037176977 -0.008622039
-0.003311139 0.0073690815 0.014145329 0.000895024 -0.0073607326 -0.010958333 0.00561291 0.0065004714
0.0004130744 0.01182464 -0.0053392984 0.00075854326 0.010461962 -0.0038661717 0.008325872 -0.00702572
0.014711718 0.007427215 -0.008354213 -0.0061164917 -0.0051181223 0.0009974838 0.010604209 -0.0030000696
-0.011089534 0.0021432717 -0.016012732 -0.0031740395 0.006858448 0.007198294 -0.0008941777 0.002700021
0.002550014 0.0026278598 0.003488197 0.0058728918 -0.0069679874 0.004895842 -0.0006776294 -0.0014457002
0.007362262 0.00089579955 -0.011318065 0.00089619134 -0.0030612268 0.006435697 -0.00038417077 -0.010364219
0.0051205647 0.007757885 -0.014051087 0.001999227 -0.0052033886 -0.0071402504 0.0046488647 0.0024236012
00000000: f813 14bc 362e 5dba 4955 b7bb 40a0 19bb
00000010: 31c4 02bc 7d0f 1139 b6c4 e7bb d6ac adbb
00000020: ede6 dd3b 68dc b7bb b265 d5bb a7b0 f0b9
00000030: e742 3cbc 3d37 b13b 11bb b8bb ff55 5bbb
00000040: beab 47bb fd9f 753b 733c 3e3b 666c 69bc
00000050: 2c5b a1bb fd0e 17bc c3a8 d23a bb3d c3bb
00000060: 13ea 913b 5170 70ba d44a ab3a a19f cabb
00000070: 915b 59bc d6cd 06bc f0da adbb 72ca 61bb
00000080: f575 313c 9621 fabb 4888 74bb c137 1aba
00000090: 1e0d 8e3b 3421 a63b c3b0 fbba 070c 1b3a
000000a0: 8de5 f2b9 861c 1cbb b2d1 4c3c fd34 5939
000000b0: 7fcf c33b a384 253c acdc 783c 4914 cfbb
000000c0: c015 423a 55c6 15bb 92b0 fbbb c58d 113b
000000d0: bd8f 343a 7989 8ebb d757 d0bb f06b 333c
000000e0: 5e0a b6bb de99 f7bb 31a8 87bb 0748 333c
000000f0: d7c8 f83b 4695 30bc e029 ee3a c2f4 9d3b
00000100: ccb6 1dbb fa5b 31bb f9e6 2ebc 0ead 413b
00000110: 3b19 283c a423 d0bb 18ea c239 7443 0dbc
00000120: b2ff 58bb 5678 f13b cfc1 673c 0ba0 6a3a
00000130: 4d32 f1bb 948a 33bc 80ec b73b e801 d53b
00000140: e891 d839 23bc 413c 48f5 aebb fad8 463a
00000150: a668 2b3c 995f 7dbb 3d69 083c 0338 e6bb
00000160: 6b09 713c ff5f f33b 1ce0 08bc da6c c8bb
00000170: ecb5 a7bb 01be 823a 47bd 2d3c d19c 44bb
00000180: e0b0 35bc 2276 0c3b 222d 83bc 8c03 50bb
00000190: d5bc e03b abdf eb3b 4067 6aba d6f2 303b
000001a0: 231e 273b 2c38 2c3b 3c9a 643b 6371 c03b
000001b0: b753 e4bb 4d6d a03b f0a2 31ba a67d bdba
000001c0: 213f f13b 17d4 6a3a 686f 39bc 62ee 6a3a
000001d0: dd9e 48bb 8ae2 d23b 876a c9b9 afce 29bc
000001e0: 69ca a73b db35 fe3b 8836 66bc 7705 033b
000001f0: 3081 aabb c3f8 e9bb 8155 983b 48d5 1e3b

embedding.embedding_network.1.running_var f4 [128]
0.007919417 0.019257244 0.0083498955 0.008423398 0.006817737 0.010555014 0.006817765 0.010152361
0.0059735156 0.010256598 0.015440591 0.0057723606 0.010450667 0.010270657 0.010360834 0.017586622
0.017437095 0.0057138796 0.0149994 0.01009815 0.010359916 0.011260679 0.009807497 0.005243103
0.013242373 0.010985819 0.019996185 0.011481333 0.01981174 0.0137857795 0.012234959 0.0112302285
0.008673618 0.007923343 0.006827576 0.01082171 0.010479246 0.011038511 0.00913444 0.008525425
0.0075246417 0.017498538 0.022030903 0.012132016 0.011639754 0.013551338 0.017627602 0.017292159
0.007394889 0.010848123 0.016201604 0.0135700265 0.0070928126 0.009345773 0.014517895 0.014465449
0.012201779 0.009012578 0.0066740885 0.01332235 0.01600778 0.01287561 0.01348629 0.011794686
0.009505351 0.009433431 0.0068047456 0.010304475 0.0098817935 0.0121314395 0.007964757 0.017140334
0.020919552 0.0075241453 0.01763203 0.017481111 0.0064498396 0.0042232326 0.014655398 0.014813358
0.014838996 0.009004736 0.014671735 0.013973572 0.010345746 0.010606559 0.015227755 0.012077614
0.02085281 0.011895207 0.013071015 0.016244574 0.012199805 0.0064333095 0.012450037 0.0085714925
0.010702387 0.010337165 0.011985361 0.010046872 0.010374574 0.015121785 0.01665819 0.011080171
0.011274056 0.0095436 0.019541845 0.011608483 0.015540094 0.013000609 0.012141609 0.009158084
0.012215949 0.011860038 0.0071776244 0.013353788 0.01589187 0.01316166 0.010517513 0.008995171
0.0059030238 0.022763878 0.0076414295 0.0060043884 0.013141529 0.008308536 0.0057793004 0.008373989
00000000: 71c0 013c 5ec1 9d3c 00ce 083c 4b02 0a3c
00000010: 5367 df3b f0ee 2c3c 8f67 df3b 1756 263c
00000020: 7bbd c33b 4a0b 283c 88fa 7c3c 1226 bd3b
00000030: 4639 2b3c 4246 283c 7dc0 293c d211 903c
00000040: 3dd8 8e3c 7f3b bb3b 0bc0 753c b672 253c
00000050: a3bc 293c b67e 383c a0af 203c 56ce ab3b
00000060: 8af6 583c ddfd 333c 0acf a33c 331c 3c3c
00000070: 3b4c a23c c0dd 613c 2375 483c fefe 373c
00000080: ca1b 0e3c e9d0 013c dcb9 df3b 8b4d 313c
00000090: 25b1 2b3c dfda 343c 9ea8 153c 39ae 0b3c
000000a0: 4591 f63b 1859 8f3c 277a b43c 5dc5 463c
000000b0: abb4 3e3c 6e06 5e3c c367 903c 49a8 8d3c
000000c0: d350 f23b 53bc 313c 3ab9 843c d154 5e3c
000000d0: d36a e83b 031f 193c 77dc 6d3c 7e00 6d3c
000000e0: f8e9 473c 7ea9 133c 50b2 da3b fc45 5a3c
000000f0: bf22 833c 39f4 523c 9af5 5c3c 803e 413c
00000100: 55bc 1b3c ad8e 1a3c 58fa de3b 1ad4 283c
00000110: 3fe7 213c f2c2 463c 9d7e 023c e369 8c3c
00000120: 7b5f ab3c 1b8d f63b 0c71 903c 8c34 8f3c
00000130: 2d59 d33b 0b63 8a3b 321d 703c bab3 723c
00000140: 431f 733c 9a88 133c b861 703c 69f1 643c
00000150: 3481 293c 22c7 2d3c d57d 793c 2fe1 453c
00000160: 83d3 aa3c 1de4 423c cf27 563c 5713 853c
00000170: b1e1 473c 83ce d23b 3dfb 4b3c 726f 0c3c
00000180: 1159 2f3c 365d 293c 3f5e 443c a39b 243c
00000190: 1efa 293c 5dc1 773c c276 883c 9b89 353c
000001a0: d1b6 383c c25c 1c3c 3816 a03c 8231 3e3c
000001b0: e19b 7e3c 8200 553c 99ed 463c ca0b 163c
000001c0: 6725 483c 9b50 423c 4732 eb3b d9c9 5a3c
000001d0: ab2f 823c 01a4 573c a651 2c3c 7b60 133c
000001e0: 276e c13b 507b ba3c f564 fa3b 76c0 c43b
000001f0: 914f 573c 8720 083c 4960 bd3b 0e33 093c

embedding.embedding_network.4.weight f4 [64, 128]
-0.025132617 0.05475178 0.007679149 -0.0359989 0.06188633 -0.1121107 -0.04269507 0.038845267
-0.1029443 0.025698261 -0.016151154 0.045182236 0.05754226 0.028514665 0.051615786 0.08741086
-0.0075370236 0.037570033 -0.019684453 -0.053146597 0.055524167 -0.009825862 -0.11526014 -0.09435773
0.03393823 0.03978225 0.05536954 0.0066512236 -0.079796605 -0.047374565 0.04060713 -0.033852816
-0.07743755 -0.011727883 -0.029177908 0.08893854 -0.0320689 -0.0305138 0.07101371 0.048362006
-0.061682664 -0.051177304 0.046272498 0.038536157 -0.10138567 -0.042670567 -0.013217572 0.0037688038
0.049465407 0.03150165 -0.0245378 -0.025350083 -0.058281224 -0.022666363 0.07891122 -0.07315046
-0.07344183 0.061759558 -0.002309009 0.023691071 0.013307302 0.018902253 0.068178035 -0.016757205
0.09105805 -0.021845248 0.06463599 0.07598486 -0.040155157 -0.07829354 -0.084306926 -0.008789702
0.0001875559 0.014316372 0.04362864 -0.008507692 -0.024896799 -0.06316683 0.03064051 0.032107536
-0.005825616 0.033245835 -0.021719381 0.009806504 0.056922663 0.034027837 -0.027980516 0.11237301
-0.08577721 0.041549176 -0.071468815 0.040534537 0.025044635 0.05369867 0.070151746 0.08276667
0.051154852 -0.09692171 0.081716605 0.017431645 0.015122506 0.007879219 0.04536659 0.0077634817
-0.078467295 -0.0972178 0.03806004 0.07307 -0.037673656 -0.04845847 -0.067494355 -0.087499015
0.064199306 -0.054998975 0.0054308497 0.08077888 0.06078453 -0.052544042 -0.079054356 0.07394296
0.069630295 0.033323187 -0.045147806 0.027480166 0.047279354 0.08098793 0.0024151416 0.065208256
0.018655036 -0.028329479 -0.08087646 0.04095964 0.011894267 0.024049345 0.09012666 0.03523046
-0.021880792 0.015278316 -0.008540983 0.094245836 0.009093348 -0.025957016 0.07251544 -0.049870465
-0.05052942 0.03682008 -0.013196773 0.013734015 -0.031821866 -0.06098701 -0.038527768 -0.09355494
-0.04009096 0.0049374937 -0.08385645 0.020249926 0.023385072 -0.002715481 0.053988285 -0.01820335
0.040102735 0.08874579 0.07209298 -0.080822036 0.034819856 -0.07118046 -0.0797981 0.008529933
-0.039608967 -0.10130532 -0.0933888 -0.12681217 -0.0637263 -0.1210904 -0.11456907 -0.009736628
0.05327954 0.047120973 0.06835307 -0.0033846705 -0.027528316 0.0661892 0.0078025493 -0.047007743
-0.022506319 -0.058715627 0.0045383335 0.08952375 -0.080035724 0.04284082 0.06563679 -0.061328538
0.0088500995 -0.03617327 0.08413946 -0.022303302 -0.041413806 -0.02165869 0.014219299 -0.075914875
-0.014621193 0.010592548 0.027794363 0.02842948 -0.0031399045 -0.06592493 0.05051274 0.034668818
0.009059871 -0.0013547221 -0.0808633 -0.06357285 0.01635167 -0.00020631164 -0.030099647 0.04181173
-0.032588772 0.04905241 0.012786167 -0.015381778 0.023862295 0.03323652 0.040792402 -0.079221934
0.03416211 0.06408008 0.08620916 -0.02837859 -0.047890734 -0.017969955 0.029009063 -0.04097527
-0.04648628 -0.029478446 -0.034131538 -0.07333137 0.0091634225 0.046951514 0.034628198 -0.02703657
0.080727965 -0.052104916 -0.04803726 -0.07034266 0.08099828 -0.11602516 -0.04472434 -0.024760364
-0.036599834 -0.050673187 0.08865384 0.069801636 -0.039339352 -0.0056939316 -0.062234458 0.017449237
00000000: ebe2 cdbc 6743 603d 5fa1 fb3b 9573 13bd
00000010: 857c 7d3d 4b9a e5bd 07e1 2ebd 371c 1f3d
00000020: 76d4 d2bd 2985 d23c 6d4f 84bc 0211 393d
00000030: 6fb1 6b3d 9697 e93c 136b 533d 7704 b33d
00000040: 23f9 f6bb 09e3 193d 4a41 a1bc 3fb0 59bd
00000050: 4f6d 633d a7fc 20bc 820d ecbd a03e c1bd
00000060: d002 0b3d b6f2 223d 2ccb 623d 82f2 d93b
00000070: 676c a3bd d50b 42bd a953 263d 40a9 0abd
00000080: 9497 9ebd 4e26 40bc 8206 efbc 6925 b63d
00000090: ae5a 03bd 14f8 f9bc a36f 913d 3d17 463d
000000a0: f6a6 7cbd 4b9f 51bd 3b88 3d3d 17d8 1d3d
000000b0: 4aa3 cfbd 55c7 2ebd 848e 58bc 09fe 763b
000000c0: 3d9c 4a3d e007 013d 7f03 c9bc faaa cfbc
000000d0: 4bb8 6ebd cfae b9bc 359c a13d e9cf 95bd
000000e0: ac68 96bd 97f7 7c3d be52 17bb c713 c23c
000000f0: df06 5a3c e6d8 9a3c eda0 8b3d 6846 89bc
00000100: a57c ba3d cef4 b2bc e05f 843d f39d 9b3d
00000110: bc79 24bd 5d58 a0bd 1ca9 acbd af02 10bc
00000120: a7aa 4439 378f 6a3c f2b3 323d d963 0bbc
00000130: 5ff4 cbbc 9c5d 81bd cf01 fb3c 3183 033d
00000140: cfe4 bebb c92c 083d d8ec b1bc 75ab 203c
00000150: bd27 693d c660 0b3d 6537 e5bc d223 e63d
00000160: f6ab afbd 782f 2a3d 3e5e 92bd 8b07 263d
00000170: 682a cd3c 23f3 5b3d b8ab 8f3d 9281 a93d
00000180: c087 513d e47e c6bd 095b a73d cfcc 8e3c
00000190: 63c4 773c d717 013c 51d2 393d ce64 fe3b
000001a0: 76b3 a0bd 201a c7bd d8e4 1b3d b9a5 953d
000001b0: b14f 1abd 637c 46bd 7b3a 8abd af32 b3bd
000001c0: ed7a 833d 9b46 61bd 45f5 b13b 666f a53d
000001d0: 33f9 783d 6c38 57bd 40e7 a1bd 686f 973d
000001e0: 549a 8e3d e57d 083d e8ec 38bd 161e e13c
000001f0: ffa7 413d 00dd a53d 5a47 1e3b e88b 853d
00000200: 72d2 983c 3913 e8bc 8fa2 a5bd 4cc5 273d
00000210: 2ce0 423c 2203 c53c 5494 b83d d14d 103d
00000220: 593f b3bc e751 7a3c 7bef 0bbc f603 c13d
00000230: 44fc 143c cfa3 d4bc fa82 943d f944 4cbd
00000240: f0f7 4ebd a7d0 163d 4737 58bc a204 613c
00000250: a557 02bd 84cd 79bd 4bcf 1dbd bb99 bfbd
00000260: 6b36 24bd b3ca a13b eebc abbd 2ce3 a53c
00000270: 0d92 bf3c 36f6 31bb d222 5d3d 311f 95bc
00000280: c442 243d 5ac0 b53d 7ca5 933d 0686 a5bd
00000290: 449f 0e3d 10c7 91bd 306d a3bd 22c1 0b3c
000002a0: 033d 22bd 2a79 cfbd a142 bfbd 0ddb 01be
000002b0: ef82 82bd 3efe f7bd 30a3 eabd 6186 1fbc
000002c0: a63b 5a3d ec01 413d b2fc 8b3d 59d1 5dbb
000002d0: 1083 e1bc 348e 873d 87ac ff3b 318b 40bd
000002e0: 2c5f b8bc cc7f 70bd 4db6 943b 3a58 b73d
000002f0: c5e9 a3bd db79 2f3d 956c 863d a233 7bbd
00000300: 0200 113c 6c2a 14bd 4f51 ac3d 6ab5 b6bc
00000310: 86a1 29bd 916d b1bc 10f8 683c 4279 9bbd
00000320: ba8d 6fbc 5e8c 2d3c 01b1 e33c f1e4 e83c
00000330: dbc6 4dbb a603 87bd 72e6 4e3d e400 0e3d
00000340: da6f 143c ee90 b1ba a89b a5bd 7b32 82bd
00000350: f0f3 853c 5c55 58b9 8993 f6bc c742 2b3d
00000360: ce7b 05bd 2eeb 483d 127d 513c da03 7cbc
00000370: dc7a c33c 0423 083d ef15 273d 1c3f a2bd
00000380: 92ed 0b3d 6b3c 833d 6e8e b03d 377a e8bc
00000390: 1329 44bd ba35 93bc 6aa4 ed3c afd5 27bd
000003a0: 6668 3ebd c87c f1bc 83cd 0bbd c22e 96bd
000003b0: 2e22 163c 3b50 403d 4cd6 0d3d cc7b ddbc
000003c0: b454 a53d f76b 55bd b8c2 44bd d00f 90bd
000003d0: 6de2 a53d 999e edbd df30 37bd 3fd6 cabc
000003e0: b5e9 15bd b08e 4fbd 2590 b53d 29f4 8e3d
000003f0: 4d22 21bd 2994 babb 8fe9 7ebd b4f1 8e3c

embedding.embedding_network.4.bias f4 [64]
1.9280964e-05 5.1670067e-06 -1.831297e-05 -1.7661456e-05 -3.6280388e-05 2.307029e-05 4.4977846e-06 -4.2159836e-06
-6.5197755e-06 4.534034e-06 -1.4024872e-05 -3.1527594e-05 -2.2244494e-06 -2.4212231e-05 3.7688098e-06 -1.8916742e-05
1.1871706e-05 -1.8792889e-06 -7.2581556e-06 6.7446445e-06 -1.3728026e-05 -1.1709165e-05 9.570835e-06 -1.0441004e-05
-1.1403341e-05 -4.370275e-06 -2.7260065e-05 -8.636302e-06 4.1568233e-06 -8.847092e-06 -8.035991e-06 -3.6085934e-05
-8.183656e-06 -2.2341321e-06 -6.2300537e-06 8.008885e-06 2.9853676e-05 -1.9480378e-05 9.291881e-06 -1.1275595e-05
2.2636946e-06 -2.185909e-05 -1.2828608e-05 2.5033833e-05 -8.872918e-06 -7.012594e-06 -1.8349601e-05 -3.337069e-05
-8.803604e-07 -2.2576137e-07 -5.5047794e-06 -1.1431077e-06 5.0172224e-05 -1.3164093e-05 -3.1545533e-05 -4.584277e-06
1.550022e-05 -4.991216e-06 4.5055394e-06 -1.9736535e-05 1.7136776e-05 1.3009745e-05 -2.74026e-05 3.6950438e-05
00000000: 8ebd a137 4060 ad36 ce9e 99b7 b027 94b7
00000010: c52b 18b8 1287 c137 adeb 9636 0677 8db6
00000020: 72c4 dab6 0e23 9836 5e4c 6bb7 7f3c 04b8
00000030: c047 15b6 5f1b cbb7 a9eb 7c36 65af 9eb7
00000040: 972c 4737 e03b fcb5 158b f3b6 0e50 e236
00000050: 6c51 66b7 7b72 44b7 6c92 2037 c52b 2fb7
00000060: fa50 3fb7 60a4 92b6 8bac e4b7 a2e4 10b7
00000070: d77a 8b36 f96d 14b7 52d2 06b7 fa5a 17b8
00000080: 894c 09b7 19ee 15b6 c10b d1b6 e65d 0637
00000090: 486e fa37 cb69 a3b7 53e4 1b37 502c 3db7
000000a0: fae9 1736 0a5e b7b7 743a 57b7 bfff d137
000000b0: e5dc 14b7 b94d ebb6 78ed 99b7 81f7 0bb8
000000c0: e851 6cb5 d068 72b4 b2b5 b8b6 e26c 99b5
000000d0: 0470 5238 59db 5cb7 c24f 04b8 a4d2 99b6
000000e0: 7806 8237 387a a7b6 4a2e 9736 e38f a5b7
000000f0: f2c0 8f37 6e44 5a37 a3de e5b7 3bfb 1a38

embedding.embedding_network.5.weight f4 [64]
0.893071 0.88454217 0.90620166 0.9085413 0.90203255 0.91094893 0.9143895 0.9116114
0.9273134 0.9028207 0.9062341 0.8947126 0.9542484 0.91318506 0.9340684 0.9328858
0.96252835 0.89477706 0.9207837 0.92393357 0.91058296 0.89973766 0.9020524 0.90512836
0.9644905 0.9387868 0.90716666 0.9159491 0.93360335 0.9137499 0.9039823 0.919372
0.8964257 0.92326206 0.9241686 0.9029509 0.89965 0.9010472 0.9645947 0.9244198
0.90047735 0.901969 0.9165209 0.92312723 0.9403521 0.91534907 0.9153338 0.9059596
0.932232 0.94762367 0.9096619 0.9200333 0.9227121 0.9319384 0.95468134 0.9007885
0.8892767 0.8991164 0.9203525 0.8840407 0.9089527 0.9112222 0.913352 0.9026055
00000000: 4da0 643f 5b71 623f d5fc 673f 2a96 683f
00000010: 9beb 663f f333 693f 6e15 6a3f 5d5f 693f
00000020: 6964 6d3f 421f 673f f5fe 673f e30b 653f
00000030: a049 743f 7fc6 693f 1b1f 6f3f 9bd1 6e3f
00000040: 4268 763f 1c10 653f 7bb8 6b3f e986 6c3f
00000050: f71b 693f 3555 663f e8ec 663f 7eb6 673f
00000060: d9e8 763f 5554 703f 133c 683f a47b 6a3f
00000070: a100 6f3f 83eb 693f 626b 673f f75b 6b3f
00000080: 287c 653f e75a 6c3f 5096 6c3f ca27 673f
00000090: 764f 663f 08ab 663f aeef 763f c7a6 6c3f
000000a0: af85 663f 71e7 663f 1da1 6a3f 1152 6c3f
000000b0: eaba 703f 5154 6a3f 5153 6a3f f8ec 673f
000000c0: c2a6 6e3f 7797 723f 9adf 683f 4d87 6b3f
000000d0: dc36 6c3f 8493 6e3f ff65 743f 139a 663f
000000e0: a3a7 633f 7e2c 663f 399c 6b3f 7e50 623f
000000f0: 20b1 683f dc45 693f 70d1 693f 2711 673f

embedding.embedding_network.5.bias f4 [64]
-0.058440372 -0.044115167 -0.04167439 -0.035757333 -0.03976012 -0.043385394 -0.03530673 -0.024353832
0.00069955573 -0.042315993 -0.014600402 -0.0064603747 0.016084785 -0.036793754 0.002110463 -0.03514565
0.024693785 -0.06619078 0.003923682 0.004605516 -0.03879349 -0.05536157 -0.04846143 -0.024419924
0.037460513 -0.012132546 -0.013956715 -0.010766174 0.015539965 -0.017946493 -0.036473364 -0.01995305
-0.037728842 -0.00772439 0.030241415 -0.054434758 -0.043646876 -0.009846628 0.017520899 -0.01631423
-0.065374665 -0.058855716 -0.0042013447 -0.030757414 0.0013062479 -0.030713478 0.0017710013 -0.046251573
0.01512689 0.022188494 -0.023743004 -0.037966244 0.010079617 -0.027775686 0.002282456 -0.03937559
-0.07232332 -0.028089998 0.0015679824 -0.07587826 -0.014675339 -0.0050484864 -0.025992034 -0.042300474
00000000: 2c5f 6fbd 1bb2 34bd c4b2 2abd 4876 12bd
00000010: 82db 22bd e2b4 31bd ca9d 10bd b081 c7bc
00000020: 6462 373a 8953 2dbd 8636 6fbc 8db1 d3bb
00000030: 3dc4 833c 0cb5 16bd b24f 0a3b e3f4 0fbd
00000040: 9f4a ca3c 088f 87bd 3b92 803b dee9 963b
00000050: ece5 1ebd d0c2 62bd 7e7f 46bd 4b0c c8bc
00000060: 3270 193d 96c7 46bc b5aa 64bc 9b64 30bc
00000070: 569b 7e3c 8604 93bc 1865 15bd 9474 a3bc
00000080: 8f89 1abd e11c fdbb d8bc f73c fbf6 5ebd
00000090: 11c7 32bd c053 21bc fd87 8f3c 6ca5 85bc
000000a0: 27e3 85bd b112 71bd 6fab 89bb f9f6 fbbc
000000b0: 6836 ab3a d59a fbbc f120 e83a 4a72 3dbd
000000c0: c6d6 773c a5c4 b53c b080 c2bc 7e82 1bbd
000000d0: fa24 253c d689 e3bc 4295 153b 4c48 21bd
000000e0: 401e 94bd ff1c e6bc c284 cd3a 1066 9bbd
000000f0: d570 70bc c66d a5bb 3fed d4bc 4343 2dbd

embedding.embedding_network.5.running_mean f4 [64]
0.18588687 -0.4542157 -0.31354704 -0.5758643 -0.033988155 -0.32055834 -0.014893021 -0.049628437
-0.48726636 -0.23055054 -0.6046311 -0.6070276 -0.22972311 0.10118793 -0.46833542 -0.1753199
-0.18198957 -0.26966393 -0.4356733 -0.62131226 -0.4029328 0.24323626 -0.53954077 -0.46809968
-0.355655 -0.15338422 -0.30791566 -0.4826476 -0.09158574 -0.6669897 -0.077066034 -0.45861965
-0.55348706 -0.8134958 -0.4478678 0.35809925 -0.7178225 -0.5599596 -0.30690667 -0.5969982
0.18223645 0.13505562 -0.7728562 -0.22536463 -0.085505515 -0.7528958 -0.05006417 -0.3308656
-0.37594882 -0.6007348 -0.47009024 -0.09619377 -0.67977643 -0.272917 -0.105611995 -0.32342312
0.35682687 -0.7436193 -0.10981092 -0.33745977 -0.48629895 -0.0986435 -0.43083608 -0.5255438
00000000: 2159 3e3e f68e e8be 3d89 a0be d86b 13bf
00000010: 2a37 0bbd 3920 a4be dc01 74bc 3047 4bbd
00000020: fa7a f9be 7115 6cbe 1bc9 1abf 2966 1bbf
00000030: 893c 6bbe 9e3b cf3d a9c9 efbe 0f87 33be
00000040: 795b 3abe 6411 8abe 9210 dfbe 520e 1fbf
00000050: 354d cebe ed12 793e 581f 0abf c3aa efbe
00000060: 6a18 b6be c110 1dbe 1fa7 9dbe 961d f7be
00000070: 4e91 bbbd d6bf 2abf ccd4 9dbd 32d0 eabe
00000080: 54b1 0dbf 4341 50bf ee4e e5be c958 b73e
00000090: 37c3 37bf 8359 0fbf df22 9dbe e0d4 18bf
000000a0: 319c 3a3e 054c 0a3e e7d9 45bf fcc5 66be
000000b0: 841d afbd c7bd 40bf 1610 4dbd 3767 a9be
000000c0: 5d7c c0be c1c9 19bf abaf f0be 3d01 c5bd
000000d0: d405 2ebf c7bb 8bbe 1a4b d8bd b797 a5be
000000e0: 03b2 b63e d65d 3ebf 8ce4 e0bd 87c7 acbe
000000f0: 2dfc f8be 9a05 cabd 8c96 dcbe 0a8a 06bf

embedding.embedding_network.5.running_var f4 [64]
0.46360657 0.6401471 1.0227631 0.9330211 0.7817812 0.57287073 0.5144378 0.7115048
1.0970101 0.41535217 1.0474873 0.6615794 0.70423436 0.52322954 0.9055867 0.56762004
0.57396424 0.42687508 1.0914114 1.2620662 0.7666066 0.34397647 0.8969744 0.4596903
0.6511604 0.4086561 0.8408392 0.6446216 0.81249535 0.8366752 0.6304169 0.78058916
0.9304013 0.7474584 1.2745064 0.35990202 0.53808993 0.97395724 0.93655854 0.75472474
0.50800055 0.6187641 0.83358204 0.46672404 0.56645596 0.42158416 0.657808 0.6189378
1.5043263 0.707886 1.0090239 0.65005684 1.2242255 0.60982996 0.92334855 0.63324696
0.41384733 1.0731798 0.7919944 0.3711058 0.6152036 1.211392 0.5351095 0.49538302
00000000: d75d ed3e aee0 233f e7e9 823f 79da 6e3f
00000010: d022 483f a8a7 123f 32b2 033f 2e25 363f
00000020: d46a 8c3f 0aa9 d43e 1014 863f 445d 293f
00000030: b448 343f 5ff2 053f 88d4 673f 8c4f 113f
00000040: 52ef 123f 5f8f da3e 5eb3 8b3f 638b a13f
00000050: 5540 443f af1d b03e 1da0 653f 875c eb3e
00000060: 73b2 263f 5f3b d13e 3d41 573f ec05 253f
00000070: b2ff 4f3f 5930 563f 0163 213f b1d4 473f
00000080: c82e 6e3f 6f59 3f3f 0723 a33f 1445 b83e
00000090: 43c0 093f 4355 793f 4dc2 6f3f a435 413f
000000a0: 530c 023f 5367 1e3f a265 553f 74f6 ee3e
000000b0: 4203 113f e1d9 d73e 1b66 283f b572 1e3f
000000c0: c48d c03f 0438 353f b227 813f 206a 263f
000000d0: 6cb3 9c3f d11d 1c3f 9260 6c3f 791c 223f
000000e0: cce3 d33e f55d 893f 25c0 4a3f 9401 be3e
000000f0: fc7d 1d3f e50e 9b3f f0fc 083f d8a2 fd3e

embedding.embedding_network.8.weight f4 [5, 64]
-0.015586104 -0.011870524 -0.057927363 0.03043241 0.04548258 -0.008020502 0.0006689173 -0.024550015
0.052588973 -0.00030796416 -0.051942516 -0.013703216 0.043153115 -0.013630447 -0.04616918 -0.03306398
-0.004503812 -0.0049038925 0.04563438 0.038513005 -0.033308327 0.046363328 -0.039466538 -0.02194195
0.00026322965 0.045538604 0.015977167 -0.026477618 -0.008507098 0.07257293 -0.002797499 0.021604257
-0.052844655 0.032532338 0.005389123 0.027723506 -0.0201558 -0.031830166 0.059426643 0.017240638
0.00045049144 -0.060348704 -0.027972605 0.040069453 0.030515498 -0.020666331 -0.0416113 -0.021626942
0.04198389 0.03313095 0.019624962 -0.045150872 -0.021407712 -0.0076879384 0.021721518 0.07104218
-0.014124963 -0.043279815 0.03924198 0.0139678335 -0.02946498 0.07060592 0.02486326 -0.03809829
-0.040756814 -0.018823959 0.039237816 0.08115304 0.03170993 -0.053176805 0.019798145 0.038661703
-0.025064938 0.06286924 -0.013296529 0.042694297 -0.018983228 0.034622163 -0.009760518 -0.019416953
-0.038568735 -0.02111372 0.030756375 -0.0064985277 0.021002417 0.013768194 -0.028264346 0.009045149
-0.013764983 0.004681277 -0.05131392 -0.04432679 0.026705848 0.02701899 -0.019143801 0.073991
-0.056260798 -0.024931712 0.008164089 0.02993892 0.049034487 0.045371216 -0.025055796 -0.032623976
0.027672546 0.0068657896 -0.042876724 -0.05746585 -0.032218058 0.009907167 -0.0010225063 -0.050998293
0.0011214297 0.013069215 0.024398642 -0.019205464 -0.028153418 0.04245555 -0.049714513 -0.017449446
0.03576788 0.021495672 0.024482954 -0.0060734437 0.000819762 -0.009009951 -0.04707677 0.049703047
0.010026124 0.05583502 0.012323824 -0.023704767 0.027468236 -0.010984044 0.04141767 -0.033763986
0.053281657 -0.017185846 -0.06613046 0.05474011 0.029743414 0.037016198 -0.051265694 0.006586072
-0.024277478 0.004146166 -0.04016429 -0.052257136 0.036035024 -0.009965624 0.023119004 -0.05242588
0.05691016 0.0071670585 -0.049053106 0.04169909 -0.069323786 0.004912143 0.028205842 -0.023753488
-0.022942519 -0.049620856 0.07612317 0.024320617 -0.05431121 0.07326821 0.03031838 0.03580012
0.026635323 0.024284199 0.06417 0.0016405489 0.03714912 -0.05003676 0.05978102 -0.022921527
-0.06953303 0.05251972 -0.046209846 -0.0020814615 -0.0779263 0.02491494 -0.022366209 0.017397482
-0.031146552 -0.071664244 0.0550565 0.02105857 0.039086062 -0.045027524 0.019368922 0.017783925
-0.00031808973 -0.00018353644 0.0003228075 -0.0007582771 -0.0019257665 -0.000544188 1.4756733e-05 -0.0028472138
-0.0006545378 -0.0021294565 0.00033718513 1.8151943e-05 -0.00051426137 -0.0002190042 -0.0021916716 -0.00038662748
-0.0013604127 -0.003089223 -0.00037208208 -0.0033122054 -0.0010613982 0.0014892488 0.0014235246 -0.0019409928
-0.00043341043 0.0007105182 -0.0015666455 -0.002301481 -0.00084242877 -0.00042828725 0.0010900835 -1.641853e-05
-0.002038095 -0.0011081245 -0.0013313899 0.0005988679 -0.0025596665 -0.002282535 -0.0022350424 6.565453e-06
-0.00013805735 0.0015780338 -0.0009635178 -0.0005734535 0.00052049 -0.0010365599 -0.0036298516 -0.0007635614
0.0008423702 -0.0022888004 -0.00035612745 -5.5454722e-05 -0.001317486 -0.0004660472 -0.0009785001 7.019226e-05
-0.0014723297 -0.004602946 -0.00076668855 -0.0026353041 -0.0027671552 -0.0014788293 -0.0002180781 -0.0031939922
00000000: dc5c 7fbc 967c 42bc 3e45 6dbd 644d f93c
00000010: f14b 3a3d 6c68 03bc 485a 2f3a 1d1d c9bc
00000020: 8967 573d 4076 a1b9 adc1 54bd 7483 60bc
00000030: 52c1 303d 3d52 5fbc e51b 3dbd 196e 07bd
00000040: b794 93bb d5b0 a0bb 1eeb 3a3d d0bf 1d3d
00000050: 506e 08bd 79e7 3d3d aaa7 21bd 9bbf b3bc
00000060: 1602 8a39 b086 3a3d 8ce2 823c 97e7 d8bc
00000070: 5b61 0bbc 1ea1 943d 3f56 37bb 69fb b03c
00000080: a373 58bd a140 053d 3e97 b03b 681c e33c
00000090: c71d a5bc 5960 02bd 5a69 733d 3d3c 8d3c
000000a0: f02f ec39 3430 77bd ce26 e5bc de1f 243d
000000b0: a3fb f93c 704c a9bc 9c70 2abd fc2a b1bc
000000c0: 4df7 2b3d 52b4 073d 87c4 a03c 1ff0 38bd
000000d0: 3a5f afbc 1aeb fbbb 53f1 b13c 907e 913d
000000e0: 646c 67bc 2d46 31bd 33bc 203d 57d9 643c
000000f0: 8b60 f1bc d699 903d 09ae cb3c f40c 1cbd
00000100: 9ef0 26bd b434 9abc d5b7 203d 9133 a63d
00000110: 46e2 013d eccf 59bd b82f a23c bc5b 1e3d
00000120: fc54 cdbc 97c1 803d afd9 59bc 37e0 2e3d
00000130: b782 9bbc f8cf 0d3d 94ea 1fbc 4d10 9fbc
00000140: 40fa 1dbd aef6 acbc cbf4 fb3c 9af1 d4bb
00000150: 430d ac3c fe93 613c a18a e7bc 1b32 143c
00000160: 8686 61bc 6665 993b 8c2e 52bd 0290 35bd
00000170: 39c6 da3c ee56 dd3c 76d3 9cbc 9888 973d
00000180: b971 66bd 973d ccbc acc2 053c 7742 f53c
00000190: 63d8 483d 2bd7 393d d041 cdbc b8a0 05bd
000001a0: 89b1 e23c 6bfa e03b 819f 2fbd 5061 6bbd
000001b0: 15f7 03bd ac51 223c 9e05 86ba 96e3 50bd
000001c0: f0fc 923a 4320 563c a9df c73c c754 9dbc
000001d0: ffa1 e6bc dfe5 2d3d 72a1 4bbd 24f2 8ebc
000001e0: 5781 123d b117 b03c 7a90 c83c bd03 c7bb
000001f0: 4ce5 563a 799e 13bc 92d3 40bd 6c95 4b3d
00000200: 9d44 243c 43b3 643d dde9 493c 8030 c2bc
00000210: 1105 e13c 6bf6 33bc 93a5 293d 1b4c 0abd
00000220: de3d 5a3d 55c9 8cbc 686f 87bd 2a37 603d
00000230: 76a8 f33c 4c9e 173d fafb 51bd facf d73b
00000240: 90e1 c6bc 90dc 873b 5083 24bd 940b 56bd
00000250: 7699 133d db46 23bc 1164 bd3c 85bc 56bd
00000260: a11a 693d a5d9 ea3b e9eb 48bd aacc 2a3d
00000270: a1f9 8dbd 0bf6 a03b f00f e73c ad96 c2bc
00000280: f3f1 bbbc 3d3f 4bbd 77e6 9b3d 083c c73c
00000290: 6e75 5ebd a50d 963d 405e f83c 26a3 123d
000002a0: 5232 da3c a8ef c63c 906b 833d b007 d73a
000002b0: ad29 183d 58f3 4cbd f1dc 743d edc5 bbbc
000002c0: 5567 8ebd eb1e 573d 8946 3dbd 2169 08bb
000002d0: d397 9fbd 6b1a cc3c 5739 b7bc 2a85 8e3c
000002e0: 0e27 ffbc b4c4 92bd ed82 613d 0683 ac3c
000002f0: b518 203d c86e 38bd 93ab 9e3c 98af 913c
00000300: 48c5 a6b9 b073 40b9 7d3e a939 1dc7 46ba
00000310: 006a fcba d7a7 0eba b093 7737 5298 3abb
00000320: 4a95 2bba 5a8e 0bbb 39c8 b039 0045 9837
00000330: 7fcf 06ba 7ea4 65b9 26a2 0fbb 43b4 cab9
00000340: e04f b2ba 9074 4abb 0314 c3b9 9611 59bb
00000350: 9d1e 8bba e632 c33a 8f95 ba3a e968 feba
00000360: 5d3b e3b9 1242 3a3a e657 cdba 72d4 16bb
00000370: 70d6 5cba be8b e0b9 22e1 8e3a 86ba 89b7
00000380: 8f91 05bb 7d3e 91ba 0882 aeba 58fd 1c3a
00000390: 14c0 27bb 9596 15bb ca79 12bb d04c dc36
000003a0: 7dc3 10b9 07d6 ce3a 9694 7cba d053 16ba
000003b0: 7e71 083a 2edd 87ba cee2 6dbb bd29 48ba
000003c0: 82d2 5c3a b3ff 15bb 9eb6 bab9 0e98 68b8
000003d0: 7faf acba cc57 f4b9 0441 80ba 2f34 9338
000003e0: 30fb c0ba 4fd4 96bb 99fb 48ba 11b5 2cbb
000003f0: 2959 35bb 47d5 c1ba e5ab 64b9 4c52 51bb

embedding.embedding_network.8.bias f4 [5]
-0.036119394 0.015201476 -0.06718524 0.021403743 -0.029634181
00000000: eef1 13bd 9d0f 793c 6a98 89bd e756 af3c
00000010: 62c3 f2bc

exp_avg f4 [5, 5]
0.0 0.0 0.0 0.0 0.0 0.0 0.0 0.0
0.0 0.0 0.0 0.0 0.0 0.0 0.0 0.0
0.0 0.0 0.0 0.0 0.0 0.0 0.0 0.0
0.0
00000000: 0000 0000 0000 0000 0000 0000 0000 0000
00000010: 0000 0000 0000 0000 0000 0000 0000 0000
00000020: 0000 0000 0000 0000 0000 0000 0000 0000
00000030: 0000 0000 0000 0000 0000 0000 0000 0000
00000040: 0000 0000 0000 0000 0000 0000 0000 0000
00000050: 0000 0000 0000 0000 0000 0000 0000 0000
00000060: 0000 0000

exp_avg_sq f4 [5, 5]
0.0 0.0 0.0 0.0 0.0 0.0 0.0 0.0
0.0 0.0 0.0 0.0 0.0 0.0 0.0 0.0
0.0 0.0 0.0 0.0 0.0 0.0 0.0 0.0
0.0
00000000: 0000 0000 0000 0000 0000 0000 0000 0000
00000010: 0000 0000 0000 0000 0000 0000 0000 0000
00000020: 0000 0000 0000 0000 0000 0000 0000 0000
00000030: 0000 0000 0000 0000 0000 0000 0000 0000
00000040: 0000 0000 0000 0000 0000 0000 0000 0000
00000050: 0000 0000 0000 0000 0000 0000 0000 0000
00000060: 0000 0000
