paths_on_manifold/results/checkpoints/model_epoch_15_step_1.pt (torch, 208379 bytes, 37 tensors)

embedding.metric f4 [5, 5]
00000000: 0000 80bf 0000 0000 0000 0000 0000 0000
00000010: 0000 0000 0000 0000 0000 803f 0000 0000
00000020: 0000 0000 0000 0000 0000 0000 0000 0000
00000030: 0000 803f 0000 0000 0000 0000 0000 0000
00000040: 0000 0000 0000 0000 0000 803f 0000 0000
00000050: 0000 0000 0000 0000 0000 0000 0000 0000
00000060: 0000 803f
-1.0 0.0 0.0 0.0 0.0 0.0 1.0 0.0
0.0 0.0 0.0 0.0 1.0 0.0 0.0 0.0
0.0 0.0 1.0 0.0 0.0 0.0 0.0 0.0
1.0

embedding.embedding_network.0.weight f4 [128, 55]
00000000: 7e3c b4bd f655 febc acc3 a03d c3cb f4bd
00000010: 25b4 f4bd 5554 603b 31bd 4dbd 8a4c 9ebc
00000020: 9892 0cbe e60c 983d 99d7 c5bd 6db2 d0bc
00000030: abb8 4b3d 2570 07bd 8648 233d 2291 63bd
00000040: 42e4 b8bc 106f ec3d 0d5d ccbd ed24 6fbd
00000050: c45a 8a3d 2db8 d5bd 0cf3 05be 6bf6 d13d
00000060: 0186 16bd 8387 0fbd b7c7 ed3d 38b3 1bbc
00000070: 3cdd d2bd 7e69 bf3d 866b 6c3c f967 e33d
00000080: c291 003e 5bcc 73bc d71b abbd 962e 07bd
00000090: e863 983d 0dae 5cbc 9dfa 8ebd 513a 9fbd
000000a0: 5170 74bd 8d56 96bd 82e5 e8bd 36a5 bb3d
000000b0: 1418 dbbd 78d6 bfbc e795 9d3d 947c 03bd
000000c0: f435 093e 12d7 ac3d a6b3 993d 87e9 d33c
000000d0: efd1 083d bc75 b43d 178d 253d aad2 3bbe
000000e0: 2e64 07be 8a8f f5bd cbdd 873d cdaa ab3c
000000f0: 8239 dabd d7f9 babd 04f5 fcbc a1a6 a6bc
00000100: e42f e63d 4b2c 393b 0dd3 063e f547 043d
00000110: 993c 56bd b064 be3c 1654 af3d 7ef5 f0bc
00000120: 5cb4 8a3d b463 07be d93e 9fbc 4c69 0a3d
00000130: ce14 003e f2d2 b2bd d2b7 c83d 86b6 f63c
00000140: b0a6 8e3d 9f97 a43d ee49 4bbd 7dfa 56bd
00000150: 9929 5c3d 64c8 ecbc f4bf 973d d374 5e3d
00000160: 8c9c c0bc 1118 023e 6f6d 0c3d c666 37bd
00000170: c9a0 b3bd 4aa2 f9bb 262b 583c 7f2c f5bd
00000180: f48c 5a3d 4cb3 33bc fa38 183e cfce 89bd
00000190: fb1e eb3d bbea 853d 3217 bdbd 2c5a 07be
000001a0: 10b9 e03d 7e38 a23c 9680 9cbc 4dab 403d
000001b0: 87ca b5bd 8608 05bd b803 e8b9 57bb 1f3e
000001c0: 61d1 273c 60e3 533c 8eaf ba3d 1960 b9bd
000001d0: 5719 b7bd c046 913d 73e8 103d e539 72bd
000001e0: f209 b6bd cc69 d03c 1419 8bbd cfc3 1abd
000001f0: fc86 153e be23 76bd 192d 623d 402f ecbd
00000200: 5cff d1bd 95ea 16be 42ff b9bd f46e 743d
00000210: 7eed c63d 6a66 4e3d b7ac 9ebd e4f0 423d
00000220: 2d28 363d b064 333d a9d4 01be bfb1 06bd
00000230: 4daf 10bd 3240 debd 75b3 91bc e310 fa3c
00000240: 2f92 96bd 4c63 eebd cbe8 8cbd e876 01bd
00000250: 9d8f 593d 05e0 abbd a095 96bd d97c 1a3e
00000260: 0d21 d3bd 0166 063d b547 53bd c893 1fba
00000270: ed8d 4abd 106c 473d f252 c23d ca66 083e
00000280: 04c7 a9bd bc69 993d 52c9 0d3e 8a32 b03c
00000290: 5d52 d43d d1da 2f3d 7460 393e 3535 1a3b
000002a0: b356 483d 76e8 9b3d 0f29 6dbd f5e9 673d
000002b0: 763d 22bd 5d64 05bc c1c0 b3bc ddb3 8e3d
000002c0: e8e4 16bc 9bb5 58bd 7f58 1abd 705e 17be
000002d0: 5108 11bd 511a 3f3d c972 e8bb 53f8 663d
000002e0: 41dd 7c3d b43d 90bd fdde 623d affe ddbc
000002f0: e170 cd3d 3ca5 1abc 2e68 4dbd 687a 5abd
00000300: b960 4b3d 0407 68bd 9eba e9bd 45b4 04be
00000310: 6fae 933d 41b9 d7bd 910c 23bd 91b3 9b3d
00000320: 58d4 793c 6e68 713d bf9e f6bd bf87 9bbd
00000330: 1fa2 b83d e9e4 9d3d 76c5 dfbd 8f28 793d
00000340: 02da 7fbd 8690 54bd f0b1 653d 681c 0c3e
00000350: e296 083e 9d56 9c3d 1968 083d 5fb0 bcbd
00000360: 911f 2dbd 531c df3d 4f35 8dbd f4b3 6dbc
00000370: 8d97 09be cb99 543d 913b c43b e7f3 693d
00000380: a89a b4bd a98e eabd 18e0 f73d ffba a236
00000390: 46f3 a3bc 1b81 b23d 8ba6 84bd 8e3e 42bd
000003a0: 25e7 213d e466 5d3d 05ac 833d 4a48 f8bd
000003b0: 520d 76bc a92e 783d 0593 e83d 2443 d9bd
000003c0: 7d09 bd3c 22f2 19bc 9e1f 9c3c a140 883c
000003d0: 5aaf 253e be89 eabd 2670 00be 7024 d43d
000003e0: 29cd be3c 1191 1c3d 75cd d2bc 2f1b 6a3d
000003f0: a089 d03d 26b9 a8bd 27a2 373d 139b 273d
-0.088006005 -0.031046849 0.078498214 -0.11952927 -0.11948422 0.0034229953 -0.050229255 -0.019323606
-0.13727796 0.07424335 -0.096602626 -0.025475705 0.04973666 -0.033065934 0.039864086 -0.05555833
-0.02256978 0.11544621 -0.099786855 -0.058384825 0.067555934 -0.10435519 -0.13080996 0.102520786
-0.03674889 -0.035041343 0.11610358 -0.009503178 -0.10296103 0.09346293 0.014429932 0.111038156
0.12555602 -0.014880265 -0.083549194 -0.033003412 0.074409306 -0.013469231 -0.069813944 -0.07774795
-0.059677426 -0.07340727 -0.113719 0.09162371 -0.10697952 -0.023417696 0.07694607 -0.03210123
0.13399488 0.08439459 0.07504968 0.02586819 0.033403333 0.088115185 0.040417757 -0.1834208
-0.1322181 -0.119902685 0.066341005 0.020955468 -0.106555 -0.091296844 -0.030878551 -0.020343127
0.11239603 0.002825516 0.13166447 0.032295186 -0.052303884 0.02324137 0.0856096 -0.029413935
0.06772682 -0.13221627 -0.019439148 0.033791825 0.12507936 -0.08731641 0.09800686 0.03011633
0.06965387 0.08036732 -0.04963105 -0.052484978 0.053750608 -0.028904147 0.07409659 0.05431063
-0.023512147 0.12704493 0.03428405 -0.044775747 -0.08770902 -0.0076182233 0.013193881 -0.119713776
0.05335708 -0.010968041 0.14865485 -0.06728899 0.114805184 0.06538912 -0.0923294 -0.13217992
0.10972798 0.019802328 -0.019104283 0.047038365 -0.0887652 -0.03247883 -0.0004425326 0.15598808
0.010242791 0.012932628 0.09115516 -0.09051532 -0.0894038 0.070935726 0.03537793 -0.059137244
-0.08888616 0.025441073 -0.06791893 -0.037784394 0.14602274 -0.06009268 0.05521879 -0.1153245
-0.10253784 -0.14737923 -0.0908189 0.059676126 0.09713267 0.05039064 -0.077477865 0.047593012
0.04447191 0.043797195 -0.1267878 -0.032884356 -0.03532343 -0.10852088 -0.017785767 0.03052563
-0.07352101 -0.11640033 -0.06880339 -0.03160754 0.053115476 -0.08392338 -0.073527575 0.15086688
-0.10309038 0.032812122 -0.051582057 -0.000608739 -0.049451757 0.04868704 0.09488477 0.13320461
-0.08289912 0.0749087 0.13846329 0.021508474 0.10367272 0.04293329 0.181032 0.002353025
0.048910808 0.07612698 -0.057900485 0.056619603 -0.039609395 -0.008141604 -0.021942498 0.069679
-0.009209849 -0.052907567 -0.037682053 -0.14782119 -0.03540832 0.046655957 -0.0070937616 0.056389164
0.06173444 -0.07043019 0.05538844 -0.027098982 0.100312956 -0.009438809 -0.05014818 -0.053339392
0.04965279 -0.056647316 -0.114125475 -0.12959392 0.07211005 -0.10533381 -0.039806906 0.07602609
0.015248381 0.058937483 -0.12041997 -0.07594251 0.09015297 0.07709677 -0.109263346 0.060829695
-0.062463768 -0.05189564 0.056077898 0.13682711 0.13338807 0.07633708 0.0333024 -0.092133276
-0.042266432 0.10894074 -0.068949334 -0.014508236 -0.13436718 0.05190448 0.005988546 0.05711737
-0.08818561 -0.114529915 0.12103289 4.8497454e-06 -0.020013463 0.08716031 -0.06477078 -0.047422938
0.039527077 0.054053202 0.064292945 -0.12123163 -0.015017824 0.060591374 0.11356167 -0.10608509
0.023075813 -0.009396108 0.019058045 0.01663238 0.16180173 -0.114520535 -0.12542781 0.103585124
0.023291187 0.038224284 -0.025732735 0.05715483 0.101825 -0.08238439 0.044832375 0.040919375

embedding.embedding_network.0.bias f4 [128]
00000000: 5ec5 8637 cb0c 9437 680a 67b7 3dde 93b8
00000010: b8d2 21b8 4857 eb38 a8d3 9f37 2c2b bab5
00000020: 691c 3738 1828 1d38 b4d8 b737 04ea d638
00000030: fbe7 56b7 6e26 cc36 c976 a834 2ab8 11b7
00000040: e0ec 35b7 18db 5337 9425 c0b7 e19f 1eb9
00000050: db28 92b7 7820 9f37 9adc 2438 a259 5237
00000060: fa1f b936 d838 8938 7c54 0138 7a22 a6b8
00000070: c710 d6b7 246a d638 3e57 a1b6 0188 7fb8
00000080: 7e6f 3a37 741b 8638 74e8 18b8 5848 d036
00000090: 11a5 95b6 4b19 99b7 b06c ecb7 4c3d ec36
000000a0: 0b2f 92b7 8c3a 9d37 daa1 2537 b28d 11b6
000000b0: 4a5c 7538 2a74 2539 b461 cd35 d977 4a37
000000c0: b4fd a8b8 109e cdb7 c944 2eb7 fbcf 31b7
000000d0: 8ee5 2a37 01d9 dab8 d14a bcb6 741c 3f38
000000e0: f882 ce37 b18f cc37 b800 8937 f4d5 a3b7
000000f0: f05b 70b7 825b 21b7 b572 ae37 f516 5cb7
00000100: 8e13 feb6 f91e 93b7 43c6 4cb7 88dd fa36
00000110: 498d 1bb7 bb32 1638 8a11 0538 c02b f9b7
00000120: eeae 74b8 0083 f0b7 5806 adb6 d48e e9b5
00000130: c233 9136 f8a0 1eb7 3e66 00b8 4e75 d9b7
00000140: f5f5 0438 20b9 b6b8 0a17 2c38 d195 0db8
00000150: 8828 ddb7 ce30 14b8 7a75 cbb7 3885 4fb7
00000160: a45b eb38 aca8 cfb6 5243 9fb8 bfbe 8936
00000170: 4bcb 51b6 be13 bcb7 8e5c 0238 addc 77b8
00000180: 0d11 9cb8 bec6 9f37 9ce8 a036 c8df cbb7
00000190: f4a7 2936 e2cb 0535 5299 02b9 59e9 6038
000001a0: 2a22 3a37 90b7 9db6 f4c8 8ab6 ce53 dab7
000001b0: a7c6 2438 7677 adb7 1afb ae38 aea0 1738
000001c0: 794c 78b8 75e4 d0b7 7af5 e537 f419 bdb6
000001d0: 3c98 98b6 5494 06b8 d06c c235 681c b337
000001e0: 53ea fcb7 00d4 4ab8 5eac 0bb7 f9eb 64b7
000001f0: eaa1 f8b7 c02c 13b7 f67f 68b6 981f e137
1.6065951e-05 1.7648932e-05 -1.3771096e-05 -7.050901e-05 -3.858164e-05 0.000112219306 1.9052837e-05 -1.3870645e-06
4.365706e-05 3.7469057e-05 2.191621e-05 0.00010247904 -1.2809406e-05 6.0841476e-06 3.1378866e-07 -8.6855525e-06
-1.08435925e-05 1.2627592e-05 -2.2905682e-05 -0.00015127614 -1.7423581e-05 1.8969396e-05 3.93061e-05 1.2537845e-05
5.517152e-06 6.543257e-05 3.083468e-05 -7.9219186e-05 -2.55186e-05 0.000102240854 -4.8083302e-06 -6.09234e-05
1.1112423e-05 6.3947315e-05 -3.6456113e-05 6.207305e-06 -4.4597623e-06 -1.82508e-05 -2.8184004e-05 7.040484e-06
-1.7426462e-05 1.8743121e-05 9.87245e-06 -2.1689161e-06 5.8498503e-05 0.000157789 1.5302126e-06 1.2068042e-05
-8.05812e-05 -2.4511508e-05 -1.03872235e-05 -1.0598446e-05 1.0186237e-05 -0.0001043547 -5.6115464e-06 4.5564448e-05
2.46181e-05 2.4385607e-05 1.6332007e-05 -1.9530744e-05 -1.4326521e-05 -9.617654e-06 2.0795831e-05 -1.3118367e-05
-7.5720664e-06 -1.7538188e-05 -1.2205509e-05 7.4763702e-06 -9.271615e-06 3.5810033e-05 3.1726006e-05 -2.9703486e-05
-5.833705e-05 -2.8671231e-05 -5.1565403e-06 -1.7401421e-06 4.327362e-06 -9.455012e-06 -3.06128e-05 -2.592304e-05
3.1700318e-05 -8.7129185e-05 4.1029452e-05 -3.3756547e-05 -2.6364127e-05 -3.5331403e-05 -2.425419e-05 -1.2369179e-05
0.000112227426 -6.1887167e-06 -7.59425e-05 4.105124e-06 -3.126176e-06 -2.242054e-05 3.1080614e-05 -5.909491e-05
-7.4418356e-05 1.9046824e-05 4.795451e-06 -2.4303692e-05 2.5280724e-06 4.984305e-07 -0.00012454882 5.3623084e-05
1.1094418e-05 -4.700334e-06 -4.1361145e-06 -2.602665e-05 3.9285656e-05 -2.0678835e-05 8.343738e-05 3.615085e-05
-5.919903e-05 -2.4901916e-05 2.7413236e-05 -5.6356603e-06 -4.5476754e-06 -3.208623e-05 1.4485795e-06 2.135169e-05
-3.0149857e-05 -4.8357993e-05 -8.325178e-06 -1.3644801e-05 -2.9639301e-05 -8.772302e-06 -3.4645177e-06 2.6836802e-05

embedding.embedding_network.1.weight f4 [128]
00000000: 53a4 7b3f 7878 843f 8822 763f fe9c 823f
00000010: 65da 7b3f 1ffc 813f 210a 793f 4f87 813f
00000020: edb5 7e3f 7109 7d3f 72c4 7c3f a389 7a3f
00000030: 5d07 813f c217 803f b34e 7e3f bebe 7e3f
00000040: e2f6 833f b129 7e3f b852 843f 8b65 7f3f
00000050: d271 823f 4271 803f 4d12 813f 71d3 763f
00000060: fbe6 7c3f 40de 793f df0a 823f e597 833f
00000070: 055f 7f3f 1450 7a3f 50aa 813f 77ff 793f
00000080: 202e 7b3f 3f7a 7d3f 8c80 763f 3a4c 7e3f
00000090: e7a9 813f ed28 823f f00d 823f 79f0 773f
000000a0: 3659 803f 1a9f 833f 6b0b 813f f1f1 7f3f
000000b0: 5fa2 7e3f 57f6 823f 659e 833f 4b96 863f
000000c0: 0ad5 733f 5bfb 823f 295a 833f 96d5 803f
000000d0: ccaa 7d3f e1ef 7e3f 1249 7e3f 9ec2 823f
000000e0: 240e 773f 036b 7a3f 983a 733f 48ef 803f
000000f0: ba55 853f b650 833f 7856 803f b424 813f
00000100: 50a0 773f 95fc 723f 583e 783f e18c 803f
00000110: 2002 793f 5d7e 813f c18d 7d3f aac2 833f
00000120: 757a 883f c798 753f 129f 773f 7f9b 823f
00000130: cb9a 713f 16a4 7d3f e18a 823f 9d99 813f
00000140: ddc7 7e3f 3327 7d3f e871 833f 0412 823f
00000150: 2913 823f f796 7e3f e25b 7c3f f23f 7f3f
00000160: 1709 833f 07ab 7b3f d180 803f 2da6 7f3f
00000170: a5e5 7c3f de33 6f3f bab9 753f 1b56 7f3f
00000180: bf36 803f 07e9 7f3f 3853 833f eb88 833f
00000190: 67d4 7d3f d6a0 823f 562f 843f 93f4 813f
000001a0: c39c 783f 904c 7e3f d03d 823f d32f 7a3f
000001b0: 7c25 803f 345f 7e3f ea86 813f e0c6 813f
000001c0: 1ec8 7e3f 4e5f 793f 2cea 6d3f 76f8 7e3f
000001d0: e7f6 823f ff58 813f 5718 803f e8fd 823f
000001e0: cc85 753f 2f40 873f ba28 713f 3456 7e3f
000001f0: 5483 823f 9d0e 783f 89fe 763f c549 7c3f
0.98297614 1.0349264 0.9614644 1.020416 0.9838012 1.0155066 0.9728108 1.0119418
0.99496347 0.9884253 0.9873725 0.97866267 1.0080372 1.000725 0.99338835 0.995098
1.0309718 0.99282366 1.0337744 0.9976432 1.0190985 1.0034564 1.008371 0.96416384
0.9878995 0.9760475 1.0159568 1.028073 0.99754363 0.9777844 1.01301 0.97655433
0.98117256 0.9901466 0.96289897 0.9933506 1.0129975 1.016874 1.0160503 0.9685131
1.0027225 1.0282929 1.008161 0.9997855 0.9946651 1.0231427 1.0282713 1.0514616
0.95246947 1.0232958 1.026189 1.0065181 0.9908874 0.99584776 0.99330246 1.0215642
0.9650595 0.97819537 0.9501128 1.0073023 1.0416787 1.0259006 1.0026388 1.0089326
0.9672899 0.9491666 0.9697013 1.0042993 0.9726887 1.0116688 0.99044424 1.0293782
1.0662371 0.95936245 0.967271 1.0203704 0.9437682 0.990785 1.0198632 1.0125004
0.9952372 0.9888794 1.0269136 1.0161748 1.0162097 0.99449104 0.985777 0.9970695
1.0237149 0.9830784 1.0039312 0.9986294 0.9878791 0.9343852 0.9598652 0.9974076
1.0016707 0.99964947 1.0259771 1.0276159 0.99152225 1.0205333 1.0326946 1.0152763
0.971142 0.99335575 1.0175114 0.97729224 1.0011439 0.9936402 1.0119298 1.0138817
0.99524105 0.9741105 0.9293544 0.9959787 1.0231599 1.0105284 1.0007428 1.0233736
0.9590728 1.0566462 0.9420277 0.99350286 1.0196328 0.968973 0.9648214 0.98550063

embedding.embedding_network.1.bias f4 [128]
00000000: 8509 d83b 5fe7 4d3d c28e 27bc e241 813d
00000010: 26cd c13c 1342 f93c fea4 b0bc 6b76 563d
00000020: f1e4 8c3c 0a8a 133d 5c38 d23c 37fc a2bb
00000030: 2cdc 263d 057f 0e3d 4e69 0e3d 1b2a 403c
00000040: 32c1 6a3d 48fc 9b38 9703 3e3d ec28 fa3c
00000050: f309 043d 63d7 c73c 705a ab3c 1bc1 e0bb
00000060: b7db 5b3c cd95 363c 0c99 e33c 79d6 763d
00000070: 02b5 ffb9 649f 493b f62f 693d 73aa 0d3c
00000080: 0492 05bc 0e48 f53c e851 a53b 0d45 153c
00000090: dbf2 0a3d 1303 753c 89a5 193d 6529 a63a
000000a0: fb6b 1a3d 8725 4e3d 5f7c 123d 6330 26bc
000000b0: bb87 0c3c 95a4 853d 9aa5 503d a3ee 713d
000000c0: 6bd2 4abc 66c5 303d a097 f83c 3a32 053d
000000d0: 6cbe f23c b06b 2a3d e8b3 4b3c 56e9 0a3d
000000e0: b7bd 3e3c bc1f e7b9 baf4 3fbd 72ad d23c
000000f0: 1d32 803c 3e28 563d 5d9f de3c feea 14bc
00000100: f768 b5ba 6dac c0bb 2c85 cabc d6ea 023d
00000110: cab5 25bb 56d5 1e3d 8d9d 173d bebd 953d
00000120: 7154 a93d bea2 84bb 8b4e 83bc 1b9c 5c3d
00000130: 3a72 cdbc a2cf 7f3c 527b 8b3d 6f5a 0c3d
00000140: 79e8 9c3c 450a b3bb 0f62 a53d 0697 583c
00000150: 8d83 733d 62a5 d03c 02b0 153c dddb 9e3c
00000160: ba77 a43c 04d3 733b ce15 c13b 19d1 223d
00000170: 862d 4cbc 6cd7 dfbc 63af 02bc bea6 1c3d
00000180: 7e88 273d 7406 9f3c 7c00 433d 7496 873d
00000190: 0a51 ddbb ea5d dd3c 0f92 e63c e696 263d
000001a0: 1b6a 0ebc 867c 9a3b 9e99 443d e934 b1bc
000001b0: c3a7 0c3d e1b6 893c b876 fa3b 95d2 4b3d
000001c0: c053 eb3c 405d b4bb 5ed3 53bd 39d4 cc3b
000001d0: 95b4 313d ad1b ec3c b097 123d 0bf2 bb3c
000001e0: d7ab babc e3f2 863d 69b2 6dbd caed f13b
000001f0: 7d46 8a3d d573 413c cf6c fd3a 1554 aa3c
0.0065929317 0.05026948 -0.010226907 0.06311394 0.023657393 0.030427014 -0.02156305 0.052359026
0.017199012 0.036020316 0.02566164 -0.004973914 0.040737316 0.034789104 0.034768395 0.011728789
0.05731315 7.437967e-05 0.046390142 0.030537091 0.03223605 0.024394697 0.020917147 -0.0068589575
0.013419083 0.011144114 0.02778294 0.06026313 -0.00048772251 0.003076517 0.056930505 0.008646595
-0.008152489 0.029941585 0.0050451644 0.009110701 0.03392301 0.014954346 0.037511382 0.0012677131
0.037700634 0.050328758 0.03576314 -0.010143372 0.008577283 0.06525532 0.05093918 0.059065472
-0.012379269 0.043157004 0.030345738 0.032518603 0.029631816 0.041606605 0.01243303 0.033913933
0.011641911 -0.00044083397 -0.04686425 0.02571747 0.015648896 0.05228447 0.0271756 -0.00908923
-0.0013840486 -0.0058799298 -0.024721704 0.03196224 -0.0025285357 0.03877767 0.037015487 0.07311581
0.08268059 -0.0040477207 -0.016028663 0.05385981 -0.025078882 0.015613468 0.06810631 0.03426593
0.01915382 -0.0054638707 0.08075344 0.013219601 0.05945163 0.025469486 0.009136202 0.019391948
0.020076621 0.0037204633 0.005892492 0.039750192 -0.0124620255 -0.0273244 -0.007976386 0.038244955
0.040901653 0.019412257 0.047607884 0.066204935 -0.0067540454 0.02702232 0.028145818 0.04067125
-0.00869229 0.0047145514 0.047998063 -0.021631675 0.034339678 0.016810836 0.007643547 0.049761374
0.028726459 -0.0055042803 -0.051715247 0.006250885 0.043385107 0.02882179 0.03578919 0.022942564
-0.022787018 0.06589296 -0.058031473 0.007383083 0.06751726 0.011807402 0.0019334796 0.020792047

embedding.embedding_network.1.running_mean f4 [128]
00000000: 63a9 9b3b dc3d 003d 1c8f 783a 3617 bbbb
00000010: b2ec 043c be8d d2bb 5492 473c bcd1 fc3b
00000020: 80d7 cfbb 3d3d 65bc 6120 8dbb 8e5a 1cba
00000030: bbee 7d3c e079 48bc 8707 64bc 6f73 2c3c
00000040: dd0e d3bb b24c 90ba 3f83 a6b8 0e0d 173c
00000050: f4c4 b13c 70c1 45b9 803b 8dbc c37b a2bb
00000060: 6f9e 43bc 3024 9a3c 9687 653c 732e b1bb
00000070: b428 363a e901 2dbc a1f5 95bc 6c8a 8fba
00000080: cda6 34bc bb2c 19bc fa80 bd3b 9bba 023c
00000090: 66ca ad3b fcf0 aebb a177 e438 281c e03b
000000a0: d568 c3b9 fb28 9d3c c99c 1c3c 3a97 4dbb
000000b0: 751c 6bbc 0f57 1b3c d6cb 0d3c 0cfa af3c
000000c0: f960 85bc 2a08 8c3c e923 d3ba 5eda ecbb
000000d0: c093 d7bb da77 cfba ba5f 683b b3a7 3ebc
000000e0: 7528 81bc cd70 d43b 0b86 a13b ff55 16bc
000000f0: daec 1aba a406 01bb ff19 81bc 902b aebb
00000100: 65ae 543c 6f9c 003a 4375 b2ba b214 653c
00000110: 27e6 e2bb c2cb f6bb 7a87 6dbc 6a3f 0b3c
00000120: c352 26bc 26f6 1cbb f57b 8bba 9719 d8bc
00000130: 2010 1b3c 2d16 e03b 7a17 7cbc 665c c0bb
00000140: 1f63 dc3b d6a0 adbb a7f5 943c 6079 bebc
00000150: 4ac4 02bb a548 24bc aa86 6fbb 02cc 563c
00000160: 9814 973b 0979 b5bb c089 173c edc9 53bc
00000170: 282b 93bb d955 da3b 3de1 f13b 9e7d edbb
00000180: c712 543b e471 5bbc 0cba babb 610a c2ba
00000190: eeaf 9cbc 4643 be3b d65b 55bc 5ae8 743c
000001a0: 639e 4f3b 5da2 74bc 69ba 873b 78b0 1bbc
000001b0: 9264 0f3c 3351 a9bc 2b40 063c 0395 c1bb
000001c0: 0e4d 813b 27fd a23c 183b f8bb b852 8c3c
000001d0: 374b 883c 4833 57bb 8726 8dbc b0ae 99ba
000001e0: 6e8a c0bb 3a18 113c e790 4ebb c9c5 863b
000001f0: 3fcb a5bc 22a9 b639 dbec b2bb d4d9 413b
0.004750417 0.031308994 0.0009481774 -0.005709554 0.008113073 -0.0064255884 0.012180883 0.007715432
-0.0063428283 -0.013991651 -0.0043068384 -0.00059644214 0.015498812 -0.0122360885 -0.01391781 0.010525568
-0.006440981 -0.0011009185 -7.939943e-05 0.009219421 0.02170036 -0.00018859445 -0.017240286 -0.004958601
-0.011939629 0.018816084 0.014009377 -0.0054071485 0.0006948814 -0.010559537 -0.018305602 -0.0010951287
-0.0110260965 -0.0093490435 0.0057831975 0.0079790605 0.005303669 -0.005338786 0.0001089417 0.006839294
-0.00037271404 0.01918458 0.009558865 -0.0031370656 -0.014350046 0.009481206 0.008654555 0.021481536
-0.016281592 0.017093737 -0.0016108725 -0.00722818 -0.0065788925 -0.0015828565 0.0035457448 -0.011636662
-0.015766362 0.0064831735 0.0049293092 -0.0091757765 -0.00059099274 -0.0019687796 -0.015759466 -0.0053152516
0.012981032 0.0004906123 -0.0013615269 0.013981985 -0.006924409 -0.007531614 -0.014497632 0.008499006
-0.010151568 -0.0023950427 -0.00106418 -0.02637939 0.009464294 0.006838581 -0.015386457 -0.0058703898
0.0067256833 -0.005298714 0.018183542 -0.023251235 -0.0019953423 -0.010027085 -0.0036548772 0.013110163
0.0046106093 -0.00553811 0.009249151 -0.012926561 -0.0044912286 0.006663066 0.007381587 -0.0072476408
0.0032359825 -0.013393853 -0.005698448 -0.0014804119 -0.019126859 0.0058063595 -0.013022384 0.014947975
0.00316801 -0.014931289 0.004142095 -0.009502523 0.008752005 -0.020668602 0.00819401 -0.005907656
0.003945953 0.019896103 -0.007575404 0.017129287 0.016637428 -0.0032836962 -0.017230285 -0.0011725035
-0.005875877 0.008855874 -0.0031519474 0.0041129333 -0.020238517 0.0003483976 -0.0054603643 0.0029579299

embedding.embedding_network.1.running_var f4 [128]
00000000: 461f 163c ccdd be3c 1a58 1a3c dd1b 243c
00000010: 3491 0d3c edff 503c 94e3 ee3b e657 373c
00000020: fd43 e73b 4b12 1d3c a618 863c 4b05 c83b
00000030: 2d5c 3f3c 7382 493c f79e 423c a221 913c
00000040: 176e 973c 9ca2 df3b cdad 823c 0b15 6d3c
00000050: 361a 673c 0e47 483c 104f 403c c948 ed3b
00000060: dd88 533c 19db 4f3c 1b6d a03c 7248 5b3c
00000070: 1b77 a13c 6bc4 703c 9ea3 473c 726d 4c3c
00000080: 397f 293c d5ab 0c3c 3734 083c 34d7 4e3c
00000090: d739 473c f7cb 4e3c f6e1 133c 351b 163c
000000a0: 4019 013c 2a13 963c f66c a43c 2b6f 5b3c
000000b0: ad18 6a3c 31a0 763c 85b6 9e3c a0a9 a53c
000000c0: d5b1 073c 6330 423c 08fe 8e3c 3b98 6b3c
000000d0: 5068 153c dd79 313c 3dee 903c fde6 8a3c
000000e0: 152c 583c 7637 453c 8c04 e83b d3af 7c3c
000000f0: c9d8 923c 18ca 8f3c a9cc 713c 8367 5e3c
00000100: a421 3f3c 6fe7 1a3c e3dd f63b 24fb 433c
00000110: 601e 343c 7b28 5c3c e256 0e3c 61d8 8e3c
00000120: c76a ae3c e019 fe3b 0a41 9f3c f17c 993c
00000130: 7a49 ea3b 6ff1 a83b bdfd 853c 4ed9 8a3c
00000140: 9df1 713c f7a3 443c 71da 963c 26a4 8b3c
00000150: c022 503c ee82 513c cb08 7f3c 0004 733c
00000160: 9825 ca3c b81c 4b3c 3e21 4e3c c815 843c
00000170: ad60 523c 3049 063c 0477 5d3c 8993 243c
00000180: 22dc 383c 8fe8 543c c216 313c 1c00 3b3c
00000190: 093b 4f3c af04 8b3c 3e94 903c e993 3f3c
000001a0: f731 523c d816 163c 3442 a83c d3d7 5d3c
000001b0: 8224 943c a23a 4b3c 00aa 7b3c 986a 1e3c
000001c0: da53 553c 639d 653c 2aac 003c 51d8 623c
000001d0: 066c 8d3c 0708 823c 3ea2 3d3c c7b1 443c
000001e0: 0401 e83b 1c12 b63c a931 1a3c 755f f63b
000001f0: c49f 4f3c 79e4 0a3c 16a9 fa3b aaec 1d3c
0.00916273 0.02329912 0.009420419 0.010016409 0.008640576 0.01275633 0.007290313 0.01119039
0.0070576654 0.009586881 0.016369175 0.0061041466 0.011679691 0.012299168 0.0118787205 0.017716233
0.018485112 0.0068248045 0.015952015 0.014470349 0.01410537 0.012223972 0.0117376 0.0072413427
0.012911049 0.012686514 0.019583276 0.0133839715 0.019710114 0.014695267 0.0121850055 0.012477266
0.010345274 0.00858589 0.00831323 0.012624551 0.012159786 0.012621871 0.009026041 0.00916176
0.007879555 0.018319685 0.020071488 0.013393204 0.01428811 0.015052841 0.019374141 0.020222485
0.008282145 0.011852357 0.017455116 0.014379556 0.009119108 0.010832277 0.017691726 0.016955847
0.013194104 0.012037149 0.00708062 0.015422779 0.017925637 0.01755242 0.014758267 0.013574484
0.011665735 0.009454592 0.007533775 0.011961732 0.01099357 0.013437386 0.008687707 0.017437162
0.02129115 0.0077545494 0.019440193 0.018736335 0.0071498724 0.0051557343 0.016356343 0.016949322
0.014767078 0.012001983 0.018414708 0.017046046 0.012703598 0.012787564 0.015566061 0.014832497
0.02467613 0.012396984 0.012581168 0.016123667 0.012840432 0.00819616 0.013517145 0.010044941
0.0112829525 0.012994899 0.010808649 0.0114136 0.012648352 0.016970007 0.017648812 0.011692979
0.012829295 0.00916072 0.02053938 0.013540226 0.018083815 0.012404116 0.015360355 0.009668969
0.01302048 0.014014575 0.007853547 0.013845519 0.017263424 0.015872968 0.011574326 0.012005276
0.007080199 0.022225432 0.009411254 0.0075187036 0.012672368 0.008477324 0.007649551 0.009638945

embedding.embedding_network.4.weight f4 [64, 128]
00000000: 99a4 2ebc 73da 843d eff3 0b3c c63c 2bbd
00000010: 3fcc 6b3d aff4 f8bd 278e e4bc e147 133d
00000020: c812 d4bd 1a98 ba3c 1f27 cbbc da8a 193d
00000030: 1fb7 733d a754 e33c 8fab 4f3d f055 b63d
00000040: 54ca 90bc aca3 e53c 74bc b9bc 1a6a 58bd
00000050: 3496 8e3d 1b6d 69bc 4185 00be e837 e4bd
00000060: 0e50 db3c c096 413d ae56 483d f244 ccb9
00000070: ee36 9dbd 603d 32bd d92c 0a3d 32a7 10bd
00000080: 3ec4 a2bd f53a 6639 d771 f2bc eb0b c53d
00000090: ceb8 04bd 535b 05bd a3a6 8a3d eacc 5b3d
000000a0: d6a7 76bd 4a23 29bd 61d4 3f3d 3efa d93c
000000b0: f033 d3bd 1f1d 23bd 9973 7cbc 651b 683c
000000c0: 7182 443d 8aed 1c3d f7ac cfbc de5f 0ebd
000000d0: e636 94bd 6fac d5bc 6bb6 943d ea61 b6bd
000000e0: 25a0 a7bd 1372 833d 7aa1 1abc a225 b23c
000000f0: 6a98 813c d072 a33c a0bf 843d 6814 01bd
00000100: 34aa bc3d 366d 73bc 1633 823d a715 9c3d
00000110: 905d 19bd 62c2 a3bd 5f11 b7bd 379d d5bb
00000120: 813f 2abc 4c3f 3c3c b48a 313d 5439 2dbc
00000130: e23b b7bc e4c6 8dbd ab9a be3c b9fd cb3c
00000140: 59bb cc3b d9ec 203d 3a43 c6bc fcad 113a
00000150: 8d2c 5d3d 400f 133d 73a0 14bd f0a1 f33d
00000160: 7d1e a3bd ee27 053d 9978 8dbd 7850 353d
00000170: fb3c dc3c 0db4 403d 014a 8d3d 8419 883d
00000180: e40e 3f3d efe5 c5bd a1bc a83d e83a 9c3c
00000190: 726e 463c 7c8f 2d3c 16ec 083d f9e2 b73c
000001a0: 0a0f a2bd 8517 d3bd 699b 183d 8ea6 993d
000001b0: 56de 17bd 1703 59bd 8871 65bd a0e1 c2bd
000001c0: 5890 673d 9213 28bd 8e94 333c 47e9 a53d
000001d0: b20e 733d b37d 4bbd 6ed8 b2bd 370b 913d
000001e0: cab6 8b3d d832 de3c eb53 3ebd e50d c93c
000001f0: 926d 213d 7f09 a23d bfbe 9fbb 7e8f 833d
00000200: 1033 cb3c bfb8 04bc 318a b1bd 99a7 1d3d
00000210: eaea 6f3c a40e 993c 3490 c53d bb64 a83c
00000220: cff0 d0bc 093e 113c ceed d5bc 88e3 b03d
00000230: 7f04 a8bb bdef a9bc 8aa5 653d c220 46bd
00000240: 1f63 92bd 4f54 093d 561d 9ebc d37e 603c
00000250: a39f edbc ebe0 89bd 2e63 1bbd 14d3 bdbd
00000260: aefd 5cbd 5c5a 103b c65e b2bd 5eda 253c
00000270: 5afa 043d a942 d8bb c984 0d3d edba 7fbc
00000280: 93e3 213d a4d0 c13d 797f 913d ec6f 8abd
00000290: 0672 153d 24d3 a1bd 86fd 9cbd 0de0 6e3c
000002a0: e570 25bd d86a dfbd 27dc bcbd f766 04be
000002b0: 709f 9abd 0950 05be ab09 f9bd c29c debb
000002c0: a8a6 563d f08d 463d 20ee 843d d2e3 cbbb
000002d0: 19e3 fabc f712 2a3d 5b0d 99bc f319 86bd
000002e0: cac4 e9bc d0c4 84bd a0ae 893c 6f9e ae3d
000002f0: 233d 98bd 0e67 2f3d 7475 773d 5f4f 91bd
00000300: 095b 143c d7df 06bd a030 c13d 62f0 41bc
00000310: 0328 1fbd cf0d 13bd 9f08 663c 8d5d 9abd
00000320: e6c7 09bd 5c3f c93b e320 b73c b73d e33c
00000330: 0fa3 e8bb ef7c 99bd 290d 0d3d 1df9 e03c
00000340: 4e27 413c d94c 67bc defb a9bd 8034 a6bd
00000350: 11c3 593c cdb9 cebb 7f86 1cbd eb8a 133d
00000360: 32c6 ddbc d8a8 0f3d 8497 483c 8279 07bd
00000370: 0d07 a33c 113e a03c 572c 163d 4e6f acbd
00000380: b6bd 093d d1c4 6f3d 7d75 b13d bcaf 0dbd
00000390: 0c1e 83bd 846c 6bbc 7bf3 673c 699c 0bbd
000003a0: f2c2 35bd 2632 50bd 9bd7 1abd 9f3e 99bd
000003b0: 8859 223c 62bd f73c 64fa 113d 4a7d 04bd
000003c0: 65f8 9b3d 7f0d 3dbd 27df 47bd 6fa6 7fbd
000003d0: a1ba 8b3d 3dcd f2bd f31d 6dbd 8f80 20bd
000003e0: eef4 40bd ea3e 69bd 9a0e ae3d 938a 783d
000003f0: 4c8a 44bd 0dbb 84bb a34f 88bd d40a 993c
-0.01065936 0.064869784 0.008542045 -0.041806005 0.05756783 -0.12156045 -0.027899815 0.03595722
-0.10355145 0.022777606 -0.024798928 0.037485935 0.05950081 0.027750326 0.05070072 0.0890311
-0.017674603 0.028032146 -0.02267287 -0.05283556 0.06962243 -0.014247204 -0.12550832 -0.11143476
0.026771571 0.047262907 0.04891079 -0.0003896128 -0.07676493 -0.043515563 0.033734176 -0.0353157
-0.079475865 0.00021956472 -0.029595299 0.09621414 -0.032402806 -0.032557797 0.06770065 0.05366222
-0.060218655 -0.04129342 0.0468334 0.026608583 -0.10312641 -0.039822694 -0.01540842 0.014166688
0.04797596 0.038312472 -0.02535103 -0.034759395 -0.072370335 -0.0260832 0.07261356 -0.089053944
-0.08184842 0.06418242 -0.009437913 0.02174646 0.015819747 0.019952208 0.06481862 -0.0315136
0.09212151 -0.014857581 0.063574 0.07621317 -0.037442744 -0.0799606 -0.0893886 -0.0065189856
-0.010391117 0.0114897005 0.04334517 -0.01057275 -0.022367422 -0.06922701 0.02326711 0.024901258
0.0062479195 0.039288376 -0.024201978 0.0005557237 0.053997565 0.035903215 -0.03628583 0.118961215
-0.079647996 0.032508783 -0.06907768 0.044266194 0.026884547 0.04704671 0.06898881 0.06645492
0.04664506 -0.09662997 0.08239103 0.019071057 0.012111293 0.010593291 0.033428274 0.022447096
-0.07913025 -0.1030722 0.037257586 0.07502471 -0.03707727 -0.052981462 -0.056016475 -0.09515691
0.05653414 -0.04103429 0.010960711 0.08101135 0.059340186 -0.049680423 -0.08732687 0.07082217
0.068219736 0.027123854 -0.04646675 0.024542758 0.039411135 0.079119675 -0.0048750336 0.06423853
0.024804622 -0.0081006875 -0.08668936 0.03848991 0.01464341 0.018683739 0.09646645 0.020555845
-0.025505451 0.008864888 -0.02611437 0.08637148 -0.005127489 -0.020744199 0.056066073 -0.048371084
-0.07147812 0.03352767 -0.019301098 0.013702112 -0.029006785 -0.06732353 -0.037936382 -0.092687756
-0.053952865 0.0022026515 -0.08709483 0.010122864 0.032465316 -0.0065997434 0.034550462 -0.015608531
0.039523672 0.09463623 0.071043916 -0.06759629 0.036485694 -0.079016 -0.07665543 0.014579785
-0.040390868 -0.10909051 -0.09221678 -0.12929903 -0.075499415 -0.13018812 -0.12160047 -0.0067935893
0.05240503 0.048475206 0.06490731 -0.0062222267 -0.030625867 0.041521993 -0.018683126 -0.06547918
-0.02853622 -0.064828515 0.0168069 0.085263126 -0.07433536 0.04282289 0.060414746 -0.07095217
0.009054908 -0.032928314 0.094331026 -0.011837097 -0.038856518 -0.03590184 0.014040141 -0.07537375
-0.033637904 0.006141586 0.022354549 0.027739389 -0.007099516 -0.07494532 0.03443638 0.027462536
0.011789156 -0.014117443 -0.08299993 -0.08115482 0.013291136 -0.0063087703 -0.038214203 0.036021154
-0.027072046 0.03507313 0.012243155 -0.033074863 0.019900823 0.019560846 0.03666338 -0.08419667
0.033628188 0.058537308 0.08664987 -0.03459142 -0.06402215 -0.014369134 0.014157171 -0.03408471
-0.044375367 -0.050829075 -0.037803274 -0.07482647 0.009909041 0.030241672 0.03563918 -0.032346047
0.07615737 -0.04615545 -0.0487968 -0.062414583 0.06822706 -0.11855552 -0.05788989 -0.039185103
-0.047108583 -0.056944765 0.08498879 0.06067903 -0.047983453 -0.0040506185 -0.066558145 0.018681921

embedding.embedding_network.4.bias f4 [64]
00000000: 242f 6d35 e2da 4ab7 93fd 8ab7 e04c 1238
00000010: 4c42 d4b7 6e00 b0b7 8202 8fb7 887b b9b7
00000020: b4e7 dcb7 8ef8 b1b7 6f17 0b38 e2b4 a8b7
00000030: c2ba bd36 5614 ea37 f92e 83b6 fec2 7737
00000040: 51c0 06b7 5630 86b6 9f0d 81b7 864f 57b7
00000050: 6253 a335 c986 b537 fb3a 0338 33e7 2737
00000060: 9592 9e36 7b64 dbb7 fdc3 4e36 6ece 5e36
00000070: 68a3 8c36 1779 f436 1a07 1b37 347a b337
00000080: f0c5 d637 d725 a1b7 9d16 8937 3898 a335
00000090: ba13 de37 233c c4b7 e81c 69b7 0ea0 86b5
000000a0: ae79 30b8 7e43 b437 6b8a 1638 c91e b435
000000b0: ab48 6737 0ce1 cb37 fece 1236 8d4b 91b6
000000c0: 6c98 20b7 e225 4cb5 612c 56b7 8085 6034
000000d0: 7502 41b8 8e0d c536 7262 c1b7 1a98 c037
000000e0: e6dd 94b7 5e5a b837 2c5d 0b38 a5bf 9db7
000000f0: 7f3b 01b8 0b41 3a36 798e 3a36 8c69 03b8
8.835798e-07 -1.2091101e-05 -1.6568962e-05 3.4880708e-05 -2.5303241e-05 -2.0981035e-05 -1.7048096e-05 -2.2111242e-05
-2.6333939e-05 -2.1215787e-05 3.3162007e-05 -2.011139e-05 5.6543804e-06 2.7904443e-05 -3.9095726e-06 1.4767747e-05
-8.0318e-06 -3.9991382e-06 -1.5384341e-05 -1.2833514e-05 1.2168714e-06 2.1639646e-05 3.1287764e-05 1.0007806e-05
4.7258313e-06 -2.6153624e-05 3.0810472e-06 3.3200736e-06 4.191348e-06 7.2858634e-06 9.240373e-06 2.1395368e-05
2.560296e-05 -1.9210316e-05 1.6342203e-05 1.2188748e-06 2.6473648e-05 -2.3393024e-05 -1.38946125e-05 -1.003036e-06
-4.2074993e-05 2.14891e-05 3.58917e-05 1.3420005e-06 1.3785592e-05 2.4304281e-05 2.187618e-06 -4.330132e-06
-9.572232e-06 -7.605105e-07 -1.2765727e-05 2.0910193e-07 -4.6017074e-05 5.8726355e-06 -2.3053235e-05 2.2959011e-05
-1.7746304e-05 2.197659e-05 3.3226956e-05 -1.88051e-05 -3.0811407e-05 2.775402e-06 2.779909e-06 -3.1331132e-05

embedding.embedding_network.5.weight f4 [64]
00000000: ec09 633f 99d1 623f 5143 653f 7a09 653f
00000010: abd5 643f 4797 693f 7ea7 693f b40a 673f
00000020: 491e 6b3f f85b 643f 0729 653f d06b 633f
00000030: 42f0 703f 4f41 683f 213f 6d3f a5b6 6e3f
00000040: 21f9 723f 4756 643f 710b 6b3f 3df5 6a3f
00000050: fdcd 673f 1931 633f 4b44 653f c5c8 663f
00000060: 63f7 733f 8e2c 6e3f 88ad 673f 150d 683f
00000070: 85cc 6a3f 1612 663f 69c3 653f 12bd 673f
00000080: 5d10 633f 79f5 6a3f 69db 693f ebd3 663f
00000090: 9a06 623f 14f5 623f 75fe 723f 639a 6a3f
000000a0: ea33 643f da90 643f 5893 683f 400c 693f
000000b0: b4f6 6d3f efc4 673f 17df 683f 0a59 673f
000000c0: 6525 6c3f b66e 703f 502b 683f 38ca 693f
000000d0: 4a41 693f 2b58 6e3f f961 733f d56f 633f
000000e0: 683b 623f 3038 633f 9235 683f 25c2 5f3f
000000f0: e026 673f 6a95 653f cbdc 673f ffca 653f
0.88687015 0.8860107 0.8955584 0.89467585 0.8938853 0.91246456 0.912712 0.90250707
0.91843086 0.89202833 0.8951573 0.88836384 0.94116604 0.90724653 0.9267445 0.93247443
0.9491139 0.8919415 0.91814333 0.91780454 0.9054869 0.8874679 0.8955733 0.901501
0.9529936 0.93036735 0.9049916 0.9064496 0.9171832 0.89871347 0.897513 0.90522873
0.88696843 0.9178081 0.9135042 0.9016711 0.88291323 0.8865521 0.9491952 0.91641825
0.89141715 0.89283526 0.9084983 0.91034317 0.92954564 0.9053487 0.9096541 0.9037024
0.9224456 0.9391893 0.9069109 0.91324186 0.9111525 0.93103284 0.9507137 0.8884252
0.88371897 0.8875761 0.9070674 0.87405616 0.90293694 0.8968111 0.9057128 0.8976287

embedding.embedding_network.5.bias f4 [64]
00000000: 7369 52bd 0111 8fbc 2b47 45bd 51a8 13bd
00000010: efa9 08bd 4494 eabc 251e 51bc 372c 8bbb
00000020: e316 9e3c 54d8 28bd 8e2d 783a b438 6b3c
00000030: c077 d93c 57b8 82bc aaba ba3c daad a6bc
00000040: f411 0d3d 5cee 5bbd 317d 143d 4761 d33c
00000050: 3c7c cbbc a56e 6abd a0aa 0ebd f3a8 4bba
00000060: d429 873d 8070 e9bb 6dd4 a23b bd12 c93b
00000070: fe94 0a3d 1a18 c9bc 879c 80bb 1a51 39bc
00000080: 4743 0fbd 41f2 5d3c f95d 633d 0f84 10bd
00000090: 8cc6 f3bc fd19 a03b 018b 013d 7418 c43b
000000a0: 7e04 6cbd d75f 4cbd 8895 5e3c 5462 15bd
000000b0: 59c1 ad3c 1e72 16bc ed57 e63c abda 13bd
000000c0: 5f06 0b3d a3a2 483d 614c 3d3c 6f0e 1bbd
000000d0: 9d10 b93c 2705 67bc 2f8d 093c 34da 39bd
000000e0: 6d2f 6cbd da25 29bc a73f bc3c 367e a2bd
000000f0: f175 bb3b a23f 3e3c 97a7 abbc 5c8a f1bc
-0.051370095 -0.017464163 -0.048163574 -0.03604919 -0.033365186 -0.028635152 -0.012763535 -0.004247214
0.019298023 -0.04122193 0.00094672374 0.014356781 0.026546359 -0.01595704 0.022794086 -0.02034657
0.03444095 -0.053694114 0.036252204 0.025803221 -0.024839513 -0.057234425 -0.03483069 -0.0007769011
0.06599775 -0.0071240067 0.004969171 0.006136267 0.033833496 -0.024547625 -0.0039249095 -0.01131084
-0.03497627 0.013546527 0.05550954 -0.03528219 -0.02975776 0.0048859105 0.031626705 0.0059843604
-0.05762147 -0.049896087 0.013585456 -0.036470726 0.02121036 -0.009182481 0.028118098 -0.03609721
0.033941623 0.048983227 0.011553855 -0.03785556 0.02259093 -0.0141003495 0.008395477 -0.04537411
-0.057662416 -0.010323966 0.02297957 -0.07934229 0.005720847 0.011611851 -0.020953937 -0.02948492

embedding.embedding_network.5.running_mean f4 [64]
00000000: 93ed e53d 777b 2bbf 55a9 d1be 8a85 17bf
00000010: ddbc 59be fd26 c8be e7d4 0fbe f91b 6cbe
00000020: 237b 16bf 9a8f 75be c91a 3cbf bc65 52bf
00000030: 5de7 b0be b336 14be 9085 02bf 74dd f9bd
00000040: 4c3b bdbe d67d 9bbe 7c99 26bf b64d 4ebf
00000050: 897f f7be 2d7c 2e3e 64b9 27bf 51b4 0cbf
00000060: 8049 14bf 226b 67be 6006 cabe e050 29bf
00000070: 6d65 3dbe dce2 2fbf 92ad 41be 9ef9 0cbf
00000080: d83e 07bf 8166 62bf 2c79 37bf 90fa b03e
00000090: d1c5 54bf ef77 37bf de10 fbbe 1ad3 40bf
000000a0: 57ae 103e b381 473d 008c 68bf 90d3 8ebe
000000b0: 9d84 80be 8a3b 6dbf 6382 3cbe 52eb d7be
000000c0: 3116 06bf a788 45bf 1f32 27bf aff6 3bbe
000000d0: 9181 5abf 6248 06bf df4b 17be 03e2 d2be
000000e0: 427d a43e d360 66bf dfc5 afbe 7595 c6be
000000f0: 34c3 0dbf a95e 84be b625 f6be e916 1cbf
0.11226954 -0.6698527 -0.40949503 -0.5918814 -0.21263452 -0.39092246 -0.1404606 -0.23057546
-0.5878164 -0.23980561 -0.7347837 -0.82186484 -0.34551516 -0.14473991 -0.5098505 -0.12200442
-0.36959302 -0.30369443 -0.6507795 -0.8058733 -0.4833949 0.17039557 -0.6551726 -0.5496264
-0.5792465 -0.22599462 -0.3945799 -0.6613903 -0.18495722 -0.68705535 -0.18913868 -0.55068386
-0.52830267 -0.8843766 -0.7166927 0.34566164 -0.83114344 -0.7166738 -0.49036306 -0.75322115
0.14129005 0.048707675 -0.90838623 -0.27895784 -0.25101176 -0.92668974 -0.18409114 -0.42171723
-0.5237761 -0.7716164 -0.65310854 -0.18355821 -0.8535395 -0.524542 -0.14775036 -0.41188058
0.32126814 -0.8999149 -0.3433065 -0.38785902 -0.5537598 -0.2585347 -0.48075646 -0.6097246

embedding.embedding_network.5.running_var f4 [64]
00000000: f52a 2e3f 33c7 0d3f 4844 bb3f f2f1 803f
00000010: fd50 5d3f 5388 243f c6a9 273f 8079 793f
00000020: 0848 9b3f e1ce 183f b134 953f f144 373f
00000030: 53aa 403f 9632 293f 2f61 a13f 303a 563f
00000040: e66f 433f f4fa 013f 6316 a73f 1fc6 b53f
00000050: 00a3 8b3f 2b54 f03e 3df1 8d3f 0761 143f
00000060: e37d 8b3f 018e 153f 19f0 943f 4327 6a3f
00000070: c71d 4f3f a90f 763f 773d 543f dcee 883f
00000080: 78b5 8e3f ed39 813f d49b bc3f 891a 0a3f
00000090: ff37 3c3f f951 873f 2408 963f 717a 833f
000000a0: e395 0e3f d567 563f 5105 833f efe9 193f
000000b0: 0c5b 4a3f fbc0 1c3f 7335 7b3f cb9c 6e3f
000000c0: abd1 de3f 619f 5a3f 59c5 973f 75ec 833f
000000d0: e994 bd3f 331a 2d3f 212f 8c3f be81 673f
000000e0: 555d 0e3f 04a9 943f 349b 603f c12c da3e
000000f0: 110f 693f 7b8a bd3f e4e8 2c3f fdb8 3f3f
0.680343 0.5538208 1.4630213 1.0073836 0.86451703 0.64270514 0.6549343 0.9745102
1.2131357 0.5969067 1.1656705 0.7158957 0.75259894 0.66092813 1.2607783 0.8368254
0.7634262 0.5077355 1.3053707 1.4201087 1.0909119 0.46939215 1.1089245 0.5796055
1.0897793 0.58419806 1.1635772 0.9146616 0.8090481 0.96117646 0.8290629 1.0697894
1.114913 1.0095803 1.4735055 0.5394674 0.73522943 1.0571891 1.1721234 1.0271741
0.5569746 0.83752185 1.0235997 0.6012258 0.79045177 0.61231965 0.9812843 0.93208
1.7407736 0.8539944 1.1857101 1.0306536 1.4811069 0.676181 1.0951883 0.90432346
0.55611163 1.161408 0.8773682 0.4261227 0.91038615 1.4807886 0.6754286 0.74891645

embedding.embedding_network.8.weight f4 [5, 64]
00000000: 714a cdbc c9c8 c5bc 0ccc 68bd b562 e43c
00000010: ff63 453d fb49 50bb d3ba 00bc 4ec2 c6bc
00000020: e62b 243d ac27 0ebb 3060 4ebd a126 74bc
00000030: 40b9 293d d9ec 71bc 6978 4abd d1db 33bd
00000040: 8c4c 8f3a 3e06 e2ba 017d 463d 00f3 153d
00000050: 6ddc 1cbd 8e42 213d f9d5 4bbd f207 07bd
00000060: f3fc 0f3c 1f56 413d 1316 b63c a0f0 a9bc
00000070: ff78 87bc c1a9 6e3d bbaf d5ba 0be1 aa3c
00000080: def9 3fbd 4b07 df3c de4c 8a3b 26ed da3c
00000090: 16c4 57bc ea09 83bc 0f54 563d 1bfd 1d3c
000000a0: d3a5 0fbc 1080 70bd ed8b 0bbd 0c6b 223d
000000b0: 396d e53c 5e11 6cbc 2647 3cbd 0ec3 b9bc
000000c0: 5f82 1f3d 9bee 0e3d b8bb ca3c 6792 48bd
000000d0: 8690 c2bc a1c8 b1bb 0eba 833c 2ac6 823d
000000e0: 4949 98bc 7cbc 22bd 878a ce3c 2e19 c23c
000000f0: 1124 a6bc b79a 7a3d b2ee 9a3c 8494 3dbd
00000100: 2158 24bd c6d2 11bc d060 063d aae4 8d3d
00000110: 6bb2 c83c 7be4 7bbd 8a16 113d 9f19 fb3c
00000120: b4e0 b4bc 43d3 693d bd67 b8bb 4482 233d
00000130: 26e2 9fbc b976 363d 0462 93bc 459d bcbc
00000140: fef2 14bd 33fb 09bd 9a50 f73c 7a89 0dbc
00000150: a1f6 403c 00f4 093c 0d45 7dbc 2b6e a83b
00000160: 7eec a1bc 5ebd b23b 6769 58bd 7796 0fbd
00000170: 8c0c d33c 15c0 c73c ef94 a6bc 7161 783d
00000180: 4fb5 54bd 9b63 efbc 6cb3 813c 572c 373d
00000190: 1a49 2f3d d254 163d 7cca a2bc 479c 00bd
000001a0: 857a 983c e8ae 903a 2fbd 25bd 3709 41bd
000001b0: 9cfd bbbc b00f d83a 156b d5bb 2ef0 60bd
000001c0: 7d19 ae3b b724 6c3c 0016 e03c 156f 7abc
000001d0: ea4e acbc 6483 4d3d b9ba 5fbd 1a4a 94bc
000001e0: d90c 213d 3d11 a03c 02ae b53c 8bdc 28bc
000001f0: b830 f93b a274 7ebb e74e 47bd 5cc0 1c3d
00000200: 1807 a93b 8f2e 813d 2206 123c 66e3 b0bc
00000210: 1bc2 d53c 0296 86bc 0923 223d ead5 18bd
00000220: 46da 6d3d 3c1d 35bc 8d23 74bd 4e9c 613d
00000230: b6d4 d13c ac10 eb3c 5350 3dbd b501 fe3b
00000240: f2ac ccbc 3ff7 0e3c 859f 34bd 1b28 5cbd
00000250: 45f2 163d 16f7 00bc fd23 9c3c ca0e 4fbd
00000260: ee38 5e3d 110e a03b a38b 4bbd dfc3 383d
00000270: 767a 65bd f139 813c ffc6 093d e9ae c5bc
00000280: d63f c7bc 08b1 53bd a119 913d 7af5 8f3c
00000290: 641c 26bd 96f7 873d d05d ec3c d270 223d
000002a0: 99fc f03c 2c7d 603c 3b6f 6c3d 43bc 693b
000002b0: 18e1 243d 666b 45bd dd79 6a3d 9962 cfbc
000002c0: 054f 85bd c7f9 513d 3957 45bd 61a4 dfba
000002d0: 49ee 8fbd fd56 d73c b48d ccbc 0e18 b83b
000002e0: 3e73 bdbc 284f 82bd e3e1 5b3d 1f34 4e3c
000002f0: 19b6 3b3d 913b 1fbd 4c35 973c 531d cf3c
00000300: c08a 97ba 8262 4aba 3eb3 16bb 43e8 1cbb
00000310: 932b 5939 b90b 93b9 ac8d f4b9 2357 ecba
00000320: de27 73b9 c969 813a ea39 9fba b95b e4ba
00000330: 63b8 1ab9 6d18 2cbb 9807 213a b2ca 0eb9
00000340: c2fd 21ba b899 66b9 e85b 2dbb ee4d 27ba
00000350: 9092 e4b9 5a27 8639 8df6 73ba e866 1039
00000360: 6c66 4538 0e8c 93ba d3a6 c7ba 7083 d0b9
00000370: 4c75 a13a 418b 8238 c08f 9739 f40a 15ba
00000380: f413 4fba 042f 6c39 7046 06ba bda2 00b9
00000390: 5035 1c39 4f13 25ba 36ad 57ba 3b36 a83a
000003a0: ec0f 37ba 0fdc 53ba f637 86ba 4260 46ba
000003b0: 6507 c5ba 9517 5d39 5e88 cdb9 e053 0eba
000003c0: 7c2b aaba 5231 b5ba bf35 80ba 3397 d8ba
000003d0: 1314 91ba c59a efba 34e5 fa37 2dd1 0f39
000003e0: 21b8 53ba aac9 b7ba a3d6 fbb9 b30d 3fb9
000003f0: 0fdb d639 b80e 323a 5c05 fc39 6af2 aa3a
-0.02505991 -0.024143593 -0.05683522 0.027879098 0.048191067 -0.0031782377 -0.007857042 -0.024262574
0.040080927 -0.0021691127 -0.0503847 -0.014901788 0.041436434 -0.014765942 -0.04943124 -0.043910805
0.0010932847 -0.0017244292 0.048459057 0.036608696 -0.038296152 0.039370112 -0.049764607 -0.03296656
0.008788335 0.047201272 0.022227323 -0.020744622 -0.016537188 0.05826736 -0.0016302982 0.020859262
-0.04686915 0.027225157 0.004220589 0.02672441 -0.013169309 -0.015995938 0.05232626 0.009642865
-0.008767563 -0.05871588 -0.03406899 0.03965287 0.028006183 -0.014408438 -0.04596629 -0.022676017
0.03894269 0.03489552 0.024747714 -0.048967745 -0.023750555 -0.005425528 0.016079929 0.06385453
-0.018589633 -0.039730534 0.02521254 0.023693647 -0.02028087 0.061182704 0.018912647 -0.046284214
-0.04012311 -0.00890035 0.03280717 0.0692838 0.024499139 -0.061497193 0.035421886 0.030651866
-0.022079803 0.05708624 -0.005627601 0.039919153 -0.019517016 0.044546816 -0.017991073 -0.02302421
-0.036364548 -0.033686828 0.030189801 -0.008638734 0.011777551 0.008419991 -0.0154583575 0.005140086
-0.019766089 0.0054547032 -0.052834895 -0.035055604 0.025762819 0.024383584 -0.020334689 0.060639802
-0.05193072 -0.0292223 0.015832625 0.04472002 0.042794324 0.036701985 -0.019871943 -0.031399038
0.01861311 0.0011038454 -0.040463623 -0.04712793 -0.022948079 0.0016484167 -0.0065130093 -0.054916553
0.005313097 0.01441305 0.02735424 -0.015285273 -0.021033723 0.050174132 -0.054621432 -0.01810174
0.039318893 0.01953947 0.0221777 -0.010306488 0.0076046847 -0.0038826843 -0.04865923 0.038269386
0.0051583163 0.063077085 0.008912595 -0.021592807 0.026093533 -0.016428951 0.039584193 -0.03731338
0.05806949 -0.011054333 -0.059604216 0.055080704 0.025614124 0.028694473 -0.04621918 0.0077516683
-0.02498481 0.00872594 -0.044097442 -0.053749185 0.03685214 -0.00787141 0.01906013 -0.050551213
0.05425351 0.0048844893 -0.049693715 0.045108672 -0.05602499 0.015774699 0.033637043 -0.024131255
-0.024322432 -0.051682502 0.070849665 0.017573107 -0.04055442 0.0663902 0.028853327 0.039658375
0.029417323 0.013701718 0.057723265 0.0035665191 0.04025373 -0.048198126 0.057245124 -0.02531557
-0.065092124 0.051263597 -0.048178885 -0.0017062539 -0.07027871 0.026286596 -0.024969913 0.005618102
-0.02312624 -0.06362754 0.05368222 0.012585669 0.04582796 -0.038875166 0.018458031 0.025282538
-0.0011561736 -0.0007720367 -0.002299502 -0.002394215 0.00020710965 -0.0002804676 -0.0004664486 -0.001803134
-0.00023189138 0.0009873445 -0.0012147997 -0.0017422355 -0.00014755274 -0.0026259676 0.0006142794 -0.00013617685
-0.00061794755 -0.00021991774 -0.0026452485 -0.0006382157 -0.00043596746 0.0002558779 -0.0009306453 0.00013771246
4.7063848e-05 -0.001125695 -0.0015232213 -0.0003977078 0.0012318282 6.224821e-05 0.00028908066 -0.0005685531
-0.00078993966 0.00022524229 -0.00051221903 -0.00012267656 0.0001489718 -0.00062971277 -0.00082274096 0.0012833545
-0.00069832685 -0.00080818025 -0.0010240066 -0.0007567444 -0.0015032111 0.00021084987 -0.00039202248 -0.00054293685
-0.001298293 -0.0013823903 -0.0009781643 -0.0016524553 -0.0011068605 -0.0018280378 2.9909053e-05 0.00013715467
-0.00080764486 -0.0014021893 -0.00048034368 -0.00018220283 0.00040980472 0.00067923544 0.0004806918 0.0013042216

embedding.embedding_network.8.bias f4 [5]
00000000: 7440 18bd 09d7 803c ee41 8abd 592b 593c
00000010: 1139 82bc
-0.037170842 0.015727537 -0.06750856 0.013254964 -0.015896352

exp_avg f4 [5, 5]
00000000: 0000 0000 0000 0000 0000 0000 0000 0000
00000010: 0000 0000 0000 0000 0000 0000 0000 0000
00000020: 0000 0000 0000 0000 0000 0000 0000 0000
00000030: 0000 0000 0000 0000 0000 0000 0000 0000
00000040: 0000 0000 0000 0000 0000 0000 0000 0000
00000050: 0000 0000 0000 0000 0000 0000 0000 0000
00000060: 0000 0000
0.0 0.0 0.0 0.0 0.0 0.0 0.0 0.0
0.0 0.0 0.0 0.0 0.0 0.0 0.0 0.0
0.0 0.0 0.0 0.0 0.0 0.0 0.0 0.0
0.0

exp_avg_sq f4 [5, 5]
00000000: 0000 0000 0000 0000 0000 0000 0000 0000
00000010: 0000 0000 0000 0000 0000 0000 0000 0000
00000020: 0000 0000 0000 0000 0000 0000 0000 0000
00000030: 0000 0000 0000 0000 0000 0000 0000 0000
00000040: 0000 0000 0000 0000 0000 0000 0000 0000
00000050: 0000 0000 0000 0000 0000 0000 0000 0000
00000060: 0000 0000
0.0 0.0 0.0 0.0 0.0 0.0 0.0 0.0
0.0 0.0 0.0 0.0 0.0 0.0 0.0 0.0
0.0 0.0 0.0 0.0 0.0 0.0 0.0 0.0
0.0
