paths_on_manifold/results/checkpoints/model_epoch_5_step_1.pt (torch, 208336 bytes, 37 tensors)

embedding.metric f4 [5, 5]
00000000: 0000 80bf 0000 0000 0000 0000 0000 0000
00000010: 0000 0000 0000 0000 0000 803f 0000 0000
00000020: 0000 0000 0000 0000 0000 0000 0000 0000
00000030: 0000 803f 0000 0000 0000 0000 0000 0000
00000040: 0000 0000 0000 0000 0000 803f 0000 0000
00000050: 0000 0000 0000 0000 0000 0000 0000 0000
00000060: 0000 803f
-1.0 0.0 0.0 0.0 0.0 0.0 1.0 0.0
0.0 0.0 0.0 0.0 1.0 0.0 0.0 0.0
0.0 0.0 1.0 0.0 0.0 0.0 0.0 0.0
1.0

embedding.embedding_network.0.weight f4 [128, 55]
00000000: 9783 94bd 4af1 c9bb 0a74 873d 6b5b cbbd
00000010: 6e79 e1bd 203b efbc 7323 1abd 9e8f 11bd
00000020: f872 0bbe 4829 a13d 92a8 adbd dca2 fcbc
00000030: 70ad 7a3d 7e59 f0bc 4538 2d3d fbfc 99bd
00000040: bc05 06bd d465 ee3d 4836 89bd b3de 62bd
00000050: 56d6 9c3d 7565 9abd 7ec5 02be d14d cb3d
00000060: f164 01bd 1ac8 92bc ce18 ea3d 0834 26bb
00000070: 0ff4 c1bd d52b d23d bc80 d9bc 57bb fd3d
00000080: 2af8 d73d baab 5bbd b3bf b7bd ae0a e6bc
00000090: ca5e ca3d 630c 11bc 4764 97bd db3c 94bd
000000a0: 68ad aabd 0ef9 c7bd 32a5 b5bd 8fd6 e83d
000000b0: ee04 e0bd a175 8b3b 36a5 b23d a4fc e1bc
000000c0: d9e0 1c3e c7ad b73d ee11 953d 6d96 3d3d
000000d0: cafb 5e3d 28d7 fd3d 07bf 373d 3386 17be
000000e0: 7e38 fabd 2426 e7bd eb52 933d 9be8 4d3a
000000f0: 256d aebd 44c0 e2bd b987 15bc 1ffa 73bc
00000100: 51df fd3d 7da9 f9bb 47c3 0c3e c5bd 363d
00000110: dfcc 8cbd 68c6 1e3b b5a4 e53d 7d9c 87bc
00000120: 4d6a f73d 02d0 08be fd1a 9dbc 87a3 3f3c
00000130: aceb 003e 8e07 b0bd 453a dc3d a9d1 493d
00000140: 96f3 ae3d 545d e13d 4caa a4bd de4a 6cbd
00000150: 55be a03d a059 b8bc 1036 d13d 39b0 593d
00000160: 3a0a 27bd 5623 e63d e746 4e3d a621 65bd
00000170: b8d1 dbbd 7f22 24bc c85d 503b 9140 f0bd
00000180: 7911 a53d b02b 79bc 0e93 153e 14ed 32bd
00000190: 7a9e f53d 3adc a13d d6fb b0bd 35c4 fbbd
000001a0: 3116 d93d 3b3c 9f3c e0d9 f7bc 4cde 863d
000001b0: 318d fcbd b057 12bd 334e 23b9 107d ef3d
000001c0: bcc8 03bc 735e 18bc 2d94 f63d 7611 c2bd
000001d0: 95b5 a8bd ad9e 573d a280 533c 34ea 9cbd
000001e0: 676f bdbd 394e f83c 3ee2 98bd 9775 29bd
000001f0: 4fd0 1e3e a7f9 a2bd f6a1 973d 409f 01be
00000200: 2a07 dabd 734a 0bbe 578e c1bd a2e5 923d
00000210: 6799 e43d 4668 863d 1a8f acbd 81b6 543d
00000220: 909e 8d3c fb8a 8f3d b528 00be 8ec0 19bd
00000230: 5b23 dcbc ff8a eabd 88fd d93a e468 0a3d
00000240: 045e 9abd ad34 06be 7350 5cbd 9d44 9abd
00000250: 3504 993d ed6c acbd 867c a9bd 9169 0f3e
00000260: 8733 bfbd c70e 343d ff57 8cbd adcb 9a3b
00000270: fb01 69bd dfbf 1d3d ecd4 ae3d 711b ec3d
00000280: a0aa bbbd 63a4 a73d 6a99 023e 68d9 ca3c
00000290: 97ba b83d 8a9d fc3c 9e8a 0d3e 42e8 633c
000002a0: cf0a 6e3d 79b7 ca3d 3c3b a9bd df3e b23d
000002b0: 1e9b 92bd 5304 9ebc dfdf a1bc d252 953d
000002c0: a6e4 35bb be40 99bd c5c0 26bd 8151 17be
000002d0: ff39 52bd 8133 8d3d 95d7 f0bb b36f 3e3d
000002e0: 9d7b 563d bcaf a2bd f122 a83d 9174 b4bc
000002f0: fc9c da3d 4a9e cb3b 8a29 81bd b284 88bd
00000300: 702c 613d bbed 86bd 216c f8bd 2b1c 12be
00000310: 2144 483d 0709 babd 7754 02bd 3f15 c13d
00000320: dee2 f43b e71d 843d 7884 03be 3e3c 9fbd
00000330: 48de d43d d62b b03d 3b23 cabd 7741 3c3d
00000340: 31f2 8abd ea9e a1bd 30f5 783d 2f1d 143e
00000350: 0bbc eb3d 9955 843d 747b 253d c381 d3bd
00000360: da08 27bd d14f db3d cf2d aebd 74ba 2fbc
00000370: e2eb babd c90f 6c3d 7dc4 1bbc c35e 0e3d
00000380: 6ef4 cbbd a8ea e6bd fc9e f93d 6ede 57bc
00000390: b0ef 20bd 08b5 f83d a4a2 38bd 7289 12bd
000003a0: 4fa9 d53c fa4c 803d 13c5 6f3d 024a 08be
000003b0: fe64 7fbc 1c80 9e3d 6718 0e3e 0006 e1bd
000003c0: 85c7 453c 31cd b3bc 31ba 0b3d fef9 203c
000003d0: ba25 203e 4e06 c7bd 00b0 e6bd ed2f f13d
000003e0: 5e09 183a 2c92 673d 15f9 cdbc 8744 823d
000003f0: 42c0 f03d 41ed a4bd 10c5 6d3d f0b3 1d3d
-0.07251661 -0.006162797 0.066139296 -0.09929546 -0.11009489 -0.029202998 -0.037631463 -0.035537355
-0.13618076 0.07869202 -0.08479418 -0.030839376 0.06120056 -0.029339548 0.04228999 -0.07518955
-0.032720312 0.11640516 -0.066998065 -0.055388164 0.07658069 -0.07538883 -0.1277065 0.09926952
-0.031590406 -0.017917681 0.11430512 -0.0025360603 -0.094703786 0.102622665 -0.026550643 0.12389248
0.105453804 -0.053630568 -0.089721106 -0.028081264 0.09881361 -0.008853051 -0.07392173 -0.0723817
-0.08333856 -0.097643 -0.08869399 0.11369049 -0.1093844 0.004255966 0.08722918 -0.027586289
0.15320148 0.08968692 0.072788104 0.046286035 0.054439344 0.123945534 0.044859912 -0.14797287
-0.12217806 -0.112865716 0.0719355 0.00078547903 -0.085169114 -0.11071828 -0.009126597 -0.0148911765
0.1239611 -0.0076190815 0.13746367 0.044614572 -0.068750136 0.0024227146 0.11213056 -0.016554112
0.12080822 -0.13360599 -0.019177908 0.011696703 0.12589902 -0.08595191 0.107533015 0.049272213
0.08542554 0.11004129 -0.08040294 -0.057688586 0.07848803 -0.022503674 0.1021539 0.053146575
-0.040781237 0.112372085 0.050360586 -0.055940293 -0.1073336 -0.01001799 0.003179418 -0.11731065
0.08059973 -0.01520817 0.14606878 -0.043683127 0.11993118 0.07903333 -0.08641784 -0.12293283
0.10599936 0.0194379 -0.030255258 0.065853685 -0.123316176 -0.035728157 -0.00015574023 0.11693776
-0.008043464 -0.009299862 0.12039981 -0.09475987 -0.08237759 0.05264156 0.012909086 -0.07661858
-0.09249764 0.030310737 -0.07465027 -0.041371908 0.15509151 -0.07957774 0.074039385 -0.12658405
-0.10645898 -0.13602619 -0.09450977 0.07172705 0.11162072 0.06562857 -0.08425732 0.05193186
0.017287523 0.0700893 -0.12515529 -0.03753715 -0.026872328 -0.11452293 0.0016631344 0.033791438
-0.07537463 -0.13106032 -0.05378766 -0.07532618 0.074715056 -0.084192134 -0.08275704 0.14005114
-0.09336 0.043959405 -0.068527214 0.004723987 -0.056886654 0.03851306 0.085367054 0.115286715
-0.091634035 0.08185651 0.12753835 0.02476187 0.09019964 0.03083684 0.1382241 0.013910355
0.058115777 0.09898276 -0.08263251 0.08703398 -0.071584925 -0.019289171 -0.01976007 0.07291187
-0.0027754693 -0.07483052 -0.040711183 -0.14777185 -0.05132484 0.06894589 -0.007349918 0.046493243
0.05236398 -0.07943675 0.082097895 -0.02202824 0.10674474 0.006213938 -0.06306751 -0.066659346
0.05497402 -0.06588312 -0.12129999 -0.14268558 0.048893098 -0.09083753 -0.031818833 0.094278805
0.0074733337 0.06451016 -0.12843502 -0.07775162 0.10393959 0.08602111 -0.09870001 0.04596087
-0.067844756 -0.078916386 0.060780704 0.14464258 0.11510476 0.06461639 0.040400937 -0.103274845
-0.040779926 0.10708583 -0.08504831 -0.010725606 -0.09127022 0.05763224 -0.009507296 0.03475834
-0.09958731 -0.11275226 0.12188527 -0.01317559 -0.039291084 0.12143904 -0.04507698 -0.03577561
0.02608171 0.06264682 0.058537554 -0.13309482 -0.015588043 0.07739279 0.13876496 -0.109874725
0.012071495 -0.021948429 0.034113113 0.009825228 0.15639392 -0.097179994 -0.11264038 0.11776719
0.00057997357 0.056535885 -0.025143186 0.06360727 0.1175542 -0.08053065 0.05804926 0.03850168

embedding.embedding_network.0.bias f4 [128]
00000000: 38c2 1539 5478 34b6 ba61 0eb7 3ee7 7a38
00000010: 4367 b3b7 e5a4 b1b8 0e72 2e38 f027 97b7
00000020: 8b63 cfb8 c224 c9b8 d8d7 45b8 a0b4 39b8
00000030: 2745 78b8 25b3 62b9 5ceb a336 2886 0a38
00000040: 8389 1bb8 512b 1a38 8e4a dbb7 29ed 1e38
00000050: 6ac3 a737 3f5a 02b8 e7fa c537 edc9 fab9
00000060: 9ed1 99b7 3eee 7f38 4c46 e2b8 7aab 5238
00000070: 57f5 efb7 b61d 1638 14c9 1838 06c5 54b8
00000080: 59a7 1bb7 467c 4e38 545c 15b8 6eac 6937
00000090: 9b41 473a 8acb 1a38 8972 f736 8ca6 f5b7
000000a0: c32a 9f38 e2d2 1d3a fbf9 07ba f7f3 c7b8
000000b0: 129f 7038 9218 66b8 67df 49b8 9867 0335
000000c0: 22ba 22b7 e114 d438 ea72 9538 0d19 deb9
000000d0: 118a b438 08a9 1136 623c e5b6 bb5a 59b7
000000e0: c913 1e38 b80f 2ab7 76a6 a439 bf5b a237
000000f0: aa93 d537 5c5f 5036 daff 1038 7b77 fab7
00000100: 9f8a 6b38 df7b 0f38 0b4b 8b38 8654 48b7
00000110: c4c4 0eb8 0851 8f3a ee3d 54b9 5605 efb6
00000120: 4271 5538 b65c a43a 9475 0cba b423 f1b9
00000130: d4a1 1037 c86b 04b8 04fd 0c38 fdc0 2ab9
00000140: 107e e2b9 6c56 cab6 8c6d 0838 728c 2a38
00000150: b24e feb7 a855 c137 a369 9437 5c53 e636
00000160: c357 0738 f3de c436 de2c feb8 afff 9d37
00000170: 68e3 9039 fcd6 a4b8 d928 e8b8 e149 f2b6
00000180: d81a 8f38 256a 7bba 88ba 81b8 2192 f337
00000190: e2b4 1eb8 83dc 60ba 75b0 74b9 33ad 43b9
000001a0: b82e 783a 2117 533a ccff e538 4fea dbb8
000001b0: 4423 14b8 2c18 9432 9dd2 a237 8540 4dba
000001c0: 8f11 d2b7 7f86 e138 9faa 71b7 f09a b7b7
000001d0: 7412 86b8 fa6f 36b7 7a0e 4fb8 49d0 d2b7
000001e0: 17f5 b7b8 6cda c938 c530 4e38 d84c 0638
000001f0: ee1d a037 d9aa 96b7 3ae1 a537 31cd 27ba
0.000142821 -2.689213e-06 -8.486613e-06 5.9820006e-05 -2.1386548e-05 -8.470732e-05 4.1591054e-05 -1.80192e-05
-9.8890705e-05 -9.5912736e-05 -4.716948e-05 -4.4275657e-05 -5.919221e-05 -0.00021619776 4.885178e-06 3.3026707e-05
-3.7082948e-05 3.6756803e-05 -2.6141552e-05 3.7891008e-05 1.9998948e-05 -3.1078464e-05 2.3601066e-05 -0.00047834162
-1.8336632e-05 6.1018618e-05 -0.000107896136 5.02276e-05 -2.8605265e-05 3.5790457e-05 3.6426893e-05 -5.072823e-05
-9.277684e-06 4.9229966e-05 -3.5610356e-05 1.3928029e-05 0.00076010235 3.690602e-05 7.3745073e-06 -2.928383e-05
7.589676e-05 0.00060204987 -0.00051870913 -9.5345014e-05 5.7368605e-05 -5.4859156e-05 -4.8130194e-05 4.895205e-07
-9.69929e-06 0.00010112837 7.126278e-05 -0.00042361804 8.608786e-05 2.1705073e-06 -6.8317613e-06 -1.2955333e-05
3.7688562e-05 -1.0136449e-05 0.0003140454 1.9354628e-05 2.546034e-05 3.1049922e-06 3.4570556e-05 -2.985796e-05
5.6157467e-05 3.420922e-05 6.642014e-05 -1.1940609e-05 -3.403869e-05 0.0010934183 -0.00020240966 -7.1233762e-06
5.0888637e-05 0.0012539837 -0.00053580967 -0.00045993703 8.620747e-06 -3.157163e-05 3.361424e-05 -0.00016284357
-0.00043200003 -6.03013e-06 3.252695e-05 4.066196e-05 -3.0315805e-05 2.304728e-05 1.7692166e-05 6.8642385e-06
3.2268243e-05 5.86721e-06 -0.00012120021 1.883492e-05 0.0002763525 -7.860173e-05 -0.000110702305 -7.2207627e-06
6.8237714e-05 -0.0009590707 -6.1859435e-05 2.9035904e-05 -3.7838596e-05 -0.00085777807 -0.00023335389 -0.00018661171
0.0009467411 0.00080524577 0.00010967217 -0.00010486377 -3.5318793e-05 1.724046e-08 1.940998e-05 -0.00078297436
-2.5042127e-05 0.00010753888 -1.4404445e-05 -2.1887448e-05 -6.393055e-05 -1.0874117e-05 -4.936613e-05 -2.5130941e-05
-8.7717715e-05 9.625111e-05 4.9159647e-05 3.2019656e-05 1.9087423e-05 -1.796095e-05 1.9774412e-05 -0.00064011203

embedding.embedding_network.1.weight f4 [128]
00000000: ce59 793f 9b8c 813f 2302 7b3f 29aa 813f
00000010: d785 803f 13b4 823f 618b 7b3f 6f9f 803f
00000020: 82d4 7d3f efb2 823f f23d 7c3f d08d 7f3f
00000030: af9e 823f 9444 833f 46d6 813f c029 7f3f
00000040: 5227 823f 8491 7d3f 8220 833f f518 7f3f
00000050: 0c6f 823f ead5 7e3f d18b 813f 62d1 7c3f
00000060: 078e 7b3f 8dcb 7c3f 7480 803f 91f9 823f
00000070: 6d08 813f 7118 7e3f ae26 843f df75 793f
00000080: 3ccb 7d3f dfe6 7c3f 0a5c 7a3f 2e8f 7d3f
00000090: d430 7e3f 4036 823f 1084 823f d49e 793f
000000a0: 1cc4 7a3f 8646 823f d609 833f 8baa 7e3f
000000b0: fb74 7b3f 70b2 823f 6e0c 833f 707d 833f
000000c0: 2f3a 763f 60f9 803f 498b 833f 8e59 803f
000000d0: d7a3 7c3f 843d 813f 3a29 803f f51b 823f
000000e0: 2256 7c3f bc16 7c3f 08d8 783f 2cf8 7e3f
000000f0: 4b10 863f bf34 813f 5173 803f 5716 803f
00000100: 207c 7e3f a77d 773f b76c 7b3f 0f8b 7f3f
00000110: 7623 7d3f 1a73 813f 4ebb 803f 12bb 833f
00000120: 86bd 853f 380f 7a3f 49fc 763f 0af3 813f
00000130: 40a9 743f 4107 803f de3a 833f 9f6d 7e3f
00000140: 06ac 7b3f cb90 7b3f 9e2c 803f 0221 7b3f
00000150: 72f7 7d3f e1d0 7f3f 2984 7e3f 5847 7f3f
00000160: c4b1 823f 8850 7e3f 0348 813f a2bf 7f3f
00000170: 3362 7b3f 98d8 763f c377 783f 4ffc 813f
00000180: 4092 813f 1108 803f ba5d 833f 3114 843f
00000190: f172 7f3f df09 833f 015a 823f b317 813f
000001a0: 1e86 793f 8dfe 803f 4acd 833f 8e8a 7f3f
000001b0: 28ca 7e3f c5cc 7c3f e095 803f bdbb 813f
000001c0: 30a1 803f 1df7 7f3f 4d3c 763f f5ba 7d3f
000001d0: 8ba1 833f 85f1 803f 434f 803f 06b7 823f
000001e0: 7da2 783f b9c9 823f f7e3 743f e676 7e3f
000001f0: 91ac 803f 7625 7b3f 68b1 7a3f 002f 7d3f
0.97402656 1.0121034 0.98050135 1.0130054 1.0040845 1.0211204 0.9825955 1.0048655
0.99152386 1.0210856 0.9853202 0.99825764 1.0204676 1.0255303 1.0143516 0.9967308
1.016825 0.99050164 1.0244296 0.99647456 1.0190139 0.99545157 1.0120794 0.9875699
0.9826359 0.98748094 1.0039201 1.0232412 1.0080696 0.99256045 1.0324304 0.9744548
0.99138236 0.9878978 0.9779669 0.990466 0.99293256 1.0172806 1.0196552 0.9750798
0.9795549 1.0177772 1.0237377 0.9947898 0.98225373 1.0210705 1.0238168 1.0272655
0.9618253 1.0076103 1.0276881 1.002733 0.986875 1.0096898 1.0012581 1.0164782
0.9856893 0.9847219 0.9720464 0.9959743 1.0473722 1.0094222 1.0035192 1.0006818
0.9940815 0.96676105 0.9821276 0.9982156 0.98882234 1.0113251 1.0057161 1.0291464
1.0448463 0.9767947 0.96478707 1.0152295 0.95570755 1.0002214 1.025234 0.9938602
0.9830936 0.9826781 1.0013616 0.9809724 0.99205697 0.999281 0.9942041 0.99718237
1.02105 0.9934163 1.0100101 0.99901783 0.98196715 0.96424246 0.9705774 1.0155123
1.0122757 1.0002462 1.0262978 1.0318662 0.9978476 1.0237387 1.0183717 1.0085357
0.9747027 1.0077683 1.0297024 0.9982079 0.99527216 0.98749954 1.0045738 1.0135418
1.004919 0.9998644 0.9618576 0.991134 1.0283674 1.0073706 1.0024189 1.0212104
0.9712294 1.0217811 0.95660347 0.99400175 1.0052663 0.98104036 0.9792695 0.9889984

embedding.embedding_network.1.bias f4 [128]
00000000: 8aac 5fbc ea7a f83c 8fbd 80bc 2186 003d
00000010: 72cb c33c a22e c93c d166 aebc e8fe d23c
00000020: 4ac1 b8bb 03cc 123d 7a03 dc39 d2d4 173c
00000030: afd4 953c 2d8c 353d 80fd b53c 08a9 973a
00000040: 8472 9f3c 9d3d 2abc f8c5 e23c 97c1 163c
00000050: 4123 c43c 51d6 e13b 84a7 623c aaf3 cabb
00000060: e075 dabb c096 bcba f19d 233c 4598 073d
00000070: 0902 413c 02b9 81bb 8749 3a3d 79a0 22bb
00000080: 378e 0eba 670f 853c 7ac9 1cbc eb14 2b39
00000090: c6bb ad3b 16d3 913c 0731 013d c589 9abc
000000a0: e5ed 21bc af88 0e3d 556d b73c db3e 3bbb
000000b0: 28ce 5abc d974 183d b5a0 fa3c 12e2 1a3d
000000c0: f216 0fbc 4fdb 393c 214c df3c ea42 073c
000000d0: 1722 f0bb ce96 c93c a497 803c 083d 963c
000000e0: 1d73 143c 4bb6 54bb 1822 a5bc 83db 87bb
000000f0: 857e 103d 4995 343d 14fe 3c3b 3406 11bb
00000100: 6510 de3b 75fa 3dbc c812 a6bc 0c50 d7ba
00000110: ce0d 50bc b8f1 d83c c522 683c add4 0c3d
00000120: fdce 2f3d 9cfb 4139 ae2b 82bc b84b b73c
00000130: f7e8 04bd d4be 9e3c 5fe7 0a3d b159 463b
00000140: 8272 2bbc 0ab4 32bc d3b8 e63c 9313 06ba
00000150: 8585 303b 9eab e63c fdc2 43bb 6b5a dc3b
00000160: 0d54 2d3c ab62 7fbb f461 753b 0bd0 863c
00000170: a8ea c1bc 25e5 a2bc 0266 a3bc 7715 153d
00000180: e11f b63c 6b3f 5f3c 2e96 ae3c b430 143d
00000190: ee2c 27bb d753 f83c 9fa4 6d3c 1b0c 1f3c
000001a0: 3d66 b5bc 9ac8 4c3c 54d8 133d f7f1 8abc
000001b0: c1f4 24bb bafd cebb 82c4 343c 0a48 813c
000001c0: 7d60 4b3c 1e97 a33c 9e49 d1bc ca5f 52bc
000001d0: 5628 ef3c af7e 4e3c ea4d 803c d15e e43c
000001e0: a286 68bc 7879 a93c 8a7a 3ebd 4c40 713b
000001f0: cb15 fc3c ea24 f2bb 805b 313c 6926 13bc
-0.013651976 0.030332047 -0.015715389 0.031377915 0.023900721 0.02455837 -0.021289261 0.025756314
-0.005638276 0.035839092 0.0004196426 0.009267049 0.018289892 0.044323135 0.022215605 0.0011570761
0.019463785 -0.010390666 0.02768229 0.009201429 0.023942592 0.0068920036 0.013833884 -0.006193598
-0.006666884 -0.0014388189 0.009986387 0.0331042 0.01178027 -0.003958822 0.045480277 -0.0024814887
-0.0005438062 0.016242696 -0.00956952 0.00016315623 0.0053019254 0.017800849 0.031540897 -0.018864522
-0.009883379 0.03479832 0.022391 -0.00285714 -0.013354816 0.03722081 0.03059421 0.037813254
-0.008733498 0.011343791 0.02725798 0.0082557 -0.0073282826 0.024608042 0.015697308 0.018339649
0.009060648 -0.0032457288 -0.020157859 -0.004146041 0.03527691 0.044087682 0.0028837966 -0.0022128941
0.0067768567 -0.011595358 -0.020272627 -0.0016427054 -0.012698604 0.026482448 0.014168446 0.03438251
0.04292201 0.00018499646 -0.015889969 0.022374973 -0.032448735 0.019378103 0.03391206 0.0030265863
-0.0104643125 -0.0109071825 0.028164303 -0.0005114611 0.0026935053 0.028158005 -0.002987086 0.006724646
0.010579121 -0.0038968723 0.0037442418 0.016456624 -0.023671463 -0.019884655 -0.019946102 0.036397424
0.022231998 0.01362596 0.021311846 0.03617926 -0.0025508958 0.030313415 0.014504581 0.009707476
-0.022143478 0.012498999 0.03609498 -0.016961081 -0.0025170299 -0.0063168677 0.011033179 0.015781421
0.012413141 0.01996952 -0.025547799 -0.012840221 0.029194038 0.012603446 0.015662152 0.027877243
-0.014192255 0.020687804 -0.04650358 0.0036812006 0.03077211 -0.0073896544 0.010825038 -0.008981326

embedding.embedding_network.1.running_mean f4 [128]
00000000: 479f 6439 ad2f 563b adc6 033c f952 903b
00000010: 3d5f 193b b643 8d3b 9130 7dbb 4a01 863b
00000020: 04f9 f63a cbbc 2fbc 315b 0cbc c7df 10b8
00000030: 66a4 9e3a b419 43bb 573a 64bb c216 6f37
00000040: 033e e2ba 9d97 45bb 2cbf 02bc 0deb a3ba
00000050: cff2 2f3c a483 4d3c c28d 00bb 6161 86bb
00000060: 45b9 28bc 4ecc 683b 8630 523c e175 823b
00000070: 1295 0b3b ce6d a03a 8177 05bc 1017 edba
00000080: b3a9 9f3b 94ed a03a 5a1f b03b b095 26bc
00000090: 8c4a 12bb e65e 9bbb ae5e 9abb edbe 583b
000000a0: f857 1c3b 5570 cb3b 7afd 133b a6b0 993b
000000b0: c845 12bb 08e4 543a 718a ec3a 785c 30bb
000000c0: dfd2 7bbb a373 083b c2f0 03bc ea5f 25bc
000000d0: 8385 3a3b ff7a 463b 4fc7 133c 0783 163b
000000e0: 955f 00bb b804 01bb d77b 72bb c7c2 11bc
000000f0: 8084 26bc 61e4 023c 1361 f6bb 17d5 c7ba
00000100: 313b ac3b 4b8c 41bb f077 053b 853c 89ba
00000110: 5e02 52bb 318e bb3b 6a9d 2cbc ada7 f9ba
00000120: 8b15 fdbb d5ea 7e3b 9922 07bc 50a1 503a
00000130: 900f bcbb 4d17 a2ba 6aac 11bc b330 c63a
00000140: 12df bfba 90dd 8bbb 90fd 933b 9473 bbbb
00000150: 70e9 b4ba 04fe 203b fde9 2bba 03cf 583b
00000160: bb17 efba b88b aabb 24b5 bb3b 64f0 f8ba
00000170: 20be d1b8 7605 183b d712 313b 5ac7 9cbb
00000180: 307b 813b 83f7 64bb d980 4ebb 284e 23bc
00000190: 72b5 14ba 3a32 18bb 8a7e e3bb 86ef 01bb
000001a0: 56f4 023c 144d 82b9 e513 0dbc 752a a6bb
000001b0: 251e dc3b 4ee4 1cbc 5ba8 393c 675d 8e3b
000001c0: afe3 4abb d1d4 d33b fc98 36bc b5bd 9b3b
000001d0: 496d d13b bff4 cfbb a3f8 1abb 0f7f 813a
000001e0: 1dee f93a 0f9d 093c e810 223b 736a a53b
000001f0: 4edc e1ba a4a9 1abb f1ff 8cbb 485f 33bc
0.0002180311 0.0032682226 0.0080429735 0.0044044224 0.0023402714 0.0043110503 -0.0038633684 0.004089509
0.0018842523 -0.010726164 -0.008566664 -3.4540684e-05 0.0012103438 -0.002976996 -0.0034824812 1.4250809e-05
-0.0017260913 -0.0030150183 -0.007980149 -0.0012505964 0.010739042 0.012543593 -0.0019615744 -0.004100964
-0.010298078 0.0035522166 0.012828952 0.0039813374 0.002129857 0.0012239756 -0.008146168 -0.0018088538
0.0048725246 0.0012277835 0.005374831 -0.010167524 -0.0022322265 -0.0047415374 -0.0047109937 0.0033072785
0.0023856144 0.0062084594 0.0022581504 0.0046902476 -0.0022319425 0.00081211375 0.001804663 -0.0026910584
-0.003842525 0.0020820878 -0.008053007 -0.0100936685 0.0028460927 0.0030285714 0.009019687 0.0022966282
-0.0019588221 -0.001968665 -0.0037000084 -0.008896536 -0.010163426 0.00798902 -0.0075188964 -0.0015246001
0.0052560796 -0.0029533084 0.0020365678 -0.0010470307 -0.0032044868 0.0057237376 -0.010535577 -0.0019047164
-0.0077235154 0.0038897295 -0.008247995 0.0007958608 -0.00573916 -0.0012366563 -0.008891204 0.0015120715
-0.0014638624 -0.0042683557 0.004516311 -0.005720565 -0.001380248 0.0024565468 -0.00065579993 0.0033082373
-0.0018241325 -0.005204644 0.0057283808 -0.001899254 -0.0001000131 0.0023196614 0.0027019286 -0.0047845067
0.0039514527 -0.0034937568 -0.0031509905 -0.009967364 -0.00056727894 -0.0023223297 -0.006942575 -0.0019826605
0.007992825 -0.0002485296 -0.0086107 -0.0050709792 0.0067174607 -0.009575916 0.011331643 0.0043446305
-0.0030958464 0.0064645787 -0.011144873 0.0047528394 0.0063912016 -0.0063463147 -0.0023646734 0.0009879785
0.0019068156 0.008399262 0.0024729315 0.00504809 -0.0017231794 -0.002359965 -0.0043029715 -0.01094801

embedding.embedding_network.1.running_var f4 [128]
00000000: 6eb0 e73b 07a0 b03c f694 e23b 5d9a ff3b
00000010: 8299 c03b cf85 393c 4d8e ef3b 4530 053c
00000020: 5a56 9f3b f136 283c c152 633c e975 bc3b
00000030: 8897 203c 5b73 e63b ba37 193c 00fd 8d3c
00000040: 3f7c 653c 9b59 af3b 0413 693c 172a 293c
00000050: 28ac 163c 4e4c 2c3c 199e 393c f8b9 b93b
00000060: dec1 3a3c e9d3 2d3c 2b0c 913c 0897 283c
00000070: 3b9a 9e3c f575 6c3c 8924 453c 4baf 2a3c
00000080: 6e0d 0e3c 1440 ef3b 1ae7 ba3b 4259 483c
00000090: 15b5 243c 5150 263c 2ee8 013c 7044 ef3b
000000a0: 15d5 bc3b eb4c 983c 985f 993c 9783 1e3c
000000b0: d543 563c 45ef 2c3c 9a07 913c 5fda 893c
000000c0: 09a1 d13b 8b9c 1f3c 399a 5f3c bad6 2e3c
000000d0: 58ef e33b fb7f 253c 0c96 633c 1f11 503c
000000e0: 8909 323c b90d 103c bb76 903b be43 403c
000000f0: 6bb5 643c a7af 5d3c 2d75 1b3c b019 403c
00000100: d0ce 243c 7ed3 ec3b 6708 f73b a6dd 1c3c
00000110: 7752 143c 1e23 383c ef5c d53b 0083 873c
00000120: 26b0 913c 90a6 d43b bd81 893c 8e68 833c
00000130: 319a bd3b 8653 6b3b 4bd5 633c a6a7 6c3c
00000140: 058f 813c 104c 0e3c a77b 603c de98 703c
00000150: f119 0d3c 25e5 443c d435 683c 85a4 4e3c
00000160: f308 a53c 9dd2 363c e33f 163c b5bc 853c
00000170: 1b9e 343c 51ed d13b c517 3f3c 5f5d 013c
00000180: 6c7e 233c 6171 183c e4ad 2d3c a4a6 123c
00000190: a412 273c 0fe9 603c 6cf3 883c 6a40 283c
000001a0: f21e 0e3c 702a 133c 42fe 8c3c b593 2a3c
000001b0: fb39 7c3c c9af 5c3c e435 423c 673f 103c
000001c0: 56a0 2d3c c90e 1f3c 7d43 cb3b 7c76 3f3c
000001d0: c530 663c 6f2d 2c3c 099a 1a3c b50a 1b3c
000001e0: b65e ae3b 9f27 863c f25b 033c 6356 9c3b
000001f0: bf82 5f3c 9358 0e3c dcb2 ba3b 3955 f43b
0.0070705926 0.021560682 0.00691473 0.007800384 0.0058776746 0.011323406 0.0073106647 0.008129184
0.004862589 0.010267005 0.013874711 0.0057513607 0.009801753 0.0070327944 0.009351665 0.017332554
0.014006673 0.005351258 0.014225725 0.010324976 0.009196319 0.010516239 0.011329197 0.005667921
0.011398761 0.010609605 0.017705997 0.010289915 0.019360652 0.01443242 0.012032636 0.01041777
0.008670194 0.00730134 0.005703819 0.012228312 0.010052939 0.010150985 0.007928891 0.0073018596
0.005762706 0.018591365 0.01872234 0.009674928 0.013077696 0.010555093 0.01770382 0.01682776
0.0063973707 0.009741913 0.013647609 0.010671312 0.006956022 0.010101314 0.013890754 0.0126993945
0.010866531 0.008792334 0.004408685 0.011734901 0.013959269 0.013530648 0.009488386 0.011724874
0.010059074 0.0072273603 0.0075388434 0.0095743295 0.009052864 0.011238841 0.0065113227 0.016541958
0.01778419 0.0064895824 0.016785497 0.016041066 0.0057862033 0.0035907938 0.0139058335 0.014444267
0.015815267 0.008685127 0.013701356 0.014684884 0.008612142 0.012017523 0.01417299 0.012612467
0.020145869 0.011158613 0.009170505 0.016325334 0.011024023 0.006406464 0.011663382 0.007895797
0.009978872 0.009304375 0.010600541 0.008950863 0.010197315 0.0137274405 0.016717635 0.010269264
0.00867437 0.008982286 0.017211083 0.010411193 0.015394683 0.013469645 0.011853669 0.008804179
0.010597309 0.009708115 0.0062031136 0.011685964 0.0140497135 0.010508879 0.009436139 0.009463002
0.005321349 0.016376315 0.008017527 0.0047710403 0.013642012 0.00868811 0.005697591 0.0074564484

embedding.embedding_network.4.weight f4 [64, 128]
00000000: 985a acbc db1a 403d 62c6 4e3c 9b29 efbc
00000010: 8597 8c3d 6133 d6bd 5964 43bd 61ac 2f3d
00000020: 6d7b bbbd 76af 133d 1dc8 7bbc be1b 583d
00000030: 4f51 553d 2fa4 073d 42ad 8d3d 4925 ac3d
00000040: 21a4 3ebc 529b 063d 465e 1bbd fadd 71bd
00000050: c5d1 393d 0459 c3bb d765 c4bd bab2 b5bd
00000060: 863f 153d 1a17 093d 4214 8b3d 7efa 9d3c
00000070: 41af 98bd 4b0a 06bd 5956 5a3d fa80 29bd
00000080: ba54 9abd d423 dc3a 7be6 a8bc c5eb 923d
00000090: 9a55 27bd d034 fdbc d755 813d 8b0a 323d
000000a0: 9001 6abd 9a66 6abd a4ea 0c3d e2ac 433d
000000b0: bbc2 b1bd 6bb8 39bd d157 98bc 530f e1bb
000000c0: 301f 6d3d c173 dc3c 1afa b3bc a17d f7bc
000000d0: 6d4a 41bd 2599 99bc 4d18 be3d 6aaf 92bd
000000e0: 1879 84bd f213 813d f8ef 41ba 180a 5f3c
000000f0: 4d1a 153c e59b db3c f5a7 903d 6e25 40bc
00000100: 17a6 b53d 608d ebbc 6c57 923d b425 993d
00000110: 0306 39bd 3769 a4bd e61b b6bd 1c7b 69bc
00000120: 232d 063c 248c 633c f8d9 053d 6202 143c
00000130: e86c ebbc 3b17 96bd ef33 0d3d 95fe 363d
00000140: 1cef ffbb 5779 393d 0cf0 afbc 3147 b13c
00000150: b74e 523d 6428 343d 1bc2 00bd 3184 e63d
00000160: 4fcd c5bd fb33 2b3d 6dd4 83bd 3eec 593d
00000170: faec 0a3d 4f3f 743d 9f87 813d 1daa a73d
00000180: 3b3d 4a3d 1faf b2bd c2f5 ae3d 5121 193c
00000190: 4839 813c 6186 aabb ddaf 693d be6d 28bc
000001a0: 1730 85bd 9446 b2bd be07 3f3d eabb 8f3d
000001b0: 9efc 21bd 5f57 39bd 4aa7 6abd a20b 96bd
000001c0: ba2c 7c3d 59a7 61bd 8a0f ec3a 4fe1 a83d
000001d0: 7b69 803d 433d 6dbd 5504 7abd ac20 993d
000001e0: 2b0c a13d 59d0 263d 77d5 36bd 450b ef3c
000001f0: c80e 3e3d 0738 b43d 789b d6ba a4bf 5a3d
00000200: 9bd2 443c a3ca b7bc 9e27 99bd 7ef3 4b3d
00000210: 53e3 823c 0420 023d 6a5a af3d bd74 0d3d
00000220: ea20 2bbc 2ab9 d13c e4f2 6bbc 9927 d33d
00000230: 45c8 2d3c 1b68 e9bc c56c 933d f2af 62bd
00000240: 0f57 5dbd c8af 1f3d 836f 0fbc 7005 ad3c
00000250: 4fd2 04bd 9603 7fbd a8bd 2dbd a4ab c2bd
00000260: adb3 aebc c8af 8b3c 08b8 a2bd f53b 053d
00000270: ee4a db3c c81d 693b 3d67 753d 1625 29bd
00000280: 7d42 313d a20d bb3d c290 a93d 81cf a5bd
00000290: 6160 e13c 21da 97bd 7eee a6bd f887 443b
000002a0: 3e07 00bd 95e5 bebd 4dfd a9bd 2d52 e4bd
000002b0: f8db 67bd d70a debd c7b6 d0bd c5b1 79bc
000002c0: ec1f 683d a18b 513d 833b 763d ad5a 2fbb
000002d0: 2d18 94bc 5467 9d3d 7fbd a93a f1ad 26bd
000002e0: 2520 91bc b996 80bd fbdb 85ba bd29 af3d
000002f0: af74 9cbd 2aae 3e3d d76c 803d d3f1 1cbd
00000300: 59a5 a33b 6a58 52bd 9620 bd3d 3092 1bbc
00000310: 9dfa 53bd 7ae6 5abc 09e5 2f3c ae71 a4bd
00000320: bf50 a6bc 1f75 3c3c 6068 0a3d 864a d43c
00000330: bffb b0ba 0da4 76bd 4dd2 303d 9b14 373d
00000340: 8601 03b9 1987 1a3c d1f6 82bd b3b7 5fbd
00000350: 08af 483c 9ad9 903b 34fd 08bd a022 1d3d
00000360: df88 07bd a0fa 613d 7a75 d03c cd82 85bc
00000370: c2e8 9e3c faaf 2e3d e2b3 2e3d 0834 9fbd
00000380: 66db 1f3d 0534 833d 321c a73d 775a cbbc
00000390: 26b7 62bd 1ae2 9ebc d119 d73c 71b2 3fbd
000003a0: eb6d 09bd 0c03 c1bc b512 14bd a316 87bd
000003b0: 226b a039 037c 4b3d b98c 393d c3e1 b7bc
000003c0: 451b a23d 923c 4abd c23f 3cbd 730e 8cbd
000003d0: f400 b03d d88d dcbd df4c 2dbd 87d4 e1bc
000003e0: 2d06 3ebd 3f39 0dbd ef77 9f3d 185d 953d
000003f0: c700 0ebd 2dc7 a3bc 3003 66bd 9555 f23b
-0.021039292 0.04690061 0.01262054 -0.029194644 0.068648376 -0.104590185 -0.04770312 0.042889003
-0.09154401 0.036056004 -0.015367535 0.052760832 0.052079495 0.033115562 0.06917812 0.08405549
-0.011635811 0.03286297 -0.037931703 -0.059049584 0.045366067 -0.005961539 -0.09589737 -0.0887198
0.036437534 0.033469297 0.06790973 0.019284483 -0.07455302 -0.03272466 0.053305004 -0.041382767
-0.075356916 0.0016795346 -0.020617714 0.07173876 -0.04085312 -0.030908972 0.06315201 0.043467086
-0.057130396 -0.057226755 0.03440346 0.047772296 -0.0867972 -0.04534189 -0.018596562 -0.006868282
0.05789107 0.026910665 -0.021969844 -0.030211272 -0.04719012 -0.018749783 0.09281979 -0.07162364
-0.06468409 0.063026324 -0.0007398124 0.013613246 0.009100509 0.026807735 0.07063285 -0.011727674
0.0886957 -0.028753936 0.07145581 0.074778944 -0.04517175 -0.08027881 -0.0889204 -0.014250543
0.008189472 0.013888393 0.032678574 0.009033771 -0.028738454 -0.073286496 0.034473356 0.044676382
-0.0078104865 0.045281734 -0.021476768 0.021640392 0.0513446 0.043983832 -0.031435113 0.11255682
-0.096583 0.04179762 -0.064370014 0.053203814 0.033917405 0.05963069 0.06324696 0.081867434
0.0493748 -0.08724808 0.08542968 0.009346322 0.015774384 -0.0052040075 0.057052482 -0.010280071
-0.06503313 -0.08704868 0.046638243 0.07018264 -0.039547555 -0.04524934 -0.057288446 -0.073264375
0.061566092 -0.055091236 0.0018010002 0.08246099 0.06270119 -0.05791975 -0.061039288 0.07476935
0.07863649 0.04072604 -0.04463717 0.029180178 0.046400815 0.08799749 -0.0016373238 0.05340542
0.012013103 -0.022435492 -0.074782595 0.04979276 0.015977537 0.031768814 0.08562167 0.03453516
-0.010444859 0.025600988 -0.014401171 0.10310287 0.01060683 -0.028492024 0.071984805 -0.055343576
-0.054038104 0.038985997 -0.008754614 0.021120757 -0.03242713 -0.06225928 -0.0424172 -0.09505394
-0.02132591 0.017051592 -0.079452574 0.032527883 0.026769128 0.003557073 0.05991291 -0.041295134
0.0432763 0.0913346 0.082795635 -0.08096219 0.027511777 -0.07414652 -0.081509575 0.002998827
-0.031256907 -0.09321133 -0.083002664 -0.11148486 -0.056606263 -0.10841911 -0.10191112 -0.015240137
0.056671068 0.05115855 0.06011535 -0.0026756928 -0.018077934 0.07685724 0.0012950151 -0.040693227
-0.017715523 -0.06278748 -0.0010212654 0.08552883 -0.07639443 0.046552815 0.062707596 -0.03831656
0.004994076 -0.05135385 0.09234731 -0.009495303 -0.051752675 -0.013360614 0.010735759 -0.08029495
-0.020302175 0.011502533 0.033790946 0.025914442 -0.001350276 -0.060215045 0.04316931 0.044697385
-0.00012493701 0.009431624 -0.06394733 -0.05461855 0.012248762 0.0044204714 -0.0334446 0.0383631
-0.033089515 0.055170655 0.025446642 -0.016297722 0.019398097 0.042648293 0.04265202 -0.07773596
0.039027594 0.06406406 0.08159675 -0.02482341 -0.055350445 -0.019394923 0.026257427 -0.046801034
-0.03355209 -0.023561023 -0.036150653 -0.065961145 0.00030597398 0.049678814 0.04530022 -0.022446519
0.079153575 -0.04937417 -0.04595924 -0.068386935 0.08593932 -0.10769242 -0.042309638 -0.027567161
-0.04639261 -0.034478422 0.077865474 0.07293147 -0.03466871 -0.019992435 -0.056155384 0.007395456

embedding.embedding_network.4.bias f4 [64]
00000000: c365 37b7 98bb e837 a0f6 02b8 1490 05b8
00000010: 4e41 37b6 b4ac 9ab6 c0e0 a836 ba46 d436
00000020: 4d26 ebb7 108c 8e37 a480 0d37 fe9d b2b7
00000030: a17b d637 a8af bc37 6f11 00b8 f9e3 4037
00000040: 6307 3b37 4ccd c036 2de2 1b37 aa01 5bb6
00000050: 1e47 1735 a4d9 44b7 1e13 c9b7 d620 0337
00000060: 7baf 8736 4a18 8bb6 3067 05b8 2baa beb8
00000070: b6b9 f4b6 e468 c1b6 2009 8833 a179 6e38
00000080: b326 0838 8ef0 0f37 d2e6 5236 f8b2 8037
00000090: b4c9 e436 10a2 a037 3d28 f9b4 37fc d437
000000a0: 7e09 ff36 a081 33b8 3164 aeb7 7bd1 9336
000000b0: 8b9d 6037 e436 be36 3435 a837 936f 94b7
000000c0: 6fd9 8437 b90b e3b7 9f02 1237 e369 74b8
000000d0: 1924 0337 3991 5fb7 642c b436 3e0f 43b6
000000e0: 3338 0a38 721b d937 1d4e 2db7 66be 22b7
000000f0: dc92 84b7 76c3 59b7 3cfb 2338 71f7 b037
-1.0931343e-05 2.774391e-05 -3.1224103e-05 -3.1843854e-05 -2.7307137e-06 -4.609663e-06 5.0329545e-06 6.326326e-06
-2.8032018e-05 1.699294e-05 8.434206e-06 -2.1292824e-05 2.5568357e-05 2.2493143e-05 -3.0533814e-05 1.1497171e-05
1.1147788e-05 5.7459456e-06 9.291381e-06 -3.2634512e-06 5.635537e-07 -1.1733184e-05 -2.396997e-05 7.815854e-06
4.043742e-06 -4.1453504e-06 -3.1805772e-05 -9.091602e-05 -7.2933863e-06 -5.764059e-06 6.334653e-08 5.6856898e-05
3.246097e-05 8.579473e-06 3.1426794e-06 1.5342128e-05 6.818411e-06 1.9148953e-05 -4.640914e-07 2.5389816e-05
7.6006972e-06 -4.279765e-05 -2.0789072e-05 4.405328e-06 1.3388121e-05 5.6688314e-06 2.0051935e-05 -1.769493e-05
1.5836877e-05 -2.7065968e-05 8.702888e-06 -5.8272748e-05 7.816613e-06 -1.3325648e-05 5.369586e-06 -2.9066136e-06
3.2954104e-05 2.5881196e-05 -1.0329791e-05 -9.700283e-06 -1.5804013e-05 -1.2979717e-05 3.909621e-05 2.1096059e-05

embedding.embedding_network.5.weight f4 [64]
00000000: 3e01 693f 5ba7 663f c8f4 6c3f 8fcd 6b3f
00000010: b8c9 6a3f 72ba 6c3f 1bfe 6c3f f327 6b3f
00000020: 11e6 703f fac3 6b3f 46bf 6c3f b1fe 683f
00000030: 9e92 773f f8a8 6b3f 57a7 733f aa95 733f
00000040: 8eb9 773f f7a4 683f 433f 6e3f abf7 6f3f
00000050: 80c3 6c3f 070f 6a3f c9c2 6a3f 1e80 6b3f
00000060: 33af 763f 52d1 733f e6e7 6d3f 20ed 6d3f
00000070: d11b 723f 8cda 6d3f 42cd 673f d506 703f
00000080: 7cda 6a3f 24ea 6e3f c556 703f f27a 693f
00000090: 699b 683f 4842 6b3f 2b63 783f c6b5 6e3f
000000a0: 1f43 6b3f a129 6a3f be5e 703f 01a9 6e3f
000000b0: 02d7 743f 44b4 6c3f 423b 6e3f 508f 6e3f
000000c0: 8724 723f 7304 753f 2821 6b3f d1a2 703f
000000d0: 28d7 713f 4e12 723f 45d6 773f 3cf9 6a3f
000000e0: a6b5 683f cebc 6a3f 2a63 6e3f 83a4 663f
000000f0: 8752 6a3f 3815 6c3f 1d25 6e3f 44c2 693f
0.9101752 0.90099114 0.92561007 0.9211053 0.9171405 0.9247199 0.92575234 0.9185783
0.94101053 0.9209591 0.9247936 0.9101363 0.96708095 0.920547 0.95177215 0.95150244
0.9676751 0.90876716 0.9306528 0.93737286 0.9248581 0.9142918 0.9170347 0.91992366
0.9636108 0.9524127 0.92931974 0.9293995 0.94573694 0.929116 0.90547574 0.93760425
0.9173963 0.9332602 0.938824 0.91203225 0.9086214 0.9189801 0.9702632 0.93246114
0.91899294 0.9146977 0.93894565 0.9322663 0.95640576 0.92462564 0.9305917 0.9318743
0.94586986 0.95709914 0.9184747 0.9399844 0.9446893 0.9455918 0.96811324 0.9178655
0.90902174 0.91694343 0.9312006 0.90094775 0.91532177 0.9221988 0.9302538 0.9131205

embedding.embedding_network.5.bias f4 [64]
00000000: 2a2a 7ebd ff81 5dbd 944d debc fd17 2fbd
00000010: 1db6 36bd a145 3abd 8467 4cbd 8b59 03bd
00000020: e921 91bc 84d3 39bd 9393 b2bc 875c eabc
00000030: 1095 a0b7 aced 41bd 206d 18bc a2e1 0bbd
00000040: 4c5c 533b fc49 72bd 81cb c8bc b3be 77bc
00000050: 92d3 51bd a66a 74bd 00ad 69bd deb5 0dbd
00000060: bf2b 703b bc7f adbc 6854 afbc 2321 fbbc
00000070: 3e68 05bb da30 aebc 17a2 8cbd 7804 c6bc
00000080: 2392 25bd 87d6 03bd 791f ae3a 3a1c 77bd
00000090: 2caa 59bd c5c8 eebc 184b fb3a 221b fcbc
000000a0: 30d9 75bd a107 74bd 7bf4 95bc b9fb 0abd
000000b0: 2ca1 e9bb 1678 36bd bedb bfbc 7689 18bd
000000c0: d3ea 78bb 5080 75ba 0f9f 43bd d3ac 01bd
000000d0: dddc ffbb b959 dcbc d8a6 eebb 9ec8 27bd
000000e0: 02de 8bbd be18 2ebd ea6b a8bc 466d 89bd
000000f0: 065c 20bd ed61 cdbc 7344 95bc 967c 49bd
-0.06205193 -0.054079052 -0.027136602 -0.042747486 -0.04460727 -0.04547656 -0.049903408 -0.032067817
-0.017716365 -0.045367733 -0.021798884 -0.028608574 -1.9142899e-05 -0.047345802 -0.009303361 -0.034150727
0.0032251058 -0.05915259 -0.0245111 -0.01512115 -0.05122716 -0.05967202 -0.05704975 -0.03459727
0.0036647168 -0.021179073 -0.021402553 -0.03065545 -0.0020356323 -0.021263529 -0.06866854 -0.024172053
-0.04042257 -0.03218701 0.0013284526 -0.060329653 -0.053140804 -0.029148469 0.001917216 -0.030774657
-0.06002158 -0.059577588 -0.018305054 -0.033931468 -0.007129809 -0.044548117 -0.02342021 -0.037240468
-0.0037981763 -0.00093651284 -0.047759112 -0.03165896 -0.0078083114 -0.026898252 -0.007283073 -0.040962808
-0.06829454 -0.042504065 -0.02055927 -0.067102954 -0.03915026 -0.025071109 -0.018221116 -0.04919108

embedding.embedding_network.5.running_mean f4 [64]
00000000: 8882 843e 7cff a3be f409 cfbd 203e f9be
00000010: 61a7 d53d 858b 5cbe 6687 033d 0587 bc3d
00000020: 66d0 87be d2b7 1abe 7a49 e7be b5a2 f0be
00000030: 0cae fbbd 6774 693e 18db 3cbe d38b 673d
00000040: 02b0 39bd 3b4d 83be df60 92be d41c d7be
00000050: 0918 4ebe 6309 863e 26a4 d3be 02bb a1be
00000060: aea7 56bd 03c4 c0bd aef8 0cbe 911c 9cbe
00000070: 4c25 db3d 63ff 1ebf 9c28 46bd bd4b 81be
00000080: 8ee7 c8be 443f 30bf 9c3e 90be 6ef9 bf3e
00000090: 7d62 10bf dcf1 e4be 2931 48be 5f6c eebe
000000a0: ef8f 6c3e a012 4e3e 8d56 11bf 56ff 83bd
000000b0: fe82 b73d b75d 0dbf 4b68 323e 516e 07be
000000c0: 3104 81be c610 edbe 2f77 99be 7fe9 c63c
000000d0: 5e44 fbbe 6709 67be 27b5 8b3d 6ad4 4fbe
000000e0: ae95 e33e 1cc2 11bf bd02 5c3d c758 a3be
000000f0: 16fe 91be eca6 4f3d ebe3 9ebe 46ce babe
0.25880837 -0.32030857 -0.1010932 -0.4868021 0.104323156 -0.21537597 0.032111548 0.092054404
-0.26526183 -0.15109184 -0.45173246 -0.46999136 -0.12289056 0.2279831 -0.18442953 0.05652983
-0.04533387 -0.2564486 -0.28589532 -0.42014182 -0.20126356 0.26179036 -0.41336173 -0.31587988
-0.052406006 -0.09412386 -0.13766739 -0.30490544 0.10700473 -0.6210844 -0.048378572 -0.25253096
-0.39239162 -0.68846536 -0.28172767 0.37494987 -0.5640028 -0.44715774 -0.19550003 -0.46567056
0.23101781 0.20124292 -0.5677269 -0.06445186 0.08960532 -0.5522112 0.17422597 -0.13225676
-0.2519851 -0.4630186 -0.29973742 0.024281261 -0.49075598 -0.2256218 0.068216614 -0.20295873
0.44450134 -0.5693681 0.05371355 -0.3190367 -0.28514165 0.0506963 -0.31033263 -0.364855

embedding.embedding_network.5.running_var f4 [64]
00000000: 3166 d03e a5f2 e43e ab4f 343f 930e 2f3f
00000010: 22e6 1f3f 3310 b33e 484c a83e e4be df3e
00000020: 53a7 443f 51c9 983e b2ea 653f a0c6 163f
00000030: 2d89 b63e 8281 e53e 6a54 0b3f 9055 e23e
00000040: b766 033f 46eb d53e 45f9 3b3f 6492 713f
00000050: 7324 2f3f 4e71 873e 0edf 253f 68f4 683e
00000060: de4d e23e 5ba3 903e 058d 143f 18bb 113f
00000070: 3358 fc3e 2b07 313f 8af5 fe3e 5f9f 233f
00000080: af4b 143f eae0 103f d0ec 833f 9856 203e
00000090: 1ee0 ed3e 700c 7c3f b476 2f3f e296 023f
000000a0: 7c6e 0c3f 3bfb e73e f79d 163f 25fb c13e
000000b0: 4c29 b93e 3620 5e3e b72a f53e 60ff f33e
000000c0: 7a29 8f3f 2a25 fe3e 027b 3b3f e7cf 0f3f
000000d0: 21d2 843f 29fe d73e 2650 163f fe27 ef3e
000000e0: 7318 953e 0a7d 1d3f 3276 383f 72ba 983e
000000f0: 50cb 0d3f d3d4 633f ddb6 cb3e c76c 9f3e
0.40702966 0.44716373 0.70434064 0.68381613 0.6246053 0.34973297 0.32870698 0.43700325
0.76817816 0.29841092 0.8981124 0.5889683 0.35651532 0.4482537 0.5442568 0.44205904
0.51328605 0.41781062 0.7342723 0.94364 0.6841499 0.26453632 0.6479348 0.22749484
0.44200033 0.2824963 0.5802768 0.5692611 0.4928604 0.6915156 0.49796706 0.63915056
0.57927984 0.5659319 1.0306644 0.15658033 0.4646005 0.9845648 0.685405 0.5101148
0.54856086 0.4530886 0.58834785 0.3788692 0.3616432 0.21691975 0.4788415 0.47655773
1.1184533 0.4963773 0.7323457 0.5617661 1.0376626 0.42186096 0.58716047 0.467102
0.29120216 0.6151892 0.7205535 0.29829746 0.55388355 0.8899662 0.3978795 0.31137678

embedding.embedding_network.8.weight f4 [5, 64]
00000000: 4c20 c9bc 94bd 2e3b ab4a 95bd c07d 053d
00000010: a426 2c3d f1d3 debc bfb4 fb3b 049c eabc
00000020: 56a2 8a3d 5957 7a3b c44d 8fbd 0662 90bc
00000030: d9a5 303d ce44 f0bb de3b 45bd a484 33bd
00000040: a098 cdbb 6bd8 10bb 2c56 283d fd23 f63c
00000050: 0cb8 dcbc 6266 603d ed8d 23bd a53e 04bd
00000060: a889 b73a 7480 453d d128 cb3c 7586 29bd
00000070: b6fb 103b a094 a53d ca01 c43b d4ae 2f3d
00000080: 08d3 8dbd a7ce 223d 1b3a 043c e3ee c53c
00000090: 20e3 09bd d929 4abd df4b 753d 140f a53c
000000a0: 3609 873c 668b 78bd ee1a 22bd b021 383d
000000b0: 0810 333d be1a ccbc 07a7 59bd efdd 8bbc
000000c0: 9a69 2f3d 2c9a 0a3d c005 0a3c c1ba 57bd
000000d0: 54f5 d0bc d2de aebc c077 da3c 93c8 a13d
000000e0: 7e21 febc e18f 64bd 8339 0e3d 247b 9abc
000000f0: 56f3 c5bc 6bcb 983d f033 383d d0f7 3bbd
00000100: f386 5cbd 6815 1bbd 3fc6 3b3d b103 bf3d
00000110: 82b9 643d b6a6 77bd adf6 103c a7d4 c03c
00000120: 7797 bfbc 0712 a33d 1187 b2bc 205b 793d
00000130: 3600 d8bc 6019 133d b308 42bc 40ff 8cbc
00000140: 792b 15bd 97d4 60bc 3d64 443d 8d78 76bc
00000150: 7b68 433d 2120 003d 5d26 2cbd 5cfd 483c
00000160: 1bb1 08bc 31cb 5e3c ab65 94bd afa1 40bd
00000170: c7d1 d03c 27ec 1e3d bf4d 12bc a60c b03d
00000180: 1f7f 94bd 6449 b2bc d5b8 133c 405e 053d
00000190: 97f5 773d 65f0 663d 3846 f8bc daeb 1cbd
000001a0: d386 563d 7215 233c 46ef 4ebd 65f5 73bd
000001b0: 1675 34bd 403d 8c3c ee6a 683c 03b8 95bd
000001c0: fac8 983c c5e5 1d3c 64e9 f33c ca48 07bd
000001d0: f8f3 38bd fcca 473d d93f 5fbd 8f6e 68bc
000001e0: 609b df3c e037 e43c f8d8 103d 9404 81bc
000001f0: 5f0f b939 0e2a bdbc 1262 55bd ca22 553d
00000200: d379 6e3c 9308 8b3d aa63 103c 8a4a 9abc
00000210: 0668 a93c f552 9dba 5694 443d f725 20bd
00000220: f345 593d 2c57 6fbc 542f 8fbd 5528 6a3d
00000230: d81c 023d 5512 203d d624 85bd 3728 b63c
00000240: e996 96bc 28fd 1fbc ca7a 0ebd 53b4 82bd
00000250: 7d17 1f3d d591 e7b9 5734 c03c ef1f 79bd
00000260: 2b63 403d 1fc4 413c d32e 6fbd 9251 373d
00000270: 7141 a0bd 8c0d c93b f53a 403c 9451 96bc
00000280: 1409 8abc c3b4 5abd a030 af3d a1ae 0f3d
00000290: f452 41bd b0a6 a93d eca8 af3c 323b ea3c
000002a0: 09b5 a93c 9170 273d 049c a83d b4c3 3e3c
000002b0: a777 073d c76d 50bd 3cdb 853d 1068 29bd
000002c0: 5d95 9dbd 1de4 5c3d f509 42bd f754 51bc
000002d0: 09eb bfbd 0cd3 c83c 7b14 fbbc b697 223d
000002e0: dd96 60bd a2db a6bd c5c3 6f3d 5854 bc3c
000002f0: 4f30 153d 1007 45bd e4e7 7d3c ff62 993c
00000300: 4443 97bb 90b7 a73c 1c10 883c 1950 553c
00000310: 122a c8bc c17e 083b cb50 1d3c 1f82 89bb
00000320: 2d4a aa3c 3a20 97bc b7f9 d33c d480 c23c
00000330: af30 86ba 43bd 2b3c f51c c1bc 5ccd d2bb
00000340: 979c 46bc eb79 6fbc b696 823c 6690 c9bc
00000350: da93 d4bb 5f46 9bbb 1e9c 063d d2e7 1cbc
00000360: 8d45 5bbb 054a 85ba cd55 303c e26f 82bc
00000370: ed63 ccbb 7c95 d53b 8550 533c 1b20 0c3b
00000380: c04e eebc beed 7f3c fb92 b5bc ebaa 883b
00000390: 435f 34bc f892 3bbc d824 50bc 286d 603c
000003a0: 323f c33b aa27 ae3c 7097 c1bb 2acc 823b
000003b0: 18f7 973b 468a d2bb adaa b1bc ebf9 59bb
000003c0: 4499 9a3c 5b74 36bc 4bbb 003d a871 323c
000003d0: 2c0b 2ebc ab62 f639 dc53 4f3a 481e 603c
000003e0: 4a62 d9bc 3532 e2bc e991 cc3c 0585 0ebd
000003f0: 115f ddbc 4ca5 ebbb 90e6 913c efb4 abbc
-0.024551533 0.002666329 -0.072896324 0.032590628 0.042029038 -0.02720067 0.0076814587 -0.028638847
0.067692444 0.0038199036 -0.069972545 -0.017624866 0.043126915 -0.007332421 -0.048152797 -0.043827668
-0.006274298 -0.0022101651 0.041097805 0.030046457 -0.02694323 0.05478514 -0.039930273 -0.032286305
0.0014002817 0.048218206 0.024799736 -0.041387994 0.0022122688 0.080849886 0.0059816586 0.04289134
-0.06925017 0.03974786 0.008070494 0.024161762 -0.03366387 -0.049356315 0.05988681 0.020148791
0.016483884 -0.060679816 -0.039576463 0.044954002 0.04371646 -0.024915095 -0.053137805 -0.0170736
0.04282532 0.033838436 0.0084242225 -0.052668337 -0.025507607 -0.021346483 0.02666843 0.078995846
-0.03102183 -0.055801276 0.034722816 -0.018857546 -0.024163883 0.07460674 0.044971406 -0.04589063
-0.053839635 -0.03786221 0.04584336 0.09326876 0.055840977 -0.060461722 0.008847875 0.0235389
-0.023387654 0.07962423 -0.02179292 0.06087792 -0.026367288 0.03591287 -0.011842894 -0.017211556
-0.036418412 -0.01372256 0.047947157 -0.01504339 0.047707062 0.03128064 -0.042028774 0.012267437
-0.0083430065 0.013598249 -0.07245954 -0.047029193 0.025490655 0.03879943 -0.008929669 0.085961625
-0.07250809 -0.021763511 0.009016235 0.032560587 0.060536947 0.0563816 -0.03030692 -0.038310863
0.052374672 0.009953843 -0.050521158 -0.0595602 -0.044056974 0.01711905 0.01418565 -0.07310488
0.01865052 0.009637301 0.029774375 -0.0330284 -0.04515454 0.048777565 -0.05450425 -0.0141865155
0.027295768 0.027858675 0.035363168 -0.015749253 0.00035297402 -0.023091342 -0.05209548 0.05203513
0.014555412 0.06788745 0.008812824 -0.018834371 0.020679485 -0.0012002873 0.047993027 -0.039098706
0.053045224 -0.014608186 -0.06991449 0.05716737 0.03176579 0.039079983 -0.065011665 0.022235973
-0.018382506 -0.009764947 -0.03478507 -0.0638205 0.03884076 -0.00044168407 0.023462458 -0.06082147
0.046969574 0.011826544 -0.058394264 0.044755526 -0.07824982 0.006135648 0.011732806 -0.018349446
-0.016850032 -0.053395044 0.08554196 0.03507865 -0.04719825 0.08283746 0.021442853 0.02859268
0.020716207 0.040878836 0.082328826 0.011643339 0.033073094 -0.05088594 0.06535956 -0.041359007
-0.076945044 0.053928483 -0.047372777 -0.012776605 -0.09371001 0.024514697 -0.030649414 0.039695464
-0.054831374 -0.081473604 0.05853631 0.022989437 0.036423024 -0.04810244 0.015497182 0.018723963
-0.004616173 0.020473272 0.016609244 0.013019585 -0.024434123 0.0020827504 0.009601782 -0.00419642
0.020787323 -0.018447984 0.02587591 0.02374307 -0.0010237898 0.010482135 -0.023573378 -0.006433172
-0.012122295 -0.01461647 0.015941005 -0.024604987 -0.006487352 -0.0047386135 0.03286373 -0.009576755
-0.0033458204 -0.0010169154 0.010762644 -0.01592249 -0.006237498 0.006518064 0.012897615 0.002138144
-0.029090285 0.015620647 -0.022164812 0.0041707656 -0.01100904 -0.011448614 -0.012704097 0.0136979
0.005958461 0.021259148 -0.0059079453 0.0039916234 0.00463761 -0.006425175 -0.02168783 -0.0033260535
0.01887191 -0.01113614 0.031428616 0.010891356 -0.010622781 0.0004699429 0.00079089194 0.013679095
-0.026536126 -0.027611831 0.02497192 -0.034794826 -0.02702287 -0.007191336 0.017810136 -0.0209603

embedding.embedding_network.8.bias f4 [5]
00000000: 28d0 19bd 16e1 723c f73f 8abd 8943 023d
00000010: ba6b 42bd
-0.03755203 0.0148241725 -0.067504816 0.031802688 -0.047466017

exp_avg f4 [5, 5]
00000000: 0000 0000 0000 0000 0000 0000 0000 0000
00000010: 0000 0000 0000 0000 0000 0000 0000 0000
00000020: 0000 0000 0000 0000 0000 0000 0000 0000
00000030: 0000 0000 0000 0000 0000 0000 0000 0000
00000040: 0000 0000 0000 0000 0000 0000 0000 0000
00000050: 0000 0000 0000 0000 0000 0000 0000 0000
00000060: 0000 0000
0.0 0.0 0.0 0.0 0.0 0.0 0.0 0.0
0.0 0.0 0.0 0.0 0.0 0.0 0.0 0.0
0.0 0.0 0.0 0.0 0.0 0.0 0.0 0.0
0.0

exp_avg_sq f4 [5, 5]
00000000: 0000 0000 0000 0000 0000 0000 0000 0000
00000010: 0000 0000 0000 0000 0000 0000 0000 0000
00000020: 0000 0000 0000 0000 0000 0000 0000 0000
00000030: 0000 0000 0000 0000 0000 0000 0000 0000
00000040: 0000 0000 0000 0000 0000 0000 0000 0000
00000050: 0000 0000 0000 0000 0000 0000 0000 0000
00000060: 0000 0000
0.0 0.0 0.0 0.0 0.0 0.0 0.0 0.0
0.0 0.0 0.0 0.0 0.0 0.0 0.0 0.0
0.0 0.0 0.0 0.0 0.0 0.0 0.0 0.0
0.0
