paths_on_manifold/test_results/model.pt (torch, 47865 bytes, 15 tensors)

embedding.metric f4 [3, 3]
000000 00 00 80 bf 00 00 00 00 00 00 00 00 00 00 00 00
       -1.0 0.0 0.0 0.0
000010 00 00 80 3f 00 00 00 00 00 00 00 00 00 00 00 00
       1.0 0.0 0.0 0.0
000020 00 00 80 3f
       1.0

embedding.embedding_network.0.weight f4 [128, 10]
000000 6d 7d 90 bd 26 eb a8 3d 9a c5 8f be 80 5a 44 3e
       -0.07055173 0.08247976 -0.28080446 0.19175148
000010 a6 30 95 3d b4 f8 3a bc 6a ce ff 3c 55 f3 71 be
       0.072846696 -0.0114118345 0.031226356 -0.2362798
000020 79 78 4b bd ca 35 46 3e 2b c4 f7 bb 9c 67 4c 3d
       -0.04967544 0.19356456 -0.007561227 0.049903497
000030 4c c5 39 3e e2 ff 9f 3e 52 7c 4e be a4 4c 69 3d
       0.18141669 0.3124991 -0.20164612 0.056957856
000040 c0 f1 aa be db e6 d2 3d ae dd 99 bc c7 ea 9e 3e
       -0.33387566 0.102979384 -0.018782463 0.31038496
000050 88 39 e7 bd b7 f7 f1 bd c6 bb 7a be 5d a7 ad bd
       -0.1129027 -0.11814826 -0.24485692 -0.08479188
000060 cb d9 e0 bd 58 6d 03 bd 1a d1 8b 3e c2 f4 f8 bd
       -0.10979041 -0.0320867 0.2730797 -0.12156059
000070 46 91 b9 3d e8 bd 61 3e c4 c2 f1 3b 9f 00 66 3e
       0.09060912 0.220451 0.007377954 0.22461174
000080 70 6b f7 3d 47 33 85 be e8 7f 52 be e1 f2 7e 3e
       0.12081039 -0.26015684 -0.20556605 0.24897338
000090 dc 3b 9b bd 41 4f cc 3d de f4 a6 be 4b 0c b6 3d
       -0.07579777 0.09976054 -0.32608694 0.088890634
0000a0 c6 fb 9b 3e e6 ea 91 3d 6b ca af bc 98 34 d5 bd
       0.30465525 0.071248814 -0.021458825 -0.10410422
0000b0 00 c9 0e 3e 96 90 63 be e6 41 e3 bd 6e 67 cd bc
       0.13943863 -0.22223124 -0.110965535 -0.025073733
0000c0 b2 6c 44 be 83 27 8d be 92 d2 6f 3e 3a 86 23 3e
       -0.19182089 -0.27569208 0.2342017 0.15969172
0000d0 e4 76 8d be 3e 4b 97 3e f8 9c 2c be 3a 38 c0 3e
       -0.2762977 0.29549593 -0.16856754 0.37542897
0000e0 a6 14 9f 3e 76 3a 30 3c 27 2e 1c bd ab 31 ce 3d
       0.3107044 0.010756126 -0.03812995 0.10068067
0000f0 45 0f b6 3e c2 ba 56 be ff 77 53 be a9 43 c7 bd
       0.35558525 -0.2096968 -0.20651244 -0.09729702
000100 88 1c 66 be 14 92 01 be 88 97 9c 3e 5b e0 1d be
       -0.22471821 -0.1265338 0.3058436 -0.15417616
000110 96 4d 03 bd fa 0e 20 3e cf 04 79 bd ce 17 07 be
       -0.032056414 0.15630713 -0.0607956 -0.13192675
000120 c5 52 f9 3d 25 ed bb bd ec a8 98 3d 6b f9 5c be
       0.1217399 -0.09176091 0.07454094 -0.2157952
000130 96 6c 1f bd cd b6 cd 3d 1f 77 8b be b2 b9 05 be
       -0.038921915 0.10044632 -0.2723932 -0.13059118
000140 5f 62 e4 3d 42 01 99 be 15 95 16 3e cf 92 a6 3e
       0.11151575 -0.29883772 0.14705308 0.3253388
000150 e2 13 93 bd 62 15 6f 3e 45 a2 46 3e c7 83 3e be
       -0.07181527 0.23348 0.19397838 -0.18604957
000160 9d ba 1f be dc 20 b1 bd 57 a0 b4 be 0c 7e a6 bc
       -0.15598531 -0.086488456 -0.3527858 -0.020323776
000170 8b 57 52 bd 0b 21 06 be 87 81 a5 be dd 5d 9e be
       -0.05135302 -0.13098542 -0.32325384 -0.30930987
000180 e0 ce 5c 3d 1f 8d 5d 3e 4b 8c 7b 3e b8 4a ad 3d
       0.05390823 0.21635865 0.24565236 0.08461517
000190 2d b2 ad 3d 1e e1 8d 3d a9 37 7b be 6e 81 34 be
       0.0848125 0.06927703 -0.24532951 -0.17627499
0001a0 2e 13 1d be 05 db 71 3e 66 b9 02 be fd 2b 4e 3b
       -0.15339348 0.23618706 -0.12766036 0.0031459325
0001b0 b8 ac 0d 3e fb 49 d8 3d fa cd 4b be 91 a7 36 bd
       0.13835418 0.10560986 -0.19902793 -0.044593398
0001c0 29 8b 20 be a6 6d 85 be 2e 15 68 bd ad 70 50 3e
       -0.15678085 -0.26060218 -0.056660824 0.20355482
0001d0 eb 90 a6 3c e4 8a 88 be a2 55 46 be d8 66 81 bd
       0.020332774 -0.26668465 -0.19368604 -0.06318444
0001e0 a0 2a 22 be ff 44 fc bd d3 4d be 3d 1d 7b a0 be
       -0.15836573 -0.123178475 0.092921875 -0.31343928
0001f0 81 9a f6 bb c3 5e d0 bc 9c 56 9e bd 98 ac e7 bd
       -0.0075257425 -0.02543581 -0.07731363 -0.113122165
000200 15 87 bd 3d f4 aa 5b 3d 9d d4 5b bd 70 1a a0 bd
       0.092542805 0.05362983 -0.05366956 -0.078175426
000210 59 5c 12 3e eb e7 d4 3d 27 24 4c 3e 41 12 02 3e
       0.1429304 0.10395797 0.19935666 0.12702276
000220 54 7d 09 3e d6 0c 93 be 0c 37 43 3e 9a 8b 75 bc
       0.13426715 -0.2872073 0.19063967 -0.014986897
000230 1a 95 5d 3e 36 d8 57 bd ac 3f 81 be 7c 97 8f 3e
       0.21638909 -0.05269643 -0.2524389 0.2804526
000240 3e 2f 77 3e 67 d3 ab bd 6c c6 ca be a5 da e0 3d
       0.24139115 -0.08389931 -0.3960451 0.10979203
000250 3a 7a c5 bc 94 ee 81 be f7 33 ce bd 80 eb 13 be
       -0.024106134 -0.25377333 -0.10068505 -0.14445305
000260 d1 b9 88 3e 0f 38 cc 3e 06 b9 94 3d 64 b5 8f 3e
       0.26704267 0.3988652 0.07261853 0.28068078
000270 e3 5e da bb 7b 87 4a be 56 a7 3c 3c 82 26 3a 3e
       -0.0066641434 -0.19778244 0.011514505 0.18178752
000280 6b 58 20 bd e3 39 6f be 57 7b 55 3e 43 44 ac bd
       -0.039146822 -0.23361926 0.20847832 -0.084114574
000290 9e 1b e3 bc 7f 71 d7 3d 20 e0 59 be 42 18 8f 3d
       -0.02772313 0.105196945 -0.21276903 0.06987049
0002a0 58 a4 28 bd 70 8c a4 be e4 e3 84 bc e9 fb f4 3d
       -0.041172355 -0.32138395 -0.016221948 0.119621105
0002b0 62 aa 05 be 1a 58 85 3d 93 be eb 3d 90 9f 7e 3e
       -0.13053277 0.06510945 0.115109585 0.24865556
0002c0 97 a7 66 3e da 61 7c 3e c7 8c 86 3e 97 08 96 3e
       0.22524868 0.24646702 0.2627928 0.2930343
0002d0 8b 86 14 3e 67 cd 9a bd 1b 80 76 bd bf 8f b4 bd
       0.14504449 -0.07558709 -0.060180765 -0.0881648
0002e0 da 8c 11 3e 11 e5 94 3e 86 ee c2 bd 79 cb 53 3e
       0.14213887 0.29081014 -0.09518151 0.20683087
0002f0 d7 ee 82 3e cc 68 cd 39 41 4f fc 3d f1 3c 25 3d
       0.25572845 0.00039178727 0.12319804 0.04034132
000300 0d 15 39 be f8 d6 4f 3e 5c c5 2f 3e 83 e6 25 3d
       -0.18074436 0.20296848 0.1716513 0.040503036
000310 ff 88 28 be da 27 37 3e 48 cc 7b be 42 29 14 3e
       -0.1645851 0.17886296 -0.24589646 0.14468864
000320 5d e0 09 be 74 4b 2f 3c 16 7a 54 bd 53 dc a1 be
       -0.13464494 0.010699142 -0.051874243 -0.31613407
000330 94 17 7d 3e 52 61 cc 3d cc eb 38 be ca c1 9e be
       0.24716026 0.099795 -0.180587 -0.31007224
000340 11 36 77 3e 01 32 55 be 42 24 87 3e 86 3a 5a bd
       0.24141718 -0.20819856 0.2639485 -0.05327847
000350 87 53 85 3e 5f 87 56 bd 89 12 9b bd 4d 67 03 3e
       0.2604029 -0.052375194 -0.07571895 0.12832375
000360 f6 27 3d 3d 6c 28 b9 bd da 05 98 bd 8f 33 2d 3e
       0.046180688 -0.09040913 -0.07422991 0.169142
000370 e3 bb 1d be 85 6b 51 3d 0f 19 13 3c 92 da 15 3c
       -0.15403704 0.05112793 0.008978142 0.0091463495
000380 13 13 f9 3c 6d 39 30 be 0f 1a 41 3e 5c 87 00 3d
       0.030404603 -0.17209406 0.18857597 0.03137909
000390 25 52 66 3e 43 4a 89 3d 57 18 b3 3d 78 f2 02 3e
       0.22492273 0.067036174 0.08744877 0.12787807
0003a0 62 a8 15 3d 40 4c 42 be b0 ac 8b 3d 34 70 5b 3e
       0.036537535 -0.189744 0.06820047 0.21429521
0003b0 fe 02 7b be 76 68 89 bd 25 7c ca 3d 70 87 03 be
       -0.2451286 -0.067093775 0.0988696 -0.12844634
0003c0 dd 3c 10 3e c2 f0 90 be a9 63 b1 be c0 d9 b4 3e
       0.14085717 -0.28308684 -0.34646347 0.3532238
0003d0 c0 f1 62 be 85 c3 8b be ca c0 34 be 87 a0 83 bd
       -0.22162533 -0.27297607 -0.17651668 -0.064271025
0003e0 7f 12 42 be 72 fc 75 3e b3 e1 84 be a8 28 3e be
       -0.18952368 0.24022081 -0.25953445 -0.18570197
0003f0 b4 8a 86 3c 4a c4 78 3c e5 85 e5 3d a5 34 3b be
       0.01642356 0.015183518 0.11207179 -0.18281801

embedding.embedding_network.0.bias f4 [128]
000000 5e a9 98 ba aa 7a b8 3d 17 fe 07 3c f7 42 fe bb
       -0.0011647155 0.09007771 0.008300326 -0.0077594477
000010 35 1a 3b bc d3 d9 ed bd 47 14 bf 3d 5d c4 e8 3d
       -0.011419822 -0.11613812 0.093300395 0.11365578
000020 06 d4 90 3d 3b 6a 92 3c 49 5d 93 bc b8 0d 0a bd
       0.0707169 0.01787292 -0.017988818 -0.03370449
000030 61 70 e8 3d b4 26 61 3c d6 f3 5b bc 80 37 ee b9
       0.113495596 0.013742138 -0.013424834 -0.00045436248
000040 70 25 7f bc ce bb 83 3c fd 36 a0 bd c0 aa 34 3d
       -0.015572891 0.016080763 -0.07822988 0.044108152
000050 8f 1c 45 3d ec 3d 9b bd b8 22 26 be 53 b4 2f be
       0.04812294 -0.0758017 -0.16224182 -0.17158632
000060 7c b2 31 bc 8c 07 22 be c8 dc ac bb b4 a2 98 bc
       -0.010845777 -0.15823191 -0.0052753426 -0.01863227
000070 94 59 64 bc 96 20 cc bc d2 e9 41 bc 19 9a 32 be
       -0.013937373 -0.024917882 -0.011835532 -0.17441596
000080 c9 3a d4 3d 0d a6 36 3e 61 29 7b bc f9 8f f5 bd
       0.10362775 0.17836781 -0.01532969 -0.11990351
000090 d4 9e 22 3e 0c f1 44 bd 7a f7 8f 3c 03 95 13 bd
       0.158809 -0.048081443 0.01757406 -0.03603078
0000a0 df bc 3c 3e de 3a 5f bc b3 c8 2a 3e 72 f9 2d 3d
       0.18431424 -0.013624875 0.16678123 0.042474218
0000b0 bb 3a 8c bd 4e 50 93 bc 07 d3 1a 3e c0 89 23 b9
       -0.068471394 -0.017982628 0.15119563 -0.00015596207
0000c0 2e 75 7e 3d f4 2e 0b 3e 4d a3 28 be ca 9c 51 3b
       0.06212347 0.1359213 -0.16468544 0.0031984323
0000d0 8b 7d af 3d 46 93 53 bb 6c f6 db bc 31 e6 7c 3c
       0.08568867 -0.0032283827 -0.026850902 0.015435741
0000e0 0f ae 0c 3e 94 68 84 bd 3e b1 8c bc 10 79 86 3d
       0.13738273 -0.06465259 -0.01717436 0.065660596
0000f0 bb 78 2d be a6 68 4e 3c 13 3f 27 3e 42 08 98 bc
       -0.16940586 0.012598192 0.16332655 -0.018558625
000100 92 d9 03 be 42 bb c2 3d 5c 33 f4 bc 78 37 73 3b
       -0.12875965 0.09508373 -0.029809646 0.003711192
000110 65 36 99 bd 65 bd 38 be 0c a4 fb 3c 84 eb 7e 39
       -0.07481078 -0.18040998 0.030717872 0.00024311064
000120 34 d6 bc 3c bc 32 94 bc 2c 1f 34 3c 97 0c 01 3e
       0.023051359 -0.018090598 0.01099376 0.12602459
000130 67 47 2d 3d 7e bc 92 3c d6 c0 1c 3d 19 f7 34 3d
       0.042304423 0.017912146 0.03826984 0.044180963
000140 3b e5 19 3e 3c 39 b1 bb 5f 7d 39 3e 46 24 58 bc
       0.1502885 -0.005408434 0.18114232 -0.013192242
000150 14 97 1c be 71 16 94 bc 85 38 13 be 6c 18 ac bb
       -0.15292007 -0.018077107 -0.14377029 -0.0052519348
000160 a1 d6 87 bc 4c 7e c3 bd ba 79 87 bd 93 63 ed bb
       -0.016581835 -0.095455736 -0.066150144 -0.007244536
000170 b8 86 a1 3d c5 42 77 3c f7 dd 9e ba e6 91 38 be
       0.07887024 0.015091603 -0.0012120594 -0.18024406
000180 f5 3c 97 bd 09 23 87 bd 10 72 64 3c 7e 27 95 3c
       -0.073846735 -0.06598479 0.01394321 0.018207308
000190 de fd 5f bc 9d 2c a8 3d 03 bd 17 3e 9e 6e 03 bc
       -0.0136713665 0.08211634 0.14818196 -0.008021979
0001a0 9d bd 2b 3e 62 d1 dc 3d cb 13 c7 ba 68 aa d8 3d
       0.1677155 0.10782124 -0.0015188394 0.105793774
0001b0 b9 01 88 bc c6 dd e2 bd 32 7b 56 bc 3c c0 8e 3c
       -0.016602384 -0.11077456 -0.0130908955 0.017425649
0001c0 e0 6a 89 3c be 85 c6 bc cc 78 01 bd 5e d5 02 be
       0.016774595 -0.024233695 -0.03160934 -0.12776706
0001d0 71 9c c0 bd 2e 2e 70 bd a5 5d f5 bd 34 b7 06 bc
       -0.09404839 -0.05863779 -0.11980752 -0.00822239
0001e0 bd bb 15 3e 58 20 fd 3d f3 be d1 3b 90 14 cb 3d
       0.14622398 0.12359685 0.0064009367 0.09916031
0001f0 1c 6b 79 ba 5f 81 56 bc de 99 e9 3d ea 52 da 3d
       -0.0009514557 -0.013092368 0.11406301 0.10660346

embedding.embedding_network.1.weight f4 [128]
000000 1f 93 86 3f d5 66 86 3f f7 dc 85 3f 3e e6 78 3f
       1.0513648 1.0500132 1.0458058 0.9722632
000010 a6 72 76 3f 15 ae 81 3f f7 28 75 3f e7 fd 87 3f
       0.9626869 1.0131251 0.9576563 1.062436
000020 23 09 71 3f 1c 34 6f 3f 4d d0 71 3f 12 b2 7d 3f
       0.94154567 0.9343889 0.94458467 0.9909984
000030 c6 95 7b 3f b1 db 84 3f 77 75 7d 3f a4 66 74 3f
       0.9827541 1.0379544 0.9900736 0.9546912
000040 d7 e7 78 3f 69 9b 63 3f ea f4 7a 3f a5 47 7a 3f
       0.9722876 0.8890901 0.9802996 0.9776557
000050 e8 fc 82 3f 9d 34 87 3f df 45 7a 3f 44 e0 6d 3f
       1.0233431 1.0562931 0.97762865 0.9292033
000060 30 55 7d 3f 02 db 83 3f 61 a0 73 3f 2f 45 6f 3f
       0.9895811 1.0301211 0.95166594 0.9346494
000070 e7 d6 88 3f 08 f2 7b 3f 81 7c 8a 3f 5a c5 87 3f
       1.0690583 0.98416185 1.0819246 1.0607102
000080 68 df 88 3f 5e 36 75 3f 14 2c 80 3f ca 98 86 3f
       1.0693178 0.9578608 1.0013452 1.0515378
000090 a8 15 6b 3f 7b 4d 88 3f 86 d5 89 3f af 0d 7a 3f
       0.9182992 1.0648645 1.0768287 0.9767713
0000a0 2d de 73 3f bf 2b 83 3f a8 2f 87 3f 1d 5a 7f 3f
       0.9526089 1.0247725 1.0561419 0.99746877
0000b0 95 4a 6f 3f 19 50 84 3f 76 75 87 3f 3c f3 7e 3f
       0.9347318 1.0336944 1.0582721 0.99589896
0000c0 11 74 7e 3f cb a7 87 3f a1 3a 74 3f b7 1e 78 3f
       0.99395853 1.0598081 0.9540196 0.9692187
0000d0 4c 09 81 3f ca 8e 79 3f 94 7d 81 3f 32 6e 89 3f
       1.0080962 0.97483504 1.0116448 1.0736754
0000e0 18 fa 81 3f d3 e8 77 3f da 0f 78 3f b0 d0 75 3f
       1.0154448 0.96839637 0.9689919 0.96021557
0000f0 20 6a 80 3f 49 70 87 3f fe ee 73 3f 27 cb 80 3f
       1.0032387 1.0581142 0.9528655 1.0061997
000100 13 1a 81 3f 4e 14 85 3f 41 5e 8c 3f a2 55 79 3f
       1.0086082 1.0396821 1.0966264 0.9739629
000110 31 f6 6e 3f fd 65 81 3f 49 da 84 3f 2c 84 7f 3f
       0.9334441 1.0109249 1.0379115 0.99811053
000120 f1 09 81 3f fa e8 7d 3f d7 83 75 3f 54 b1 8a 3f
       1.0081159 0.9918362 0.95904297 1.0835366
000130 1a ba 81 3f 96 b6 78 3f ad b5 7a 3f 97 62 80 3f
       1.0134919 0.97153604 0.97933465 1.0030087
000140 29 ea 73 3f 53 b5 80 3f 72 4e 81 3f ed 62 87 3f
       0.95279175 1.0055336 1.0102065 1.0577065
000150 80 a4 78 3f 34 c8 67 3f 63 09 66 3f 13 a2 88 3f
       0.9712601 0.9053986 0.89858073 1.0674461
000160 cf 69 85 3f 7b 9e 72 3f 18 59 88 3f a7 30 80 3f
       1.0422915 0.9477307 1.0652189 1.0014848
000170 2f ca 6d 3f ee a8 7e 3f b1 67 7c 3f f3 42 7b 3f
       0.9288663 0.99476516 0.9859572 0.9814903
000180 f8 ae 80 3f 58 9f 7c 3f 98 16 88 3f 46 44 70 3f
       1.0053396 0.9868064 1.0631895 0.93854177
000190 78 ee 80 3f ff 36 7d 3f ba 80 78 3f 41 4f 83 3f
       1.0072775 0.9891204 0.9707142 1.0258561
0001a0 f6 b9 83 3f 41 3b 76 3f 5a 8a 6a 3f 49 f9 81 3f
       1.0291126 0.96184164 0.9161736 1.0154201
0001b0 d4 12 75 3f 6d 78 7f 3f 86 c4 7a 3f 60 7b 82 3f
       0.95731854 0.9979313 0.9795612 1.0193901
0001c0 b4 d6 73 3f d7 9a 7b 3f 96 bf 86 3f 18 53 81 3f
       0.95249486 0.9828314 1.0527217 1.0103483
0001d0 6e a5 77 3f 4a f0 6e 3f 3c 6f 85 3f f6 45 70 3f
       0.967368 0.933354 1.0424571 0.9385675
0001e0 5d fd 75 3f e4 14 7a 3f 78 c8 81 3f 1d ea 80 3f
       0.96089727 0.97688127 1.0139303 1.0071446
0001f0 bb d9 81 3f 0e 7a 84 3f 1a ad 86 3f d3 34 72 3f
       1.0144571 1.0349748 1.0521576 0.94611853

embedding.embedding_network.1.bias f4 [128]
000000 5e 9e 81 3d c7 13 34 3d ee 14 05 3d 8e fb 52 bd
       0.06329034 0.043964174 0.032490663 -0.051509432
000010 07 68 9d bc d2 18 3a 3c 8c fd 63 3d cf 46 2b 3d
       -0.019214643 0.011358457 0.055661723 0.041815575
000020 29 b9 6f bd 49 e5 91 3c 9e 00 86 bd de 99 1d 3b
       -0.05852619 0.017809527 -0.065430865 0.002404801
000030 16 d9 f0 bc f7 86 0e 3c 5e ba 82 bc 10 6b 62 bd
       -0.02940039 0.00869917 -0.015958007 -0.055277884
000040 56 24 08 bd 6f 0d ca bd 6e cd c7 bc a2 ae 85 bc
       -0.033237778 -0.098658435 -0.024389949 -0.016318623
000050 0e d8 00 bc 80 6d 48 3d 63 f0 23 3c 07 43 6f bd
       -0.007864011 0.048932552 0.010006043 -0.05841353
000060 ef 33 8a bd ec 67 34 bd 6d 32 4d bd 6f de 4f bd
       -0.06748187 -0.04404442 -0.050096918 -0.05074924
000070 8e 53 b8 3d 4d 71 3f bd 11 4e 7b 3d 8e ed 96 3d
       0.09000312 -0.04673891 0.061353747 0.07369529
000080 94 d7 9d 3d df bb 54 bd c6 b0 02 bc fc ba 2b 3d
       0.07707134 -0.05193698 -0.007976716 0.04192637
000090 48 a4 99 bd 25 dd 8a 3b b3 d3 9c 3d f6 c7 0a bd
       -0.07502037 0.0042377883 0.07657566 -0.033882104
0000a0 8d bb 8e bc 01 df c9 bc 20 f9 8b 3c 80 4e 04 3d
       -0.017423416 -0.02464247 0.017086565 0.032301426
0000b0 7c 10 9c bd e1 af 96 3d 80 7a 40 3d 57 6a cf 3c
       -0.07620332 0.07357765 0.046991825 0.025319261
0000c0 2b 06 5a bc 4f 9c 5d bc c6 b0 0a 3c 6b f8 0c bd
       -0.013307135 -0.013526036 0.008464998 -0.034416597
0000d0 4a 57 a6 ba ab a1 75 bc 06 c8 64 3d 41 f8 44 3d
       -0.0012690809 -0.014992158 0.05585482 0.048088316
0000e0 43 ca 58 3d 4f 6c c0 3c 8b bd bf bc 0a 6f c8 3c
       0.052927267 0.023489146 -0.02340581 0.02446701
0000f0 f2 3d 67 3c 5d 0a df 3c a4 79 0f bd 09 70 80 bc
       0.01411389 0.027226621 -0.035028115 -0.015678423
000100 3c 77 4f 3d 33 08 9f 3d 0c e5 99 3d 92 11 88 bd
       0.05065082 0.07765236 0.0751439 -0.06643976
000110 75 84 c2 bd 1b 76 02 3d a5 ba 1f 3d 12 6b de bb
       -0.094979204 0.031850915 0.038996357 -0.006787666
000120 91 ff ef 3c 77 2c c6 ba b8 90 0d bd bf b0 8f 3d
       0.029296668 -0.0015119453 -0.034561843 0.070161335
000130 17 3d 8a 3d 42 e2 94 3d 73 86 c5 3b 0f fb 3b bb
       0.06749933 0.07269718 0.0060279905 -0.0028683578
000140 5a b4 26 bd e9 d1 10 bd 09 d8 7c 3d 1c 4d 40 3d
       -0.04069934 -0.035356436 0.061729465 0.046948537
000150 42 d6 ba bc eb 82 4d bd 02 06 b1 bd 26 15 b3 3d
       -0.022807244 -0.05017368 -0.08643724 0.08744268
000160 6c 35 f9 3c 0a c2 1d bd a4 3f 8f 3d 54 4a 1d 3c
       0.030420981 -0.03851513 0.0699456 0.009600241
000170 c5 cf 5c bd da 36 a4 3c ca 6d 83 bd 2f 1c ae bc
       -0.053909082 0.020045687 -0.06417425 -0.021253673
000180 31 18 59 bc 30 25 91 3c 4a 0e 9c 3d 0a 53 39 bd
       -0.013250397 0.017717928 0.07619913 -0.045245208
000190 98 94 43 3d 6d 4a 94 bb 20 f3 8d bd a7 be 63 bc
       0.047749132 -0.004525474 -0.06931138 -0.0139004355
0001a0 8c 41 70 3d 3c f8 36 bd b5 b3 b0 bd 0f 19 18 bb
       0.05865626 -0.04467033 -0.086280264 -0.0023208295
0001b0 ea bf b8 bd e5 16 e9 3c 0f 63 cd bc f6 1f 2c bd
       -0.0902098 0.0284533 -0.025071649 -0.042022668
0001c0 97 2e b0 bc f7 c2 61 bb d9 c7 50 3d 79 2b 82 3c
       -0.02150659 -0.0034448483 0.05097184 0.01588987
0001d0 34 5a 73 3d e2 d4 4a bd aa 4e 86 3d 16 30 80 bd
       0.059412196 -0.049519427 0.06557973 -0.06259172
0001e0 a7 37 11 bd c2 42 9c bc be 7e 19 3d 0d 4f d1 bb
       -0.035453465 -0.019074801 0.037474386 -0.0063875974
0001f0 b8 f2 1c bc 28 4b 81 3c 24 9f 4c 3d 47 d0 4d bd
       -0.009579353 0.015782908 0.049956456 -0.050247457

embedding.embedding_network.1.running_mean f4 [128]
000000 6c 24 32 be f8 05 4a 3e 63 f1 30 be 81 e2 2e 3d
       -0.17396706 0.1972884 -0.17279582 0.04269648
000010 e0 36 3e bd 4a 67 8c be 28 75 f0 bb 69 b4 3c 3e
       -0.04643905 -0.27422553 -0.007338185 0.18428196
000020 19 42 2d 3e 28 b6 09 3b 4f b1 01 be c7 f7 1e be
       0.16919746 0.0021013115 -0.12665294 -0.15524207
000030 1b 1c 31 3e f1 7f a5 3d e1 53 54 be b7 48 03 3e
       0.17295878 0.080810435 -0.20735122 0.12820707
000040 b3 7e ca 3d 02 bd 93 bd ed 6b 01 be 3a b9 20 bd
       0.09887447 -0.07213785 -0.12638827 -0.039239146
000050 59 49 25 3d f6 73 84 3d ae 85 22 be 92 ad 12 be
       0.040353153 0.0646743 -0.15871307 -0.14324024
000060 34 29 8d be a6 1e 50 be 20 7c 43 be c1 0c 19 3e
       -0.27570498 -0.20324191 -0.19090319 0.14946271
000070 4e fa 18 3e db 65 cb 3d 5c 9b 2f 3e 54 49 cc bd
       0.14939234 0.09931537 0.17149109 -0.09974924
000080 98 f5 8f 3e 8d 6c ba 3e d4 7f 87 bd 19 14 0d bd
       0.2811706 0.36410943 -0.06616178 -0.034442995
000090 08 74 16 3e cb f0 6a bd 0b 20 97 3c f2 7a 8c bc
       0.146927 -0.057358544 0.018447896 -0.017148469
0000a0 84 f8 b3 3e 86 ae 96 bd 53 7b b1 3d c5 8e 10 3c
       0.3515054 -0.073575065 0.086661 0.008823101
0000b0 f6 dc 00 be ed fc 18 be 2f 61 ad 3d 2d 5c 67 3e
       -0.1258429 -0.14940234 0.08465802 0.22593756
0000c0 8c f4 3c 3d 11 6b c0 3d 41 4b 60 be a7 cb b3 3d
       0.046131656 0.09395421 -0.21903707 0.08779078
0000d0 11 13 a1 3e 6e 17 21 3e 75 0e ab bd 9c 48 26 3e
       0.3145986 0.15731594 -0.08352367 0.16238636
0000e0 e7 80 1c 3e ac 6c cb 3d 72 c9 9c bd 51 66 bd bd
       0.15283547 0.09932837 -0.0765561 -0.09248031
0000f0 a2 66 30 be 87 5e b2 3d f7 83 b8 3c 04 00 12 bd
       -0.17226651 0.08709436 0.022523863 -0.035644546
000100 21 9d 5f be aa 5e 89 3e 12 b1 92 bd 1e 97 64 be
       -0.21837284 0.26830035 -0.0716268 -0.22323272
000110 e8 0e 35 be 3a 55 a0 be 01 b6 ae bc ed 22 03 be
       -0.17681468 -0.31315023 -0.02132702 -0.12806292
000120 d6 d5 22 be 2f 5a e3 bd 34 5f 25 3e 45 f0 a4 3e
       -0.15901884 -0.111011855 0.16149598 0.3221456
000130 7f 6f c0 bd 48 51 3e 3e 5c db 6c bd 36 69 f5 3d
       -0.09396266 0.18585694 -0.057826385 0.11982958
000140 77 44 8a 3e fc 74 8f 3d 36 c9 2f 3d 56 75 ac bd
       0.2700536 0.07004735 0.0429165 -0.084208176
000150 7e 82 49 bd 19 0d 83 3d 73 8b 3b be 21 23 90 3d
       -0.049196713 0.063989826 -0.18314914 0.0703795
000160 a8 2a ac bc d1 bb c2 3d 78 9d 56 be b0 d0 a2 3c
       -0.021016434 0.095084794 -0.20958507 0.0198749
000170 42 64 5d 3d c0 51 8c bd 85 2a 92 3c 94 c9 4c be
       0.05405069 -0.0685153 0.01784254 -0.19998771
000180 de b1 0c 3d f0 b0 25 be 0b d7 80 3d 7f 23 74 bd
       0.034349315 -0.16180778 0.06291016 -0.059604164
000190 fb ee 16 bd 49 c3 87 3e b2 53 cf 3c 31 38 15 3e
       -0.036849003 0.26516178 0.025308464 0.14572217
0001a0 72 29 3f bc f6 3c 8f 3e 8b f8 08 3e e7 dd d0 3d
       -0.011667596 0.27976197 0.13376062 0.101985745
0001b0 ee 41 94 ba 59 38 e6 bc fe 3f 0a 3e 2f 19 26 be
       -0.0011311152 -0.02810304 0.13500974 -0.16220544
0001c0 1e 4a ba bc 30 68 6c be f6 95 b6 bd 56 66 11 be
       -0.02274042 -0.2308662 -0.089153215 -0.14199194
0001d0 0b a6 61 be 78 76 13 be ce cf aa 3c 21 74 ea 3d
       -0.22035997 -0.14400661 0.020851042 0.11447931
0001e0 bd 86 af 3c 50 25 a6 3e f4 65 ab 3c 6b 90 88 3e
       0.021426553 0.32450342 0.020922638 0.26672682
0001f0 7c e8 dc 3b cb a4 57 3e 8e 9a 89 3e 07 10 2a 3e
       0.0067415815 0.21058957 0.26875728 0.16607676

embedding.embedding_network.1.running_var f4 [128]
000000 23 44 7f 3e 08 47 73 3e 7e f2 7d 3e b5 13 80 3e
       0.24928336 0.23757565 0.24799535 0.25015035
000010 35 9f 85 3e af 0b 89 3e 3f b8 97 3e 18 16 74 3e
       0.26098028 0.26766726 0.29632756 0.23836553
000020 2d ad 89 3e d7 2e 8d 3e b3 93 79 3e 37 97 80 3e
       0.26889935 0.27574798 0.24372749 0.25115368
000030 e1 b4 77 3e aa 2f 70 3e 04 77 88 3e 6f e4 7f 3e
       0.24190094 0.23455682 0.26653302 0.24989484
000040 31 3a 81 3e b0 8a 75 3e 5d 26 7c 3e 0a aa 74 3e
       0.2523971 0.23978686 0.2462401 0.2389299
000050 c3 6b 73 3e eb 95 8b 3e 6a db 74 3e b9 77 73 3e
       0.23771577 0.27262816 0.23911825 0.2377614
000060 dd 9c 8f 3e e6 38 85 3e aa 8f 80 3e a8 23 92 3e
       0.28049365 0.26019973 0.25109607 0.2854283
000070 44 9a 93 3e 89 82 7b 3e 0e 28 98 3e 37 5c 89 3e
       0.28828633 0.24561514 0.2971806 0.26828167
000080 87 37 88 3e a4 1a 8d 3e fb f1 85 3e 7e 1b 70 3e
       0.26604864 0.27559388 0.2616118 0.23447987
000090 79 74 78 3e 24 c6 89 3e 03 0c 8b 3e 67 da 87 3e
       0.24263181 0.26908982 0.27157602 0.26533815
0000a0 a6 75 7e 3e 74 84 76 3e 02 61 7f 3e 2e 55 91 3e
       0.24849567 0.24073964 0.2493935 0.283853
0000b0 4c 91 77 3e 2f 94 8e 3e 96 36 76 3e 3f 00 97 3e
       0.2417652 0.2784743 0.2404426 0.29492375
0000c0 af 81 86 3e fd 7c 9d 3e 97 d4 7e 3e ff 36 7b 3e
       0.26270816 0.3075942 0.24885784 0.24532698
0000d0 e4 2c 90 3e 13 73 81 3e 9d f9 80 3e d7 4c 80 3e
       0.2815925 0.25283107 0.2519044 0.25058624
0000e0 9b 94 77 3e 67 1b 8a 3e a2 f3 88 3e bf 4b 8c 3e
       0.24177782 0.2697403 0.26748377 0.2740154
0000f0 f4 96 70 3e d2 3f 80 3e 26 5e 89 3e 1b df 7a 3e
       0.23495084 0.2504869 0.26829642 0.2449917
000100 f3 b9 79 3e 03 c8 83 3e 02 5e 7b 3e 31 16 87 3e
       0.2438734 0.25738534 0.2454758 0.26384118
000110 de 12 77 3e b2 92 77 3e 96 5e 81 3e 9a ab 7f 3e
       0.24128291 0.24177054 0.25267476 0.24967805
000120 39 2c 88 3e 7a de 8e 3e 53 62 83 3e 61 1a 84 3e
       0.2659624 0.2790411 0.25660953 0.25801376
000130 1a d4 92 3e 79 a8 7f 3e 97 13 89 3e 8e 48 93 3e
       0.28677446 0.24966611 0.26772758 0.28766292
000140 64 ca 88 3e e3 17 80 3e 9d 24 79 3e aa 48 87 3e
       0.26716912 0.25018224 0.24330373 0.26422626
000150 f0 a1 7b 3e 7d 97 8b 3e fc 74 7a 3e 0a b3 80 3e
       0.24573493 0.27264014 0.24458688 0.25136596
000160 b8 d9 8b 3e 8f fb 94 3e 3e 11 7d 3e 7c 76 7e 3e
       0.27314544 0.29098174 0.24713609 0.24849886
000170 ed bb 7a 3e eb 3a 81 3e 8f 84 6c 3e e7 a6 77 3e
       0.2448575 0.25240263 0.23097442 0.24184762
000180 82 2d 81 3e 10 29 73 3e ce 88 8a 3e 79 17 77 3e
       0.25230032 0.23746133 0.270575 0.24130048
000190 56 22 7c 3e 09 93 82 3e ca 37 a2 3e 2b ec 82 3e
       0.24622473 0.25502804 0.3168319 0.25570807
0001a0 ae 4a 91 3e 70 e0 84 3e c1 8d 88 3e e7 03 92 3e
       0.2837729 0.25952482 0.2667065 0.28518602
0001b0 2b 03 85 3e 9a 74 83 3e 9b f0 84 3e ba 4d 83 3e
       0.2597898 0.25674897 0.25964817 0.25645238
0001c0 94 9a 7a 3e ca 59 80 3e 85 89 73 3e dd cc 7c 3e
       0.2447303 0.25068504 0.23782928 0.24687524
0001d0 81 06 70 3e 74 38 78 3e ad 7d 7f 3e 0f f6 86 3e
       0.23439981 0.24240285 0.24950285 0.26359603
0001e0 79 9d 93 3e ef 4c 9d 3e 7c bc 8f 3e ad 4e 83 3e
       0.2883108 0.30722758 0.2807349 0.25645962
0001f0 85 43 79 3e 90 56 7a 3e 71 2e 81 3e c7 71 80 3e
       0.24342163 0.24447083 0.25230744 0.25086805

embedding.embedding_network.4.weight f4 [64, 128]
000000 b4 08 c5 3d b8 dd ae bd 82 a7 c0 ba a6 b8 1d bc
       0.096208006 -0.08538383 -0.0014698359 -0.009626543
000010 3b 91 96 bd d1 67 8b bb 23 1a 4a bd ed fd 1a be
       -0.07351919 -0.0042543192 -0.049341332 -0.15135927
000020 22 3c 7e 3d 9e 2f 64 bc 56 16 6a 3d 12 c3 09 be
       0.062069066 -0.013927368 0.057150207 -0.1345332
000030 2a 7c eb bd ce f8 20 bd d3 7d 04 3e 26 d4 3a 3c
       -0.11498292 -0.03929978 0.12938623 0.011403119
000040 5e 34 70 bd f1 53 32 3d 12 89 57 3d 74 70 ab 3d
       -0.05864369 0.043537084 0.052620955 0.08371058
000050 24 c8 88 bd 04 d5 6e bd 7e e2 fc bd be 51 d5 bd
       -0.06678799 -0.058308616 -0.123478875 -0.10415982
000060 9c 5b ea 3d da 6e a9 bd b7 b4 0a 3d 40 9c 83 bd
       0.11443254 -0.082730964 0.03386375 -0.06426287
000070 8d 6a 41 3c 58 0f 43 bd b4 e1 40 3c 1a 91 93 3c
       0.011805189 -0.047622055 0.011772562 0.018013526
000080 a8 5c e6 bd 32 4f 6c bc 21 54 f0 bc c1 28 e5 bc
       -0.112481415 -0.0144231785 -0.02933699 -0.027973535
000090 a6 d8 20 bd f1 89 31 bd 1e 08 a1 3d 04 9d 77 3b
       -0.039269112 -0.04334444 0.07862876 0.0037782798
0000a0 bf 0a 92 bd c5 5c a0 3d ed 7f 62 3d 3b 97 79 3b
       -0.07130956 0.078301944 0.05529778 0.0038084525
0000b0 ab 78 53 bd e9 a4 8d 3d 85 81 a8 3d 41 c5 04 3d
       -0.05162875 0.0691622 0.08227829 0.03241468
0000c0 de 44 01 bd 48 3b 06 be df 35 d6 bd 32 11 99 3d
       -0.031559817 -0.13108552 -0.10459494 0.07473983
0000d0 1e d5 5a bb a3 cb 8d bb f8 f3 ec bd 71 c9 d9 bd
       -0.0033391188 -0.004327254 -0.11569971 -0.10634125
0000e0 92 10 2d be ad 73 98 bd 85 2f 10 3d 89 d6 60 3d
       -0.16900852 -0.074439384 0.03520157 0.054892097
0000f0 e3 fe fe bd 07 f1 05 be 44 d7 ce 3b 43 5e e1 bb
       -0.124509595 -0.13080226 0.0063122828 -0.006877692
000100 a6 8b ac bc 80 40 9b 3c 68 48 3e 3d 4c f1 c7 3c
       -0.021062683 0.018951654 0.04645577 0.024407052
000110 c7 77 53 bb ad 89 d0 3b 04 73 18 3d 2d e6 92 bc
       -0.0032267438 0.0063640685 0.037219062 -0.017932022
000120 a3 8a 84 3d 63 5f bc bd 64 77 69 bd 70 f3 39 3c
       0.06471755 -0.09197881 -0.056998625 0.011349544
000130 e0 c5 e8 bb 95 e0 a7 bd 71 ea 4b bd f2 f9 b1 bc
       -0.0071036667 -0.081971325 -0.049784128 -0.021725629
000140 36 30 aa bd 03 a3 45 bd 62 6b 75 bc 09 b4 00 3e
       -0.08309977 -0.048251163 -0.014979215 0.12568678
000150 d8 1f ab bb 52 c8 2c 3d 07 21 53 3d 9e cb 1c bd
       -0.005222302 0.042183228 0.05154517 -0.038280122
000160 ab c1 94 3d ed a4 e5 bd 78 bd d5 3d 60 5b aa 3c
       0.07263502 -0.11213098 0.10436529 0.020795524
000170 40 8e 29 bd 91 61 70 3d bd aa 28 be c1 23 ae 3d
       -0.041395426 0.058686797 -0.16471381 0.08502913
000180 ba 04 13 bc 90 9d 78 3c 27 0a a8 bd bd ce 03 3e
       -0.008973295 0.015174285 -0.082050614 0.12871833
000190 d2 43 09 be d5 af dd bc 2e ca 5a bd 56 49 bf bd
       -0.13404778 -0.027061382 -0.05341547 -0.093401596
0001a0 c4 15 e1 3d c7 9a 61 bd cb 40 2b bd 51 b8 da bc
       0.109904796 -0.055079248 -0.04180984 -0.026699217
0001b0 f2 48 06 3e cf cd 06 bd c8 32 20 bb 91 c1 81 3d
       0.13113764 -0.032911118 -0.002444433 0.06335748
0001c0 21 f9 21 bc 24 c3 ca 3d a0 0b 20 bd f9 51 e4 bd
       -0.009886057 0.09900501 -0.039073586 -0.111484475
0001d0 9f 61 19 3c 05 e1 17 3c 18 a6 04 be da 9e 26 be
       0.009361654 0.009269957 -0.12953985 -0.16271535
0001e0 4c d8 77 bd e9 21 15 3d 8c 98 ce bd fa 77 03 3d
       -0.06050901 0.036409292 -0.1008769 0.03209684
0001f0 b4 81 01 be 65 ee 8b bd 71 50 81 3c 1b 17 4a 3d
       -0.12647134 -0.068325795 0.015785428 0.04933844
000200 76 83 55 bc 87 a6 49 3d 5e ff c7 3d db 4a 03 3d
       -0.013031831 0.04923108 0.09765504 0.03205381
000210 ba 2c 16 bd 6f 69 80 3d e2 f6 c6 3c 92 09 92 3d
       -0.03666375 0.0627011 0.024287645 0.07130732
000220 93 1c 9e bd 5d a5 55 3c 9e 07 c6 3d 99 c8 d7 bc
       -0.07720294 0.013039914 0.096694216 -0.02634077
000230 43 b4 4a 3d 13 a6 8e bd 79 d3 d9 3c ce e4 22 bd
       0.049488317 -0.0696527 0.026590096 -0.039768986
000240 0c fc ef bd 58 81 27 ba ce c9 96 bd 9f 58 dc bd
       -0.11717996 -0.0006389818 -0.0736271 -0.10759091
000250 ed 2b 0d 3d 06 00 1a bd bf 08 bc 3d 91 bd df 3b
       0.03446572 -0.03759768 0.09181356 0.006828018
000260 52 fb 5d bd 41 d7 0a bd 81 d3 38 bd 44 83 90 3d
       -0.054194756 -0.03389669 -0.04512358 0.07056287
000270 74 f0 79 ba 9c 24 5f 3d 6e b8 fa bc 0f 0a 61 3d
       -0.00095344265 0.054478273 -0.030605521 0.054941233
000280 33 c6 c1 3d 5e 6b 29 bc 18 96 7c bc f8 25 db 3a
       0.094616316 -0.01034054 -0.0154166445 0.001671969
000290 df 77 b3 3d f2 8b 51 bd 61 f4 23 be c9 29 8e bd
       0.08763098 -0.051158853 -0.16011192 -0.06941564
0002a0 87 96 84 3b 86 75 06 be 00 72 15 3c 62 ef 94 3d
       0.0040462646 -0.13130769 0.009121418 0.07272221
0002b0 3b ca ac bd dd 23 d3 bc 60 6a df bd 5a 0f 94 3d
       -0.0843701 -0.025773937 -0.10908961 0.072294906
0002c0 f8 6c 50 bd c5 07 4b 3d ba 6b 7f 3d e4 6c ff bc
       -0.05088517 0.049567956 0.062358595 -0.031179853
0002d0 24 c3 45 bd d7 60 b9 bc 54 50 da 3c 1e 56 4d bc
       -0.048281804 -0.022629185 0.026649632 -0.012532739
0002e0 ee 7a 55 bd e2 f7 79 bb 73 06 22 3e e1 50 65 3c
       -0.052119188 -0.0038142134 0.15822773 0.013996334
0002f0 c9 95 1a bd f8 c9 de 3d de 74 1d bd 8e 67 ed bc
       -0.037740503 0.10878366 -0.03844153 -0.028980043
000300 81 4a 05 3e b2 42 05 be 9f f5 05 be c0 2e af 3d
       0.13016702 -0.13013723 -0.13081978 0.08553839
000310 f3 82 84 bd 65 e4 99 3d 0b ac 8a bc b7 0a 1f 3d
       -0.06470289 0.07514266 -0.01692774 0.038828578
000320 dd 87 44 bc 9b 30 39 3c 39 7a bf 3d 4d 69 8d bb
       -0.011995283 0.011303092 0.09349484 -0.0043155313
000330 b7 94 d2 3d 3f 67 89 bd a6 ff bc 3c 66 53 0c 3e
       0.10282271 -0.06709146 0.023071121 0.13703689
000340 7b 68 8c 3d 8c 51 b7 bc 97 98 ec ba f2 33 40 bd
       0.068558656 -0.022377752 -0.0018050846 -0.04692454
000350 67 cc 1b bd 3d 31 7a 3d e0 ca 17 3d 23 92 66 bc
       -0.03803673 0.061082114 0.03705871 -0.014072928
000360 d4 7c c8 bd 60 0b 5c bd 07 d3 dd 3d 30 07 21 3c
       -0.09789434 -0.053721786 0.10831266 0.009828374
000370 46 c4 f7 bc 70 e1 dc 3c 46 3b d7 bc a7 27 74 bd
       -0.030244958 0.026962966 -0.026273381 -0.059608128
000380 2c f9 ce 3c 77 81 a2 bd aa ff a4 bc a4 3a d3 bc
       0.025265299 -0.0793485 -0.020141441 -0.025784798
000390 76 6b 1e 3d 57 ca 82 bd bc ac 1a 3c 6a de 15 3d
       0.0386767 -0.063862495 0.009440597 0.036589064
0003a0 7e 48 c7 bd 35 1d 3b 3d 05 7c a8 3d 9a 68 e5 3c
       -0.09730624 0.04568215 0.0822678 0.02800398
0003b0 b5 80 37 3d 5e 34 34 bc 87 6b d1 bc 12 5d a0 3d
       0.04480048 -0.010998813 -0.025563968 0.07830252
0003c0 b0 e3 a3 3d cc 4c b7 bc aa 32 ba bd ef ee d4 bd
       0.08002412 -0.022375487 -0.09091695 -0.103971355
0003d0 9d ce e5 3d ab 83 84 3d 20 2f af 3d 0c 61 00 3d
       0.11221049 0.06470426 0.0855391 0.03134255
0003e0 5b cd 63 3d c5 64 9a 3d 17 9a 8d 3c 96 a6 8b 3c
       0.055615764 0.075387515 0.01728539 0.017047208
0003f0 e0 75 bb 3b e6 66 d1 b9 be 0e af 3d 2e 8f 79 3d
       0.005720839 -0.00039940252 0.08547734 0.060927562

embedding.embedding_network.4.bias f4 [64]
000000 0c 52 8c bc d8 87 6b 3c 95 c6 94 3c f2 58 96 bc
       -0.017128967 0.014375649 0.018161098 -0.01835296
000010 f6 3d 67 bc 07 5a 96 bc 7a 5b 96 bc f9 07 b0 3a
       -0.014113894 -0.018353475 -0.018354166 0.001343011
000020 21 71 6e 3b 80 ce fd 38 60 bc 64 bc 13 63 51 3c
       0.0036383348 0.00012102444 -0.013960928 0.012779969
000030 0e e2 88 3c 54 85 c8 bb f0 0a cb 39 42 64 c4 ba
       0.016709354 -0.0061194096 0.00038727326 -0.0014983492
000040 45 fe 85 3c ee f2 91 bc 69 a5 94 3c 94 e6 97 bc
       0.016356597 -0.017816033 0.01814528 -0.018542565
000050 64 49 84 3c f4 f0 aa 3a 81 76 f8 3b a2 a0 36 3a
       0.016148277 0.001304178 0.007582486 0.0006966685
000060 f6 44 77 bc 40 97 67 bc 43 9d 83 3c ba 14 6f 3c
       -0.015092125 -0.014135182 0.0160662 0.014592344
000070 f6 f8 a1 ba 36 04 91 3c cc 64 92 3c c6 ca 90 3c
       -0.0012357521 0.017702203 0.01787033 0.017674815
000080 d2 d7 66 ba 95 00 8e 3c 34 76 98 3c 6e d5 53 bc
       -0.00088059634 0.017334262 0.018611051 -0.012929304
000090 fe 28 78 3a 18 10 87 bc 3f ae 87 3c 94 d4 32 bc
       0.00094665575 -0.016487166 0.01656258 -0.01091494
0000a0 4b a0 8e 3c e5 15 7c 3c 2c b0 b9 3b 0a 07 52 3c
       0.017410418 0.015386079 0.0056667533 0.012819061
0000b0 44 c7 b6 3b 49 c2 90 bc d5 60 93 bc 68 0d 2d 3c
       0.0055779535 -0.017670767 -0.017990509 0.010562278
0000c0 ec df 5e 3c dc cf 98 bc c4 d9 90 3c a6 c5 0b 3c
       0.013603192 -0.018653803 0.017681964 0.00853101
0000d0 bd 16 96 3c 32 38 e8 3b de b8 90 bc ea b9 42 bc
       0.01832139 0.007086777 -0.017666277 -0.011885146
0000e0 01 c5 81 3c e1 89 62 3c 7c ec 3e bc b7 3e fc 3a
       0.01584101 0.013826818 -0.011653062 0.0019244765
0000f0 2d d7 98 bc 0e d8 9d ba 50 8d 97 bc 94 1f 82 bc
       -0.018657291 -0.0012042539 -0.0185 -0.015884198

embedding.embedding_network.5.weight f4 [64]
000000 fd e8 6d 3f 40 32 6f 3f 79 20 73 3f ce d4 6d 3f
       0.92933637 0.9343605 0.94971424 0.9290284
000010 2d 65 75 3f eb d1 75 3f 49 2b 75 3f 3c af 74 3f
       0.95857507 0.96023434 0.9576917 0.95579886
000020 1f 16 82 3f 5f 78 6e 3f 84 35 6c 3f 67 3a 73 3f
       1.0163001 0.9315242 0.9226916 0.9501099
000030 e2 78 6c 3f 4f d2 6d 3f 7d 74 81 3f d5 82 72 3f
       0.9237195 0.9289903 1.0113674 0.94730884
000040 2a aa 69 3f 49 c8 77 3f f8 f4 84 3f cc 73 79 3f
       0.91275275 0.96789986 1.0387259 0.97442317
000050 d3 e2 78 3f f2 c5 71 3f b6 9c 79 3f c7 62 75 3f
       0.97221106 0.94442666 0.97504747 0.9585385
000060 41 48 7f 3f ec 04 81 3f 13 3e 76 3f 36 9c 6a 3f
       0.99719626 1.0079627 0.9618847 0.9164461
000070 02 74 6f 3f 2c b8 7c 3f 44 6a 81 3f 15 bd 7d 3f
       0.9353639 0.98718524 1.0110555 0.9911664
000080 73 60 6f 3f 83 a6 6b 3f c0 dc 6c 3f ac bb 73 3f
       0.93506545 0.9205095 0.9252434 0.9520824
000090 bd 6f 7a 3f 0c 62 81 3f 40 d0 7f 3f 2e 06 6c 3f
       0.9782675 1.0108047 0.9992714 0.9219693
0000a0 16 a9 7f 3f fc 11 76 3f c8 f5 7d 3f 8b 8d 77 3f
       0.9986738 0.9612119 0.9920316 0.9670035
0000b0 87 59 6f 3f 04 14 7f 3f fa 6f 7b 3f 16 4d 70 3f
       0.9349598 0.99639916 0.9821774 0.93867624
0000c0 37 7c 7f 3f 63 94 80 3f 34 6d 71 3f 7a a2 6d 3f
       0.9979891 1.0045284 0.94307256 0.92826045
0000d0 e7 62 71 3f 79 50 72 3f 54 69 79 3f 58 e4 81 3f
       0.9429154 0.9465404 0.9742634 1.014781
0000e0 ae 9a 7b 3f ed 2f 6f 3f 8e 68 70 3f 23 a4 72 3f
       0.982829 0.93432504 0.9390954 0.947817
0000f0 6c e4 82 3f 5b e0 79 3f 96 29 65 3f 7e 42 75 3f
       1.0225959 0.97607964 0.8951658 0.95804584

embedding.embedding_network.5.bias f4 [64]
000000 84 13 76 bd 23 7e 5c bd fb b9 e3 bc 51 72 ea bc
       -0.060077205 -0.05383123 -0.027798643 -0.028618963
000010 96 62 3a ba 18 01 36 bc 2f df a0 bc 7f 0e eb bc
       -0.00071100274 -0.011108659 -0.019637672 -0.028693436
000020 9a 52 07 bb f8 34 44 bd 25 4a 28 bd 52 e7 fb bc
       -0.00206486 -0.047902077 -0.041086335 -0.03074995
000030 e6 9c 69 bd 17 0b 89 bd 0d fc 52 bb f3 46 87 bd
       -0.057034396 -0.06691568 -0.003219369 -0.06605329
000040 5e b3 bd bd 07 be 8e bc 83 c4 d6 3c 7a 2f 87 3c
       -0.09262727 -0.017424596 0.026216751 0.01650213
000050 7c 0c b9 bc c3 da 48 bd 00 4a 80 bc 32 a9 79 3b
       -0.02258896 -0.049036752 -0.015660286 0.0038095233
000060 af 2b c3 bc c7 b1 28 bd 07 a8 57 bd dc ac 8c bd
       -0.02382454 -0.041185167 -0.052650478 -0.06868908
000070 e0 23 72 bd 5e 45 9d bb 89 09 b2 3c 02 c1 e6 bc
       -0.059116244 -0.004799529 0.021733062 -0.028168205
000080 db 4a 2e bd ab 1e 96 bd ea 55 84 bd 5d f7 31 bd
       -0.042551856 -0.07330068 -0.06461699 -0.043448795
000090 9d 53 bc bc 05 7f a3 3c d8 21 bb bc 0f 4e 80 bd
       -0.022989089 0.019958029 -0.022843286 -0.062648885
0000a0 a8 3f 07 3a 2f 3d 14 bd f5 5b c1 3c fc 56 d5 3c
       0.0005159327 -0.03619116 0.023603419 0.026042454
0000b0 31 ef 6c bd 6a fe 34 3c a0 54 28 bc b9 3b 94 bd
       -0.0578453 0.011046985 -0.010274082 -0.07237954
0000c0 17 0b 43 bd aa 0e b5 bc 9f 26 94 bd 86 4d a3 bd
       -0.047617998 -0.022101719 -0.07233929 -0.07973771
0000d0 f4 be 1d bd 53 49 76 bd af 5f 0a bd 67 c6 9a 3c
       -0.038512185 -0.06012852 -0.033782657 0.018893434
0000e0 a7 4e 84 3c cd d7 21 bd d3 27 0a bd 1b fb 0b bd
       0.016150786 -0.039512444 -0.033729386 -0.03417502
0000f0 60 e0 d6 bc 76 20 04 bc 74 87 d2 bd be 8b bd bc
       -0.026230037 -0.00806438 -0.10279742 -0.023137923

embedding.embedding_network.5.running_mean f4 [64]
000000 45 30 0e bf ed 51 46 3e c7 38 0a bf 70 ae ca bc
       -0.55542403 0.1936719 -0.53992885 -0.024741381
000010 92 d5 d8 be 48 c0 1f be 3d a4 cb bc b4 d0 00 3d
       -0.4235044 -0.15600693 -0.024858588 0.031449035
000020 29 f0 6d 3e f1 11 ca 3c ae 74 5e bd 3b e8 e0 be
       0.23236145 0.024666758 -0.054310493 -0.43927178
000030 0d bc 21 be 03 a4 6f be d7 62 a2 bb b8 59 03 3f
       -0.15794392 -0.2340241 -0.0049556303 0.51308775
000040 1f 21 27 be ea ca 85 3e 46 31 af 3d 36 91 14 be
       -0.16321228 0.26131374 0.0855432 -0.14508519
000050 d9 db 14 3f 79 c3 0b bf 4a 34 da be 27 37 8d be
       0.5814796 -0.5459514 -0.42618018 -0.2758114
000060 c5 a3 99 3d 69 22 9b 3e b8 f9 d8 bc 16 e4 7d 3e
       0.0750194 0.3029969 -0.026486263 0.24794039
000070 67 1f 6b be 72 97 8a 3d 05 81 ff bc 40 af 31 be
       -0.22961198 0.06767167 -0.031189451 -0.17352009
000080 f7 a3 5c be 39 5a cd 3c d6 68 12 bf 8d f4 63 be
       -0.21546923 0.025067436 -0.57191217 -0.22261257
000090 1f 17 10 3f 6d b5 b3 3d 98 e0 0b 3f ef 5d c7 bd
       0.5628528 0.087748386 0.5463958 -0.09734713
0000a0 a7 ad 79 3e 9a dc ff be 41 eb bd 3d 75 1a d4 3d
       0.2438265 -0.49972993 0.09273387 0.10356609
0000b0 86 30 21 bf fa c8 01 bf d3 40 d1 3d 3f c0 63 3d
       -0.62964666 -0.5069729 0.10217442 0.055603262
0000c0 47 b1 fb 3d dc 1d a2 3e 5a 2f a8 3d 23 6d 4c bd
       0.12289672 0.31663406 0.082121566 -0.04990877
0000d0 bb 6c 9b be e1 45 64 3f 1b 9c 0d 3e 7d 04 9e bc
       -0.30356392 0.89169127 0.13829081 -0.01928925
0000e0 71 2e f2 be d4 1b 1b bf cf d0 ec be a3 80 6c bd
       -0.47301057 -0.6058934 -0.46253058 -0.057739865
0000f0 66 00 73 3e 59 11 23 be b4 f4 6a bd 91 e6 4f bd
       0.2373062 -0.15924586 -0.057362273 -0.050756995

embedding.embedding_network.5.running_var f4 [64]
000000 30 d9 93 3f a7 b4 50 3f bb 06 95 3f 1f 58 07 3f
       1.1550655 0.81525654 1.1642679 0.5286884
000010 01 d9 03 40 24 14 41 3f 18 86 8f 3f d0 30 b9 3f
       2.0601199 0.7542136 1.1212797 1.4468021
000020 da 5e b5 3f 1c 3e 97 3f 5d 20 3c 3f 10 da ae 3f
       1.4169571 1.1815829 0.7348688 1.3660297
000030 95 99 83 3f c8 8a 21 40 06 92 76 3f 4f d4 0e 3f
       1.0281245 2.5240955 0.96316564 0.5579271
000040 47 2c 63 3f a3 76 af 3f 28 84 ed 3f c1 a5 29 3f
       0.88739437 1.370808 1.8555956 0.66268545
000050 c3 00 b1 3f f7 25 bc 3f 8a 1c cb 3f b9 83 ac 3f
       1.3828357 1.4699086 1.5868084 1.3477699
000060 d9 71 ac 3f 12 5b 83 3f 54 4b bc 3f 93 e0 43 3f
       1.3472244 1.0262167 1.4710488 0.7651455
000070 49 49 b2 3f d1 a6 47 3f 91 e7 89 3f e4 1b 34 3f
       1.3928615 0.77988917 1.0773793 0.7035506
000080 27 da a0 3f ae 81 67 3f 0e 92 b8 3f 23 62 9c 3f
       1.2566575 0.9043225 1.4419572 1.2217449
000090 28 ce 40 3f 12 6a 90 3f 40 ea 5b 3f 4f 14 80 3f
       0.7531457 1.128237 0.8590431 1.0006198
0000a0 0f b8 42 3f c9 09 8f 3f 87 41 7b 3f 56 30 c1 3f
       0.760621 1.1174861 0.9814686 1.5092876
0000b0 4f 26 a7 3f 56 5d fa 3f 46 9f c7 3f 82 8c 94 3f
       1.3058566 1.9559734 1.5595481 1.160538
0000c0 8c f8 80 3f cf b7 75 3f da 5c e2 3e b9 21 e6 3f
       1.007585 0.95983595 0.44211465 1.7979041
0000d0 cf 11 9d 3f d2 1c 4c 3f 11 cf f9 3f 57 cd 9f 3f
       1.227106 0.79731476 1.9516317 1.248454
0000e0 cf 7b 22 3f 47 a8 c7 3f ea af 46 3f 4f d8 86 3f
       0.63470167 1.5598229 0.77612174 1.0534762
0000f0 44 bf 6a 3f 9f c4 e3 3e 3b b1 95 3f b6 be 5b 3f
       0.916981 0.44485947 1.1694711 0.85837877

embedding.embedding_network.8.weight f4 [3, 64]
000000 e9 85 81 ba 2a 2d 33 bd a4 28 2b bd d4 63 c5 3d
       -0.0009881827 -0.043744244 -0.041786805 0.09638181
000010 90 de 9b 3d 64 07 06 3d c7 81 fb bc ab 19 33 bd
       0.0761081 0.032721892 -0.030701531 -0.04372565
000020 6e a6 a5 bc ba fe 95 bc 64 da ef 3c 21 f1 6b 3d
       -0.020220961 -0.01830994 0.029278941 0.057603005
000030 e1 fd 80 bd b9 40 ec bd 9d cf 45 3d 94 4d aa 3d
       -0.062984236 -0.11535782 0.0482937 0.08315578
000040 cd a9 db 3c 3c 88 e1 3c 23 d9 14 be 43 6e 05 3d
       0.026814366 0.027530782 -0.14535956 0.032575857
000050 6c 7a 2c 3d 60 a2 86 bc 01 ec 87 bc 22 c9 cb bd
       0.042108938 -0.016434848 -0.016592028 -0.099504724
000060 ca 48 16 3d 16 c6 52 3b f3 81 7f bd df 2b 25 3c
       0.03669051 0.0032161525 -0.06237979 0.01008126
000070 9a 22 c4 3c 88 83 c5 bd 4a 29 12 3c 68 a6 bf 3d
       0.02394228 -0.09644228 0.008920977 0.09357911
000080 21 68 8e bd 71 ad f2 3c ec 58 27 3c 8e 61 c2 3c
       -0.06953455 0.029623719 0.010214072 0.023728158
000090 d4 46 b5 3b 31 e5 15 bd 8a 0f f0 3d 7e 99 c8 bb
       0.005532125 -0.036595527 0.11721714 -0.0061218133
0000a0 3e ab 84 3d 5f 2d 42 3d 2b 3c 03 be bb c8 61 bc
       0.06477974 0.04740655 -0.12815921 -0.013780768
0000b0 7d fd 91 bc 34 34 e0 bc 1a 93 d5 3d d2 56 4c bd
       -0.017821068 -0.027368642 0.10428448 -0.049887486
0000c0 9f da 91 3d b5 62 ed bc 74 99 91 bd 9c 61 61 bd
       0.07121777 -0.028977731 -0.07109347 -0.05502473
0000d0 d7 9f d3 3d 0f 90 d0 3c 71 3d a4 bc ce dd 25 be
       0.103332214 0.025459317 -0.020048829 -0.16197893
0000e0 90 61 b7 bd 9a f3 51 bc 77 d2 cf bb a9 4e b2 3c
       -0.089541554 -0.012814427 -0.006342228 0.021766024
0000f0 b5 ed 46 3d 44 0a 8d bd 4e 59 3e 3c cd 62 97 3c
       0.04856654 -0.06886724 0.011617972 0.01847973
000100 e0 53 76 bd ae ee ef 3c af 17 9e 3c 1e 67 84 3c
       -0.060138583 0.029288616 0.019298403 0.016162451
000110 12 ba 00 3e 80 86 2d 3d ea 9e 60 3d 15 0d 48 3d
       0.1257098 0.042364597 0.054839052 0.0488406
000120 bf cd 02 bd 88 bc 89 3d 1c 5c 38 3d 96 b6 95 bc
       -0.031934496 0.067254126 0.045009717 -0.01827554
000130 ce 22 90 bd b0 c7 eb 3c 51 c0 a4 3d 19 e1 c4 bd
       -0.070378885 0.028781742 0.08044494 -0.096132465
000140 b1 f5 5b bd ba a4 38 bd 8c e4 1a be 4a ae 71 3d
       -0.053701106 -0.04507897 -0.15126246 0.059004106
000150 b6 e5 76 3d a1 4d ca 3b bd ad cd 3d ca 61 b8 3d
       0.060277663 0.006173805 0.100429036 0.09003027
000160 4d e0 36 bd f4 b9 06 bd ab 81 7a 3d 0a 40 17 bd
       -0.044647504 -0.032892182 0.061158817 -0.036926307
000170 30 4c 50 bd 35 fa 42 bd 61 7a 00 3c 1e cf 9b 3c
       -0.050853908 -0.047601897 0.007841677 0.01901966
000180 66 04 85 3c ee f7 ee bc 67 3c 8f bb 21 8e 51 bd
       0.016237449 -0.029170956 -0.004371214 -0.051160935
000190 1f b3 7f bd ef 25 94 3d 81 fc 97 bb 66 82 02 3c
       -0.062426683 0.07233798 -0.004638255 0.00796566
0001a0 aa b8 b1 3d 9f ea ae bd aa 9e 83 3c ea a5 3e 3d
       0.086778 -0.08540844 0.016066868 0.046544947
0001b0 87 0c db bc 70 60 de 3d fa c7 57 3b 65 f3 de 3d
       -0.026739372 0.10858238 0.0032925592 0.108862676
0001c0 95 7e db 3b 89 58 8d bd 3d e5 49 3d 4e d3 a6 3c
       0.0066984394 -0.06901652 0.049290884 0.02036443
0001d0 5d 28 0e bd 81 92 a0 bc 8a 7c df bd fc 00 92 3d
       -0.034706462 -0.019601109 -0.10912426 0.07129094
0001e0 e2 29 95 3d 65 cf 4c bd 3c 2f 8e bd 41 78 ed 3c
       0.07283379 -0.050002474 -0.06942603 0.028988006
0001f0 4c cb 78 3d 34 9c 1b bd 48 e6 93 bb 4b 20 c2 3d
       0.060740754 -0.037990764 -0.0045135356 0.09478816
000200 c0 c5 6f bd f6 24 04 3d e6 6a 80 bc 77 ea a7 3d
       -0.0585382 0.03226181 -0.015675973 0.081990175
000210 e5 ec a6 3d 80 ad a6 bd 64 53 37 3d 30 52 a3 bd
       0.08150653 -0.08138561 0.044757262 -0.079746604
000220 06 f9 04 3e c7 99 99 3c 1d 3e 92 3d b6 8b ac bd
       0.1298562 0.018750085 0.071407534 -0.08425085
000230 8c f6 1e bd 80 d9 d0 bc 14 b5 93 3d 50 7b 19 3d
       -0.038809344 -0.025494337 0.07212272 0.037471116
000240 13 53 4c bc 81 86 49 3d a5 c0 4a 3d b4 11 dd 3d
       -0.012470978 0.04920054 0.049500126 0.10794392
000250 b6 f2 a1 bd 13 95 36 bd 10 f3 10 3d 0a c9 29 bd
       -0.079076216 -0.044575762 0.035388052 -0.04145149
000260 80 ab 01 3e 91 b7 ff 3d d2 62 84 3b 64 2d 87 3c
       0.12663078 0.124861844 0.0040401006 0.016501136
000270 b5 44 e3 bb 40 21 a8 3c 75 6d 0d 3e 70 31 4e bd
       -0.0069356808 0.020523667 0.13811286 -0.050340116
000280 1c 41 09 bd a6 a8 39 3b 16 53 8c bc 08 e7 7b bd
       -0.03350936 0.0028329282 -0.017129462 -0.061499625
000290 fd 66 1a 3d 18 6c fa 3d 37 83 8a 3d 93 aa 21 bc
       0.037695874 0.122276485 0.067633085 -0.009867328
0002a0 f3 bf 6d 3d eb 5c 71 bd 05 fd 9b 3d 74 93 80 3d
       0.058044385 -0.058926504 0.07616619 0.062781245
0002b0 98 80 18 bd 2c 20 5c 3d a0 45 b5 3c 54 e7 fc 3c
       -0.03723201 0.05374162 0.022127926 0.030872025
0002c0 ad 81 bb bd bf 86 5e 3d 4a 34 83 bd 98 b5 e0 3c
       -0.09155593 0.054327723 -0.06406458 0.02743034
0002d0 3c 63 02 bd da 7f 09 3d f8 68 32 3d 1e 04 82 3d
       -0.03183292 0.033569194 0.043557137 0.063484415
0002e0 88 78 9f bd 1f 20 78 bd c1 f0 87 bd d5 cf 69 bd
       -0.077866614 -0.060577508 -0.06637717 -0.05708297
0002f0 9d 0d 61 3d c8 2c 4e 3d 9a 5b b7 bb 1d 39 dd 3d
       0.054944623 0.050335675 -0.0055956366 0.10801909

embedding.embedding_network.8.bias f4 [3]
000000 84 16 9a bd cb 18 a3 bb c4 a8 4f bd
       -0.07523826 -0.004977321 -0.050698057
